{
  "nodes": [
    {
      "op": "null", 
      "name": "curr_env", 
      "inputs": []
    }, 
    {
      "op": "Reshape", 
      "name": "reshape22", 
      "attr": {"shape": "(6000, -1)"}, 
      "inputs": [[0, 0, 0]]
    }, 
    {
      "op": "null", 
      "name": "curr_args", 
      "inputs": []
    }, 
    {
      "op": "Reshape", 
      "name": "reshape23", 
      "attr": {"shape": "(6000, -1)"}, 
      "inputs": [[2, 0, 0]]
    }, 
    {
      "op": "Concat", 
      "name": "s_t", 
      "attr": {
        "dim": "1", 
        "num_args": "2"
      }, 
      "inputs": [[1, 0, 0], [3, 0, 0]]
    }, 
    {
      "op": "null", 
      "name": "f_enc_fc1_weight", 
      "attr": {"num_hidden": "256"}, 
      "inputs": []
    }, 
    {
      "op": "null", 
      "name": "f_enc_fc1_bias", 
      "attr": {"num_hidden": "256"}, 
      "inputs": []
    }, 
    {
      "op": "FullyConnected", 
      "name": "f_enc_fc1", 
      "attr": {"num_hidden": "256"}, 
      "inputs": [[4, 0, 0], [5, 0, 0], [6, 0, 0]]
    }, 
    {
      "op": "Activation", 
      "name": "f_enc_act1", 
      "attr": {"act_type": "relu"}, 
      "inputs": [[7, 0, 0]]
    }, 
    {
      "op": "null", 
      "name": "f_enc_weight", 
      "attr": {"num_hidden": "128"}, 
      "inputs": []
    }, 
    {
      "op": "null", 
      "name": "f_enc_bias", 
      "attr": {"num_hidden": "128"}, 
      "inputs": []
    }, 
    {
      "op": "FullyConnected", 
      "name": "f_enc", 
      "attr": {"num_hidden": "128"}, 
      "inputs": [[8, 0, 0], [9, 0, 0], [10, 0, 0]]
    }, 
    {
      "op": "null", 
      "name": "curr_prog", 
      "inputs": []
    }, 
    {
      "op": "null", 
      "name": "prog_embedding_weight", 
      "attr": {
        "input_dim": "10", 
        "output_dim": "16"
      }, 
      "inputs": []
    }, 
    {
      "op": "Embedding", 
      "name": "prog_embedding", 
      "attr": {
        "input_dim": "10", 
        "output_dim": "16"
      }, 
      "inputs": [[12, 0, 0], [13, 0, 0]]
    }, 
    {
      "op": "Reshape", 
      "name": "reshape24", 
      "attr": {"shape": "(6000, -1)"}, 
      "inputs": [[14, 0, 0]]
    }, 
    {
      "op": "Concat", 
      "name": "curr_inputs", 
      "attr": {
        "dim": "1", 
        "num_args": "2"
      }, 
      "inputs": [[11, 0, 0], [15, 0, 0]]
    }, 
    {
      "op": "null", 
      "name": "curr_inputs_fc1_weight", 
      "attr": {"num_hidden": "128"}, 
      "inputs": []
    }, 
    {
      "op": "null", 
      "name": "curr_inputs_fc1_bias", 
      "attr": {"num_hidden": "128"}, 
      "inputs": []
    }, 
    {
      "op": "FullyConnected", 
      "name": "curr_inputs_fc1", 
      "attr": {"num_hidden": "128"}, 
      "inputs": [[16, 0, 0], [17, 0, 0], [18, 0, 0]]
    }, 
    {
      "op": "Activation", 
      "name": "curr_inputs_act1", 
      "attr": {"act_type": "relu"}, 
      "inputs": [[19, 0, 0]]
    }, 
    {
      "op": "null", 
      "name": "enc_inputs_weight", 
      "attr": {"num_hidden": "32"}, 
      "inputs": []
    }, 
    {
      "op": "null", 
      "name": "enc_inputs_bias", 
      "attr": {"num_hidden": "32"}, 
      "inputs": []
    }, 
    {
      "op": "FullyConnected", 
      "name": "enc_inputs", 
      "attr": {"num_hidden": "32"}, 
      "inputs": [[20, 0, 0], [21, 0, 0], [22, 0, 0]]
    }, 
    {
      "op": "Reshape", 
      "name": "reshape25", 
      "attr": {"shape": "(100, 60, -1)"}, 
      "inputs": [[23, 0, 0]]
    }, 
    {
      "op": "SliceChannel", 
      "name": "split2", 
      "attr": {
        "axis": "1", 
        "num_outputs": "60", 
        "squeeze_axis": "1"
      }, 
      "inputs": [[24, 0, 0]]
    }, 
    {
      "op": "null", 
      "name": "lstm_l0_i2h_weight", 
      "inputs": []
    }, 
    {
      "op": "null", 
      "name": "lstm_l0_i2h_bias", 
      "attr": {"__init__": "[\"lstmbias\", {\"forget_bias\": 1.0}]"}, 
      "inputs": []
    }, 
    {
      "op": "FullyConnected", 
      "name": "lstm_l0_t0_i2h", 
      "attr": {"num_hidden": "1024"}, 
      "inputs": [[25, 0, 0], [26, 0, 0], [27, 0, 0]]
    }, 
    {
      "op": "_zeros", 
      "name": "lstm_l0_begin_state_0", 
      "attr": {
        "__layout__": "NC", 
        "dtype": "float32", 
        "shape": "(0, 256)"
      }, 
      "inputs": []
    }, 
    {
      "op": "null", 
      "name": "lstm_l0_h2h_weight", 
      "inputs": []
    }, 
    {
      "op": "null", 
      "name": "lstm_l0_h2h_bias", 
      "inputs": []
    }, 
    {
      "op": "FullyConnected", 
      "name": "lstm_l0_t0_h2h", 
      "attr": {"num_hidden": "1024"}, 
      "inputs": [[29, 0, 0], [30, 0, 0], [31, 0, 0]]
    }, 
    {
      "op": "elemwise_add", 
      "name": "_plus280", 
      "inputs": [[28, 0, 0], [32, 0, 0]]
    }, 
    {
      "op": "SliceChannel", 
      "name": "lstm_l0_t0_slice", 
      "attr": {"num_outputs": "4"}, 
      "inputs": [[33, 0, 0]]
    }, 
    {
      "op": "Activation", 
      "name": "lstm_l0_t0_o", 
      "attr": {"act_type": "sigmoid"}, 
      "inputs": [[34, 3, 0]]
    }, 
    {
      "op": "Activation", 
      "name": "lstm_l0_t0_f", 
      "attr": {"act_type": "sigmoid"}, 
      "inputs": [[34, 1, 0]]
    }, 
    {
      "op": "_zeros", 
      "name": "lstm_l0_begin_state_1", 
      "attr": {
        "__layout__": "NC", 
        "dtype": "float32", 
        "shape": "(0, 256)"
      }, 
      "inputs": []
    }, 
    {
      "op": "_mul", 
      "name": "_mul560", 
      "inputs": [[36, 0, 0], [37, 0, 0]]
    }, 
    {
      "op": "Activation", 
      "name": "lstm_l0_t0_i", 
      "attr": {"act_type": "sigmoid"}, 
      "inputs": [[34, 0, 0]]
    }, 
    {
      "op": "Activation", 
      "name": "lstm_l0_t0_c", 
      "attr": {"act_type": "tanh"}, 
      "inputs": [[34, 2, 0]]
    }, 
    {
      "op": "_mul", 
      "name": "_mul561", 
      "inputs": [[39, 0, 0], [40, 0, 0]]
    }, 
    {
      "op": "elemwise_add", 
      "name": "lstm_l0_t0_state", 
      "inputs": [[38, 0, 0], [41, 0, 0]]
    }, 
    {
      "op": "Activation", 
      "name": "activation280", 
      "attr": {"act_type": "tanh"}, 
      "inputs": [[42, 0, 0]]
    }, 
    {
      "op": "_mul", 
      "name": "lstm_l0_t0_out", 
      "inputs": [[35, 0, 0], [43, 0, 0]]
    }, 
    {
      "op": "null", 
      "name": "lstm_l1_i2h_weight", 
      "inputs": []
    }, 
    {
      "op": "null", 
      "name": "lstm_l1_i2h_bias", 
      "attr": {"__init__": "[\"lstmbias\", {\"forget_bias\": 1.0}]"}, 
      "inputs": []
    }, 
    {
      "op": "FullyConnected", 
      "name": "lstm_l1_t0_i2h", 
      "attr": {"num_hidden": "1024"}, 
      "inputs": [[44, 0, 0], [45, 0, 0], [46, 0, 0]]
    }, 
    {
      "op": "_zeros", 
      "name": "lstm_l1_begin_state_0", 
      "attr": {
        "__layout__": "NC", 
        "dtype": "float32", 
        "shape": "(0, 256)"
      }, 
      "inputs": []
    }, 
    {
      "op": "null", 
      "name": "lstm_l1_h2h_weight", 
      "inputs": []
    }, 
    {
      "op": "null", 
      "name": "lstm_l1_h2h_bias", 
      "inputs": []
    }, 
    {
      "op": "FullyConnected", 
      "name": "lstm_l1_t0_h2h", 
      "attr": {"num_hidden": "1024"}, 
      "inputs": [[48, 0, 0], [49, 0, 0], [50, 0, 0]]
    }, 
    {
      "op": "elemwise_add", 
      "name": "_plus340", 
      "inputs": [[47, 0, 0], [51, 0, 0]]
    }, 
    {
      "op": "SliceChannel", 
      "name": "lstm_l1_t0_slice", 
      "attr": {"num_outputs": "4"}, 
      "inputs": [[52, 0, 0]]
    }, 
    {
      "op": "Activation", 
      "name": "lstm_l1_t0_o", 
      "attr": {"act_type": "sigmoid"}, 
      "inputs": [[53, 3, 0]]
    }, 
    {
      "op": "Activation", 
      "name": "lstm_l1_t0_f", 
      "attr": {"act_type": "sigmoid"}, 
      "inputs": [[53, 1, 0]]
    }, 
    {
      "op": "_zeros", 
      "name": "lstm_l1_begin_state_1", 
      "attr": {
        "__layout__": "NC", 
        "dtype": "float32", 
        "shape": "(0, 256)"
      }, 
      "inputs": []
    }, 
    {
      "op": "_mul", 
      "name": "_mul680", 
      "inputs": [[55, 0, 0], [56, 0, 0]]
    }, 
    {
      "op": "Activation", 
      "name": "lstm_l1_t0_i", 
      "attr": {"act_type": "sigmoid"}, 
      "inputs": [[53, 0, 0]]
    }, 
    {
      "op": "Activation", 
      "name": "lstm_l1_t0_c", 
      "attr": {"act_type": "tanh"}, 
      "inputs": [[53, 2, 0]]
    }, 
    {
      "op": "_mul", 
      "name": "_mul681", 
      "inputs": [[58, 0, 0], [59, 0, 0]]
    }, 
    {
      "op": "elemwise_add", 
      "name": "lstm_l1_t0_state", 
      "inputs": [[57, 0, 0], [60, 0, 0]]
    }, 
    {
      "op": "Activation", 
      "name": "activation340", 
      "attr": {"act_type": "tanh"}, 
      "inputs": [[61, 0, 0]]
    }, 
    {
      "op": "_mul", 
      "name": "lstm_l1_t0_out", 
      "inputs": [[54, 0, 0], [62, 0, 0]]
    }, 
    {
      "op": "expand_dims", 
      "name": "expand_dims140", 
      "attr": {"axis": "1"}, 
      "inputs": [[63, 0, 0]]
    }, 
    {
      "op": "FullyConnected", 
      "name": "lstm_l0_t1_i2h", 
      "attr": {"num_hidden": "1024"}, 
      "inputs": [[25, 1, 0], [26, 0, 0], [27, 0, 0]]
    }, 
    {
      "op": "FullyConnected", 
      "name": "lstm_l0_t1_h2h", 
      "attr": {"num_hidden": "1024"}, 
      "inputs": [[44, 0, 0], [30, 0, 0], [31, 0, 0]]
    }, 
    {
      "op": "elemwise_add", 
      "name": "_plus281", 
      "inputs": [[65, 0, 0], [66, 0, 0]]
    }, 
    {
      "op": "SliceChannel", 
      "name": "lstm_l0_t1_slice", 
      "attr": {"num_outputs": "4"}, 
      "inputs": [[67, 0, 0]]
    }, 
    {
      "op": "Activation", 
      "name": "lstm_l0_t1_o", 
      "attr": {"act_type": "sigmoid"}, 
      "inputs": [[68, 3, 0]]
    }, 
    {
      "op": "Activation", 
      "name": "lstm_l0_t1_f", 
      "attr": {"act_type": "sigmoid"}, 
      "inputs": [[68, 1, 0]]
    }, 
    {
      "op": "_mul", 
      "name": "_mul562", 
      "inputs": [[70, 0, 0], [42, 0, 0]]
    }, 
    {
      "op": "Activation", 
      "name": "lstm_l0_t1_i", 
      "attr": {"act_type": "sigmoid"}, 
      "inputs": [[68, 0, 0]]
    }, 
    {
      "op": "Activation", 
      "name": "lstm_l0_t1_c", 
      "attr": {"act_type": "tanh"}, 
      "inputs": [[68, 2, 0]]
    }, 
    {
      "op": "_mul", 
      "name": "_mul563", 
      "inputs": [[72, 0, 0], [73, 0, 0]]
    }, 
    {
      "op": "elemwise_add", 
      "name": "lstm_l0_t1_state", 
      "inputs": [[71, 0, 0], [74, 0, 0]]
    }, 
    {
      "op": "Activation", 
      "name": "activation281", 
      "attr": {"act_type": "tanh"}, 
      "inputs": [[75, 0, 0]]
    }, 
    {
      "op": "_mul", 
      "name": "lstm_l0_t1_out", 
      "inputs": [[69, 0, 0], [76, 0, 0]]
    }, 
    {
      "op": "FullyConnected", 
      "name": "lstm_l1_t1_i2h", 
      "attr": {"num_hidden": "1024"}, 
      "inputs": [[77, 0, 0], [45, 0, 0], [46, 0, 0]]
    }, 
    {
      "op": "FullyConnected", 
      "name": "lstm_l1_t1_h2h", 
      "attr": {"num_hidden": "1024"}, 
      "inputs": [[63, 0, 0], [49, 0, 0], [50, 0, 0]]
    }, 
    {
      "op": "elemwise_add", 
      "name": "_plus341", 
      "inputs": [[78, 0, 0], [79, 0, 0]]
    }, 
    {
      "op": "SliceChannel", 
      "name": "lstm_l1_t1_slice", 
      "attr": {"num_outputs": "4"}, 
      "inputs": [[80, 0, 0]]
    }, 
    {
      "op": "Activation", 
      "name": "lstm_l1_t1_o", 
      "attr": {"act_type": "sigmoid"}, 
      "inputs": [[81, 3, 0]]
    }, 
    {
      "op": "Activation", 
      "name": "lstm_l1_t1_f", 
      "attr": {"act_type": "sigmoid"}, 
      "inputs": [[81, 1, 0]]
    }, 
    {
      "op": "_mul", 
      "name": "_mul682", 
      "inputs": [[83, 0, 0], [61, 0, 0]]
    }, 
    {
      "op": "Activation", 
      "name": "lstm_l1_t1_i", 
      "attr": {"act_type": "sigmoid"}, 
      "inputs": [[81, 0, 0]]
    }, 
    {
      "op": "Activation", 
      "name": "lstm_l1_t1_c", 
      "attr": {"act_type": "tanh"}, 
      "inputs": [[81, 2, 0]]
    }, 
    {
      "op": "_mul", 
      "name": "_mul683", 
      "inputs": [[85, 0, 0], [86, 0, 0]]
    }, 
    {
      "op": "elemwise_add", 
      "name": "lstm_l1_t1_state", 
      "inputs": [[84, 0, 0], [87, 0, 0]]
    }, 
    {
      "op": "Activation", 
      "name": "activation341", 
      "attr": {"act_type": "tanh"}, 
      "inputs": [[88, 0, 0]]
    }, 
    {
      "op": "_mul", 
      "name": "lstm_l1_t1_out", 
      "inputs": [[82, 0, 0], [89, 0, 0]]
    }, 
    {
      "op": "expand_dims", 
      "name": "expand_dims141", 
      "attr": {"axis": "1"}, 
      "inputs": [[90, 0, 0]]
    }, 
    {
      "op": "FullyConnected", 
      "name": "lstm_l0_t2_i2h", 
      "attr": {"num_hidden": "1024"}, 
      "inputs": [[25, 2, 0], [26, 0, 0], [27, 0, 0]]
    }, 
    {
      "op": "FullyConnected", 
      "name": "lstm_l0_t2_h2h", 
      "attr": {"num_hidden": "1024"}, 
      "inputs": [[77, 0, 0], [30, 0, 0], [31, 0, 0]]
    }, 
    {
      "op": "elemwise_add", 
      "name": "_plus282", 
      "inputs": [[92, 0, 0], [93, 0, 0]]
    }, 
    {
      "op": "SliceChannel", 
      "name": "lstm_l0_t2_slice", 
      "attr": {"num_outputs": "4"}, 
      "inputs": [[94, 0, 0]]
    }, 
    {
      "op": "Activation", 
      "name": "lstm_l0_t2_o", 
      "attr": {"act_type": "sigmoid"}, 
      "inputs": [[95, 3, 0]]
    }, 
    {
      "op": "Activation", 
      "name": "lstm_l0_t2_f", 
      "attr": {"act_type": "sigmoid"}, 
      "inputs": [[95, 1, 0]]
    }, 
    {
      "op": "_mul", 
      "name": "_mul564", 
      "inputs": [[97, 0, 0], [75, 0, 0]]
    }, 
    {
      "op": "Activation", 
      "name": "lstm_l0_t2_i", 
      "attr": {"act_type": "sigmoid"}, 
      "inputs": [[95, 0, 0]]
    }, 
    {
      "op": "Activation", 
      "name": "lstm_l0_t2_c", 
      "attr": {"act_type": "tanh"}, 
      "inputs": [[95, 2, 0]]
    }, 
    {
      "op": "_mul", 
      "name": "_mul565", 
      "inputs": [[99, 0, 0], [100, 0, 0]]
    }, 
    {
      "op": "elemwise_add", 
      "name": "lstm_l0_t2_state", 
      "inputs": [[98, 0, 0], [101, 0, 0]]
    }, 
    {
      "op": "Activation", 
      "name": "activation282", 
      "attr": {"act_type": "tanh"}, 
      "inputs": [[102, 0, 0]]
    }, 
    {
      "op": "_mul", 
      "name": "lstm_l0_t2_out", 
      "inputs": [[96, 0, 0], [103, 0, 0]]
    }, 
    {
      "op": "FullyConnected", 
      "name": "lstm_l1_t2_i2h", 
      "attr": {"num_hidden": "1024"}, 
      "inputs": [[104, 0, 0], [45, 0, 0], [46, 0, 0]]
    }, 
    {
      "op": "FullyConnected", 
      "name": "lstm_l1_t2_h2h", 
      "attr": {"num_hidden": "1024"}, 
      "inputs": [[90, 0, 0], [49, 0, 0], [50, 0, 0]]
    }, 
    {
      "op": "elemwise_add", 
      "name": "_plus342", 
      "inputs": [[105, 0, 0], [106, 0, 0]]
    }, 
    {
      "op": "SliceChannel", 
      "name": "lstm_l1_t2_slice", 
      "attr": {"num_outputs": "4"}, 
      "inputs": [[107, 0, 0]]
    }, 
    {
      "op": "Activation", 
      "name": "lstm_l1_t2_o", 
      "attr": {"act_type": "sigmoid"}, 
      "inputs": [[108, 3, 0]]
    }, 
    {
      "op": "Activation", 
      "name": "lstm_l1_t2_f", 
      "attr": {"act_type": "sigmoid"}, 
      "inputs": [[108, 1, 0]]
    }, 
    {
      "op": "_mul", 
      "name": "_mul684", 
      "inputs": [[110, 0, 0], [88, 0, 0]]
    }, 
    {
      "op": "Activation", 
      "name": "lstm_l1_t2_i", 
      "attr": {"act_type": "sigmoid"}, 
      "inputs": [[108, 0, 0]]
    }, 
    {
      "op": "Activation", 
      "name": "lstm_l1_t2_c", 
      "attr": {"act_type": "tanh"}, 
      "inputs": [[108, 2, 0]]
    }, 
    {
      "op": "_mul", 
      "name": "_mul685", 
      "inputs": [[112, 0, 0], [113, 0, 0]]
    }, 
    {
      "op": "elemwise_add", 
      "name": "lstm_l1_t2_state", 
      "inputs": [[111, 0, 0], [114, 0, 0]]
    }, 
    {
      "op": "Activation", 
      "name": "activation342", 
      "attr": {"act_type": "tanh"}, 
      "inputs": [[115, 0, 0]]
    }, 
    {
      "op": "_mul", 
      "name": "lstm_l1_t2_out", 
      "inputs": [[109, 0, 0], [116, 0, 0]]
    }, 
    {
      "op": "expand_dims", 
      "name": "expand_dims142", 
      "attr": {"axis": "1"}, 
      "inputs": [[117, 0, 0]]
    }, 
    {
      "op": "FullyConnected", 
      "name": "lstm_l0_t3_i2h", 
      "attr": {"num_hidden": "1024"}, 
      "inputs": [[25, 3, 0], [26, 0, 0], [27, 0, 0]]
    }, 
    {
      "op": "FullyConnected", 
      "name": "lstm_l0_t3_h2h", 
      "attr": {"num_hidden": "1024"}, 
      "inputs": [[104, 0, 0], [30, 0, 0], [31, 0, 0]]
    }, 
    {
      "op": "elemwise_add", 
      "name": "_plus283", 
      "inputs": [[119, 0, 0], [120, 0, 0]]
    }, 
    {
      "op": "SliceChannel", 
      "name": "lstm_l0_t3_slice", 
      "attr": {"num_outputs": "4"}, 
      "inputs": [[121, 0, 0]]
    }, 
    {
      "op": "Activation", 
      "name": "lstm_l0_t3_o", 
      "attr": {"act_type": "sigmoid"}, 
      "inputs": [[122, 3, 0]]
    }, 
    {
      "op": "Activation", 
      "name": "lstm_l0_t3_f", 
      "attr": {"act_type": "sigmoid"}, 
      "inputs": [[122, 1, 0]]
    }, 
    {
      "op": "_mul", 
      "name": "_mul566", 
      "inputs": [[124, 0, 0], [102, 0, 0]]
    }, 
    {
      "op": "Activation", 
      "name": "lstm_l0_t3_i", 
      "attr": {"act_type": "sigmoid"}, 
      "inputs": [[122, 0, 0]]
    }, 
    {
      "op": "Activation", 
      "name": "lstm_l0_t3_c", 
      "attr": {"act_type": "tanh"}, 
      "inputs": [[122, 2, 0]]
    }, 
    {
      "op": "_mul", 
      "name": "_mul567", 
      "inputs": [[126, 0, 0], [127, 0, 0]]
    }, 
    {
      "op": "elemwise_add", 
      "name": "lstm_l0_t3_state", 
      "inputs": [[125, 0, 0], [128, 0, 0]]
    }, 
    {
      "op": "Activation", 
      "name": "activation283", 
      "attr": {"act_type": "tanh"}, 
      "inputs": [[129, 0, 0]]
    }, 
    {
      "op": "_mul", 
      "name": "lstm_l0_t3_out", 
      "inputs": [[123, 0, 0], [130, 0, 0]]
    }, 
    {
      "op": "FullyConnected", 
      "name": "lstm_l1_t3_i2h", 
      "attr": {"num_hidden": "1024"}, 
      "inputs": [[131, 0, 0], [45, 0, 0], [46, 0, 0]]
    }, 
    {
      "op": "FullyConnected", 
      "name": "lstm_l1_t3_h2h", 
      "attr": {"num_hidden": "1024"}, 
      "inputs": [[117, 0, 0], [49, 0, 0], [50, 0, 0]]
    }, 
    {
      "op": "elemwise_add", 
      "name": "_plus343", 
      "inputs": [[132, 0, 0], [133, 0, 0]]
    }, 
    {
      "op": "SliceChannel", 
      "name": "lstm_l1_t3_slice", 
      "attr": {"num_outputs": "4"}, 
      "inputs": [[134, 0, 0]]
    }, 
    {
      "op": "Activation", 
      "name": "lstm_l1_t3_o", 
      "attr": {"act_type": "sigmoid"}, 
      "inputs": [[135, 3, 0]]
    }, 
    {
      "op": "Activation", 
      "name": "lstm_l1_t3_f", 
      "attr": {"act_type": "sigmoid"}, 
      "inputs": [[135, 1, 0]]
    }, 
    {
      "op": "_mul", 
      "name": "_mul686", 
      "inputs": [[137, 0, 0], [115, 0, 0]]
    }, 
    {
      "op": "Activation", 
      "name": "lstm_l1_t3_i", 
      "attr": {"act_type": "sigmoid"}, 
      "inputs": [[135, 0, 0]]
    }, 
    {
      "op": "Activation", 
      "name": "lstm_l1_t3_c", 
      "attr": {"act_type": "tanh"}, 
      "inputs": [[135, 2, 0]]
    }, 
    {
      "op": "_mul", 
      "name": "_mul687", 
      "inputs": [[139, 0, 0], [140, 0, 0]]
    }, 
    {
      "op": "elemwise_add", 
      "name": "lstm_l1_t3_state", 
      "inputs": [[138, 0, 0], [141, 0, 0]]
    }, 
    {
      "op": "Activation", 
      "name": "activation343", 
      "attr": {"act_type": "tanh"}, 
      "inputs": [[142, 0, 0]]
    }, 
    {
      "op": "_mul", 
      "name": "lstm_l1_t3_out", 
      "inputs": [[136, 0, 0], [143, 0, 0]]
    }, 
    {
      "op": "expand_dims", 
      "name": "expand_dims143", 
      "attr": {"axis": "1"}, 
      "inputs": [[144, 0, 0]]
    }, 
    {
      "op": "FullyConnected", 
      "name": "lstm_l0_t4_i2h", 
      "attr": {"num_hidden": "1024"}, 
      "inputs": [[25, 4, 0], [26, 0, 0], [27, 0, 0]]
    }, 
    {
      "op": "FullyConnected", 
      "name": "lstm_l0_t4_h2h", 
      "attr": {"num_hidden": "1024"}, 
      "inputs": [[131, 0, 0], [30, 0, 0], [31, 0, 0]]
    }, 
    {
      "op": "elemwise_add", 
      "name": "_plus284", 
      "inputs": [[146, 0, 0], [147, 0, 0]]
    }, 
    {
      "op": "SliceChannel", 
      "name": "lstm_l0_t4_slice", 
      "attr": {"num_outputs": "4"}, 
      "inputs": [[148, 0, 0]]
    }, 
    {
      "op": "Activation", 
      "name": "lstm_l0_t4_o", 
      "attr": {"act_type": "sigmoid"}, 
      "inputs": [[149, 3, 0]]
    }, 
    {
      "op": "Activation", 
      "name": "lstm_l0_t4_f", 
      "attr": {"act_type": "sigmoid"}, 
      "inputs": [[149, 1, 0]]
    }, 
    {
      "op": "_mul", 
      "name": "_mul568", 
      "inputs": [[151, 0, 0], [129, 0, 0]]
    }, 
    {
      "op": "Activation", 
      "name": "lstm_l0_t4_i", 
      "attr": {"act_type": "sigmoid"}, 
      "inputs": [[149, 0, 0]]
    }, 
    {
      "op": "Activation", 
      "name": "lstm_l0_t4_c", 
      "attr": {"act_type": "tanh"}, 
      "inputs": [[149, 2, 0]]
    }, 
    {
      "op": "_mul", 
      "name": "_mul569", 
      "inputs": [[153, 0, 0], [154, 0, 0]]
    }, 
    {
      "op": "elemwise_add", 
      "name": "lstm_l0_t4_state", 
      "inputs": [[152, 0, 0], [155, 0, 0]]
    }, 
    {
      "op": "Activation", 
      "name": "activation284", 
      "attr": {"act_type": "tanh"}, 
      "inputs": [[156, 0, 0]]
    }, 
    {
      "op": "_mul", 
      "name": "lstm_l0_t4_out", 
      "inputs": [[150, 0, 0], [157, 0, 0]]
    }, 
    {
      "op": "FullyConnected", 
      "name": "lstm_l1_t4_i2h", 
      "attr": {"num_hidden": "1024"}, 
      "inputs": [[158, 0, 0], [45, 0, 0], [46, 0, 0]]
    }, 
    {
      "op": "FullyConnected", 
      "name": "lstm_l1_t4_h2h", 
      "attr": {"num_hidden": "1024"}, 
      "inputs": [[144, 0, 0], [49, 0, 0], [50, 0, 0]]
    }, 
    {
      "op": "elemwise_add", 
      "name": "_plus344", 
      "inputs": [[159, 0, 0], [160, 0, 0]]
    }, 
    {
      "op": "SliceChannel", 
      "name": "lstm_l1_t4_slice", 
      "attr": {"num_outputs": "4"}, 
      "inputs": [[161, 0, 0]]
    }, 
    {
      "op": "Activation", 
      "name": "lstm_l1_t4_o", 
      "attr": {"act_type": "sigmoid"}, 
      "inputs": [[162, 3, 0]]
    }, 
    {
      "op": "Activation", 
      "name": "lstm_l1_t4_f", 
      "attr": {"act_type": "sigmoid"}, 
      "inputs": [[162, 1, 0]]
    }, 
    {
      "op": "_mul", 
      "name": "_mul688", 
      "inputs": [[164, 0, 0], [142, 0, 0]]
    }, 
    {
      "op": "Activation", 
      "name": "lstm_l1_t4_i", 
      "attr": {"act_type": "sigmoid"}, 
      "inputs": [[162, 0, 0]]
    }, 
    {
      "op": "Activation", 
      "name": "lstm_l1_t4_c", 
      "attr": {"act_type": "tanh"}, 
      "inputs": [[162, 2, 0]]
    }, 
    {
      "op": "_mul", 
      "name": "_mul689", 
      "inputs": [[166, 0, 0], [167, 0, 0]]
    }, 
    {
      "op": "elemwise_add", 
      "name": "lstm_l1_t4_state", 
      "inputs": [[165, 0, 0], [168, 0, 0]]
    }, 
    {
      "op": "Activation", 
      "name": "activation344", 
      "attr": {"act_type": "tanh"}, 
      "inputs": [[169, 0, 0]]
    }, 
    {
      "op": "_mul", 
      "name": "lstm_l1_t4_out", 
      "inputs": [[163, 0, 0], [170, 0, 0]]
    }, 
    {
      "op": "expand_dims", 
      "name": "expand_dims144", 
      "attr": {"axis": "1"}, 
      "inputs": [[171, 0, 0]]
    }, 
    {
      "op": "FullyConnected", 
      "name": "lstm_l0_t5_i2h", 
      "attr": {"num_hidden": "1024"}, 
      "inputs": [[25, 5, 0], [26, 0, 0], [27, 0, 0]]
    }, 
    {
      "op": "FullyConnected", 
      "name": "lstm_l0_t5_h2h", 
      "attr": {"num_hidden": "1024"}, 
      "inputs": [[158, 0, 0], [30, 0, 0], [31, 0, 0]]
    }, 
    {
      "op": "elemwise_add", 
      "name": "_plus285", 
      "inputs": [[173, 0, 0], [174, 0, 0]]
    }, 
    {
      "op": "SliceChannel", 
      "name": "lstm_l0_t5_slice", 
      "attr": {"num_outputs": "4"}, 
      "inputs": [[175, 0, 0]]
    }, 
    {
      "op": "Activation", 
      "name": "lstm_l0_t5_o", 
      "attr": {"act_type": "sigmoid"}, 
      "inputs": [[176, 3, 0]]
    }, 
    {
      "op": "Activation", 
      "name": "lstm_l0_t5_f", 
      "attr": {"act_type": "sigmoid"}, 
      "inputs": [[176, 1, 0]]
    }, 
    {
      "op": "_mul", 
      "name": "_mul570", 
      "inputs": [[178, 0, 0], [156, 0, 0]]
    }, 
    {
      "op": "Activation", 
      "name": "lstm_l0_t5_i", 
      "attr": {"act_type": "sigmoid"}, 
      "inputs": [[176, 0, 0]]
    }, 
    {
      "op": "Activation", 
      "name": "lstm_l0_t5_c", 
      "attr": {"act_type": "tanh"}, 
      "inputs": [[176, 2, 0]]
    }, 
    {
      "op": "_mul", 
      "name": "_mul571", 
      "inputs": [[180, 0, 0], [181, 0, 0]]
    }, 
    {
      "op": "elemwise_add", 
      "name": "lstm_l0_t5_state", 
      "inputs": [[179, 0, 0], [182, 0, 0]]
    }, 
    {
      "op": "Activation", 
      "name": "activation285", 
      "attr": {"act_type": "tanh"}, 
      "inputs": [[183, 0, 0]]
    }, 
    {
      "op": "_mul", 
      "name": "lstm_l0_t5_out", 
      "inputs": [[177, 0, 0], [184, 0, 0]]
    }, 
    {
      "op": "FullyConnected", 
      "name": "lstm_l1_t5_i2h", 
      "attr": {"num_hidden": "1024"}, 
      "inputs": [[185, 0, 0], [45, 0, 0], [46, 0, 0]]
    }, 
    {
      "op": "FullyConnected", 
      "name": "lstm_l1_t5_h2h", 
      "attr": {"num_hidden": "1024"}, 
      "inputs": [[171, 0, 0], [49, 0, 0], [50, 0, 0]]
    }, 
    {
      "op": "elemwise_add", 
      "name": "_plus345", 
      "inputs": [[186, 0, 0], [187, 0, 0]]
    }, 
    {
      "op": "SliceChannel", 
      "name": "lstm_l1_t5_slice", 
      "attr": {"num_outputs": "4"}, 
      "inputs": [[188, 0, 0]]
    }, 
    {
      "op": "Activation", 
      "name": "lstm_l1_t5_o", 
      "attr": {"act_type": "sigmoid"}, 
      "inputs": [[189, 3, 0]]
    }, 
    {
      "op": "Activation", 
      "name": "lstm_l1_t5_f", 
      "attr": {"act_type": "sigmoid"}, 
      "inputs": [[189, 1, 0]]
    }, 
    {
      "op": "_mul", 
      "name": "_mul690", 
      "inputs": [[191, 0, 0], [169, 0, 0]]
    }, 
    {
      "op": "Activation", 
      "name": "lstm_l1_t5_i", 
      "attr": {"act_type": "sigmoid"}, 
      "inputs": [[189, 0, 0]]
    }, 
    {
      "op": "Activation", 
      "name": "lstm_l1_t5_c", 
      "attr": {"act_type": "tanh"}, 
      "inputs": [[189, 2, 0]]
    }, 
    {
      "op": "_mul", 
      "name": "_mul691", 
      "inputs": [[193, 0, 0], [194, 0, 0]]
    }, 
    {
      "op": "elemwise_add", 
      "name": "lstm_l1_t5_state", 
      "inputs": [[192, 0, 0], [195, 0, 0]]
    }, 
    {
      "op": "Activation", 
      "name": "activation345", 
      "attr": {"act_type": "tanh"}, 
      "inputs": [[196, 0, 0]]
    }, 
    {
      "op": "_mul", 
      "name": "lstm_l1_t5_out", 
      "inputs": [[190, 0, 0], [197, 0, 0]]
    }, 
    {
      "op": "expand_dims", 
      "name": "expand_dims145", 
      "attr": {"axis": "1"}, 
      "inputs": [[198, 0, 0]]
    }, 
    {
      "op": "FullyConnected", 
      "name": "lstm_l0_t6_i2h", 
      "attr": {"num_hidden": "1024"}, 
      "inputs": [[25, 6, 0], [26, 0, 0], [27, 0, 0]]
    }, 
    {
      "op": "FullyConnected", 
      "name": "lstm_l0_t6_h2h", 
      "attr": {"num_hidden": "1024"}, 
      "inputs": [[185, 0, 0], [30, 0, 0], [31, 0, 0]]
    }, 
    {
      "op": "elemwise_add", 
      "name": "_plus286", 
      "inputs": [[200, 0, 0], [201, 0, 0]]
    }, 
    {
      "op": "SliceChannel", 
      "name": "lstm_l0_t6_slice", 
      "attr": {"num_outputs": "4"}, 
      "inputs": [[202, 0, 0]]
    }, 
    {
      "op": "Activation", 
      "name": "lstm_l0_t6_o", 
      "attr": {"act_type": "sigmoid"}, 
      "inputs": [[203, 3, 0]]
    }, 
    {
      "op": "Activation", 
      "name": "lstm_l0_t6_f", 
      "attr": {"act_type": "sigmoid"}, 
      "inputs": [[203, 1, 0]]
    }, 
    {
      "op": "_mul", 
      "name": "_mul572", 
      "inputs": [[205, 0, 0], [183, 0, 0]]
    }, 
    {
      "op": "Activation", 
      "name": "lstm_l0_t6_i", 
      "attr": {"act_type": "sigmoid"}, 
      "inputs": [[203, 0, 0]]
    }, 
    {
      "op": "Activation", 
      "name": "lstm_l0_t6_c", 
      "attr": {"act_type": "tanh"}, 
      "inputs": [[203, 2, 0]]
    }, 
    {
      "op": "_mul", 
      "name": "_mul573", 
      "inputs": [[207, 0, 0], [208, 0, 0]]
    }, 
    {
      "op": "elemwise_add", 
      "name": "lstm_l0_t6_state", 
      "inputs": [[206, 0, 0], [209, 0, 0]]
    }, 
    {
      "op": "Activation", 
      "name": "activation286", 
      "attr": {"act_type": "tanh"}, 
      "inputs": [[210, 0, 0]]
    }, 
    {
      "op": "_mul", 
      "name": "lstm_l0_t6_out", 
      "inputs": [[204, 0, 0], [211, 0, 0]]
    }, 
    {
      "op": "FullyConnected", 
      "name": "lstm_l1_t6_i2h", 
      "attr": {"num_hidden": "1024"}, 
      "inputs": [[212, 0, 0], [45, 0, 0], [46, 0, 0]]
    }, 
    {
      "op": "FullyConnected", 
      "name": "lstm_l1_t6_h2h", 
      "attr": {"num_hidden": "1024"}, 
      "inputs": [[198, 0, 0], [49, 0, 0], [50, 0, 0]]
    }, 
    {
      "op": "elemwise_add", 
      "name": "_plus346", 
      "inputs": [[213, 0, 0], [214, 0, 0]]
    }, 
    {
      "op": "SliceChannel", 
      "name": "lstm_l1_t6_slice", 
      "attr": {"num_outputs": "4"}, 
      "inputs": [[215, 0, 0]]
    }, 
    {
      "op": "Activation", 
      "name": "lstm_l1_t6_o", 
      "attr": {"act_type": "sigmoid"}, 
      "inputs": [[216, 3, 0]]
    }, 
    {
      "op": "Activation", 
      "name": "lstm_l1_t6_f", 
      "attr": {"act_type": "sigmoid"}, 
      "inputs": [[216, 1, 0]]
    }, 
    {
      "op": "_mul", 
      "name": "_mul692", 
      "inputs": [[218, 0, 0], [196, 0, 0]]
    }, 
    {
      "op": "Activation", 
      "name": "lstm_l1_t6_i", 
      "attr": {"act_type": "sigmoid"}, 
      "inputs": [[216, 0, 0]]
    }, 
    {
      "op": "Activation", 
      "name": "lstm_l1_t6_c", 
      "attr": {"act_type": "tanh"}, 
      "inputs": [[216, 2, 0]]
    }, 
    {
      "op": "_mul", 
      "name": "_mul693", 
      "inputs": [[220, 0, 0], [221, 0, 0]]
    }, 
    {
      "op": "elemwise_add", 
      "name": "lstm_l1_t6_state", 
      "inputs": [[219, 0, 0], [222, 0, 0]]
    }, 
    {
      "op": "Activation", 
      "name": "activation346", 
      "attr": {"act_type": "tanh"}, 
      "inputs": [[223, 0, 0]]
    }, 
    {
      "op": "_mul", 
      "name": "lstm_l1_t6_out", 
      "inputs": [[217, 0, 0], [224, 0, 0]]
    }, 
    {
      "op": "expand_dims", 
      "name": "expand_dims146", 
      "attr": {"axis": "1"}, 
      "inputs": [[225, 0, 0]]
    }, 
    {
      "op": "FullyConnected", 
      "name": "lstm_l0_t7_i2h", 
      "attr": {"num_hidden": "1024"}, 
      "inputs": [[25, 7, 0], [26, 0, 0], [27, 0, 0]]
    }, 
    {
      "op": "FullyConnected", 
      "name": "lstm_l0_t7_h2h", 
      "attr": {"num_hidden": "1024"}, 
      "inputs": [[212, 0, 0], [30, 0, 0], [31, 0, 0]]
    }, 
    {
      "op": "elemwise_add", 
      "name": "_plus287", 
      "inputs": [[227, 0, 0], [228, 0, 0]]
    }, 
    {
      "op": "SliceChannel", 
      "name": "lstm_l0_t7_slice", 
      "attr": {"num_outputs": "4"}, 
      "inputs": [[229, 0, 0]]
    }, 
    {
      "op": "Activation", 
      "name": "lstm_l0_t7_o", 
      "attr": {"act_type": "sigmoid"}, 
      "inputs": [[230, 3, 0]]
    }, 
    {
      "op": "Activation", 
      "name": "lstm_l0_t7_f", 
      "attr": {"act_type": "sigmoid"}, 
      "inputs": [[230, 1, 0]]
    }, 
    {
      "op": "_mul", 
      "name": "_mul574", 
      "inputs": [[232, 0, 0], [210, 0, 0]]
    }, 
    {
      "op": "Activation", 
      "name": "lstm_l0_t7_i", 
      "attr": {"act_type": "sigmoid"}, 
      "inputs": [[230, 0, 0]]
    }, 
    {
      "op": "Activation", 
      "name": "lstm_l0_t7_c", 
      "attr": {"act_type": "tanh"}, 
      "inputs": [[230, 2, 0]]
    }, 
    {
      "op": "_mul", 
      "name": "_mul575", 
      "inputs": [[234, 0, 0], [235, 0, 0]]
    }, 
    {
      "op": "elemwise_add", 
      "name": "lstm_l0_t7_state", 
      "inputs": [[233, 0, 0], [236, 0, 0]]
    }, 
    {
      "op": "Activation", 
      "name": "activation287", 
      "attr": {"act_type": "tanh"}, 
      "inputs": [[237, 0, 0]]
    }, 
    {
      "op": "_mul", 
      "name": "lstm_l0_t7_out", 
      "inputs": [[231, 0, 0], [238, 0, 0]]
    }, 
    {
      "op": "FullyConnected", 
      "name": "lstm_l1_t7_i2h", 
      "attr": {"num_hidden": "1024"}, 
      "inputs": [[239, 0, 0], [45, 0, 0], [46, 0, 0]]
    }, 
    {
      "op": "FullyConnected", 
      "name": "lstm_l1_t7_h2h", 
      "attr": {"num_hidden": "1024"}, 
      "inputs": [[225, 0, 0], [49, 0, 0], [50, 0, 0]]
    }, 
    {
      "op": "elemwise_add", 
      "name": "_plus347", 
      "inputs": [[240, 0, 0], [241, 0, 0]]
    }, 
    {
      "op": "SliceChannel", 
      "name": "lstm_l1_t7_slice", 
      "attr": {"num_outputs": "4"}, 
      "inputs": [[242, 0, 0]]
    }, 
    {
      "op": "Activation", 
      "name": "lstm_l1_t7_o", 
      "attr": {"act_type": "sigmoid"}, 
      "inputs": [[243, 3, 0]]
    }, 
    {
      "op": "Activation", 
      "name": "lstm_l1_t7_f", 
      "attr": {"act_type": "sigmoid"}, 
      "inputs": [[243, 1, 0]]
    }, 
    {
      "op": "_mul", 
      "name": "_mul694", 
      "inputs": [[245, 0, 0], [223, 0, 0]]
    }, 
    {
      "op": "Activation", 
      "name": "lstm_l1_t7_i", 
      "attr": {"act_type": "sigmoid"}, 
      "inputs": [[243, 0, 0]]
    }, 
    {
      "op": "Activation", 
      "name": "lstm_l1_t7_c", 
      "attr": {"act_type": "tanh"}, 
      "inputs": [[243, 2, 0]]
    }, 
    {
      "op": "_mul", 
      "name": "_mul695", 
      "inputs": [[247, 0, 0], [248, 0, 0]]
    }, 
    {
      "op": "elemwise_add", 
      "name": "lstm_l1_t7_state", 
      "inputs": [[246, 0, 0], [249, 0, 0]]
    }, 
    {
      "op": "Activation", 
      "name": "activation347", 
      "attr": {"act_type": "tanh"}, 
      "inputs": [[250, 0, 0]]
    }, 
    {
      "op": "_mul", 
      "name": "lstm_l1_t7_out", 
      "inputs": [[244, 0, 0], [251, 0, 0]]
    }, 
    {
      "op": "expand_dims", 
      "name": "expand_dims147", 
      "attr": {"axis": "1"}, 
      "inputs": [[252, 0, 0]]
    }, 
    {
      "op": "FullyConnected", 
      "name": "lstm_l0_t8_i2h", 
      "attr": {"num_hidden": "1024"}, 
      "inputs": [[25, 8, 0], [26, 0, 0], [27, 0, 0]]
    }, 
    {
      "op": "FullyConnected", 
      "name": "lstm_l0_t8_h2h", 
      "attr": {"num_hidden": "1024"}, 
      "inputs": [[239, 0, 0], [30, 0, 0], [31, 0, 0]]
    }, 
    {
      "op": "elemwise_add", 
      "name": "_plus288", 
      "inputs": [[254, 0, 0], [255, 0, 0]]
    }, 
    {
      "op": "SliceChannel", 
      "name": "lstm_l0_t8_slice", 
      "attr": {"num_outputs": "4"}, 
      "inputs": [[256, 0, 0]]
    }, 
    {
      "op": "Activation", 
      "name": "lstm_l0_t8_o", 
      "attr": {"act_type": "sigmoid"}, 
      "inputs": [[257, 3, 0]]
    }, 
    {
      "op": "Activation", 
      "name": "lstm_l0_t8_f", 
      "attr": {"act_type": "sigmoid"}, 
      "inputs": [[257, 1, 0]]
    }, 
    {
      "op": "_mul", 
      "name": "_mul576", 
      "inputs": [[259, 0, 0], [237, 0, 0]]
    }, 
    {
      "op": "Activation", 
      "name": "lstm_l0_t8_i", 
      "attr": {"act_type": "sigmoid"}, 
      "inputs": [[257, 0, 0]]
    }, 
    {
      "op": "Activation", 
      "name": "lstm_l0_t8_c", 
      "attr": {"act_type": "tanh"}, 
      "inputs": [[257, 2, 0]]
    }, 
    {
      "op": "_mul", 
      "name": "_mul577", 
      "inputs": [[261, 0, 0], [262, 0, 0]]
    }, 
    {
      "op": "elemwise_add", 
      "name": "lstm_l0_t8_state", 
      "inputs": [[260, 0, 0], [263, 0, 0]]
    }, 
    {
      "op": "Activation", 
      "name": "activation288", 
      "attr": {"act_type": "tanh"}, 
      "inputs": [[264, 0, 0]]
    }, 
    {
      "op": "_mul", 
      "name": "lstm_l0_t8_out", 
      "inputs": [[258, 0, 0], [265, 0, 0]]
    }, 
    {
      "op": "FullyConnected", 
      "name": "lstm_l1_t8_i2h", 
      "attr": {"num_hidden": "1024"}, 
      "inputs": [[266, 0, 0], [45, 0, 0], [46, 0, 0]]
    }, 
    {
      "op": "FullyConnected", 
      "name": "lstm_l1_t8_h2h", 
      "attr": {"num_hidden": "1024"}, 
      "inputs": [[252, 0, 0], [49, 0, 0], [50, 0, 0]]
    }, 
    {
      "op": "elemwise_add", 
      "name": "_plus348", 
      "inputs": [[267, 0, 0], [268, 0, 0]]
    }, 
    {
      "op": "SliceChannel", 
      "name": "lstm_l1_t8_slice", 
      "attr": {"num_outputs": "4"}, 
      "inputs": [[269, 0, 0]]
    }, 
    {
      "op": "Activation", 
      "name": "lstm_l1_t8_o", 
      "attr": {"act_type": "sigmoid"}, 
      "inputs": [[270, 3, 0]]
    }, 
    {
      "op": "Activation", 
      "name": "lstm_l1_t8_f", 
      "attr": {"act_type": "sigmoid"}, 
      "inputs": [[270, 1, 0]]
    }, 
    {
      "op": "_mul", 
      "name": "_mul696", 
      "inputs": [[272, 0, 0], [250, 0, 0]]
    }, 
    {
      "op": "Activation", 
      "name": "lstm_l1_t8_i", 
      "attr": {"act_type": "sigmoid"}, 
      "inputs": [[270, 0, 0]]
    }, 
    {
      "op": "Activation", 
      "name": "lstm_l1_t8_c", 
      "attr": {"act_type": "tanh"}, 
      "inputs": [[270, 2, 0]]
    }, 
    {
      "op": "_mul", 
      "name": "_mul697", 
      "inputs": [[274, 0, 0], [275, 0, 0]]
    }, 
    {
      "op": "elemwise_add", 
      "name": "lstm_l1_t8_state", 
      "inputs": [[273, 0, 0], [276, 0, 0]]
    }, 
    {
      "op": "Activation", 
      "name": "activation348", 
      "attr": {"act_type": "tanh"}, 
      "inputs": [[277, 0, 0]]
    }, 
    {
      "op": "_mul", 
      "name": "lstm_l1_t8_out", 
      "inputs": [[271, 0, 0], [278, 0, 0]]
    }, 
    {
      "op": "expand_dims", 
      "name": "expand_dims148", 
      "attr": {"axis": "1"}, 
      "inputs": [[279, 0, 0]]
    }, 
    {
      "op": "FullyConnected", 
      "name": "lstm_l0_t9_i2h", 
      "attr": {"num_hidden": "1024"}, 
      "inputs": [[25, 9, 0], [26, 0, 0], [27, 0, 0]]
    }, 
    {
      "op": "FullyConnected", 
      "name": "lstm_l0_t9_h2h", 
      "attr": {"num_hidden": "1024"}, 
      "inputs": [[266, 0, 0], [30, 0, 0], [31, 0, 0]]
    }, 
    {
      "op": "elemwise_add", 
      "name": "_plus289", 
      "inputs": [[281, 0, 0], [282, 0, 0]]
    }, 
    {
      "op": "SliceChannel", 
      "name": "lstm_l0_t9_slice", 
      "attr": {"num_outputs": "4"}, 
      "inputs": [[283, 0, 0]]
    }, 
    {
      "op": "Activation", 
      "name": "lstm_l0_t9_o", 
      "attr": {"act_type": "sigmoid"}, 
      "inputs": [[284, 3, 0]]
    }, 
    {
      "op": "Activation", 
      "name": "lstm_l0_t9_f", 
      "attr": {"act_type": "sigmoid"}, 
      "inputs": [[284, 1, 0]]
    }, 
    {
      "op": "_mul", 
      "name": "_mul578", 
      "inputs": [[286, 0, 0], [264, 0, 0]]
    }, 
    {
      "op": "Activation", 
      "name": "lstm_l0_t9_i", 
      "attr": {"act_type": "sigmoid"}, 
      "inputs": [[284, 0, 0]]
    }, 
    {
      "op": "Activation", 
      "name": "lstm_l0_t9_c", 
      "attr": {"act_type": "tanh"}, 
      "inputs": [[284, 2, 0]]
    }, 
    {
      "op": "_mul", 
      "name": "_mul579", 
      "inputs": [[288, 0, 0], [289, 0, 0]]
    }, 
    {
      "op": "elemwise_add", 
      "name": "lstm_l0_t9_state", 
      "inputs": [[287, 0, 0], [290, 0, 0]]
    }, 
    {
      "op": "Activation", 
      "name": "activation289", 
      "attr": {"act_type": "tanh"}, 
      "inputs": [[291, 0, 0]]
    }, 
    {
      "op": "_mul", 
      "name": "lstm_l0_t9_out", 
      "inputs": [[285, 0, 0], [292, 0, 0]]
    }, 
    {
      "op": "FullyConnected", 
      "name": "lstm_l1_t9_i2h", 
      "attr": {"num_hidden": "1024"}, 
      "inputs": [[293, 0, 0], [45, 0, 0], [46, 0, 0]]
    }, 
    {
      "op": "FullyConnected", 
      "name": "lstm_l1_t9_h2h", 
      "attr": {"num_hidden": "1024"}, 
      "inputs": [[279, 0, 0], [49, 0, 0], [50, 0, 0]]
    }, 
    {
      "op": "elemwise_add", 
      "name": "_plus349", 
      "inputs": [[294, 0, 0], [295, 0, 0]]
    }, 
    {
      "op": "SliceChannel", 
      "name": "lstm_l1_t9_slice", 
      "attr": {"num_outputs": "4"}, 
      "inputs": [[296, 0, 0]]
    }, 
    {
      "op": "Activation", 
      "name": "lstm_l1_t9_o", 
      "attr": {"act_type": "sigmoid"}, 
      "inputs": [[297, 3, 0]]
    }, 
    {
      "op": "Activation", 
      "name": "lstm_l1_t9_f", 
      "attr": {"act_type": "sigmoid"}, 
      "inputs": [[297, 1, 0]]
    }, 
    {
      "op": "_mul", 
      "name": "_mul698", 
      "inputs": [[299, 0, 0], [277, 0, 0]]
    }, 
    {
      "op": "Activation", 
      "name": "lstm_l1_t9_i", 
      "attr": {"act_type": "sigmoid"}, 
      "inputs": [[297, 0, 0]]
    }, 
    {
      "op": "Activation", 
      "name": "lstm_l1_t9_c", 
      "attr": {"act_type": "tanh"}, 
      "inputs": [[297, 2, 0]]
    }, 
    {
      "op": "_mul", 
      "name": "_mul699", 
      "inputs": [[301, 0, 0], [302, 0, 0]]
    }, 
    {
      "op": "elemwise_add", 
      "name": "lstm_l1_t9_state", 
      "inputs": [[300, 0, 0], [303, 0, 0]]
    }, 
    {
      "op": "Activation", 
      "name": "activation349", 
      "attr": {"act_type": "tanh"}, 
      "inputs": [[304, 0, 0]]
    }, 
    {
      "op": "_mul", 
      "name": "lstm_l1_t9_out", 
      "inputs": [[298, 0, 0], [305, 0, 0]]
    }, 
    {
      "op": "expand_dims", 
      "name": "expand_dims149", 
      "attr": {"axis": "1"}, 
      "inputs": [[306, 0, 0]]
    }, 
    {
      "op": "FullyConnected", 
      "name": "lstm_l0_t10_i2h", 
      "attr": {"num_hidden": "1024"}, 
      "inputs": [[25, 10, 0], [26, 0, 0], [27, 0, 0]]
    }, 
    {
      "op": "FullyConnected", 
      "name": "lstm_l0_t10_h2h", 
      "attr": {"num_hidden": "1024"}, 
      "inputs": [[293, 0, 0], [30, 0, 0], [31, 0, 0]]
    }, 
    {
      "op": "elemwise_add", 
      "name": "_plus290", 
      "inputs": [[308, 0, 0], [309, 0, 0]]
    }, 
    {
      "op": "SliceChannel", 
      "name": "lstm_l0_t10_slice", 
      "attr": {"num_outputs": "4"}, 
      "inputs": [[310, 0, 0]]
    }, 
    {
      "op": "Activation", 
      "name": "lstm_l0_t10_o", 
      "attr": {"act_type": "sigmoid"}, 
      "inputs": [[311, 3, 0]]
    }, 
    {
      "op": "Activation", 
      "name": "lstm_l0_t10_f", 
      "attr": {"act_type": "sigmoid"}, 
      "inputs": [[311, 1, 0]]
    }, 
    {
      "op": "_mul", 
      "name": "_mul580", 
      "inputs": [[313, 0, 0], [291, 0, 0]]
    }, 
    {
      "op": "Activation", 
      "name": "lstm_l0_t10_i", 
      "attr": {"act_type": "sigmoid"}, 
      "inputs": [[311, 0, 0]]
    }, 
    {
      "op": "Activation", 
      "name": "lstm_l0_t10_c", 
      "attr": {"act_type": "tanh"}, 
      "inputs": [[311, 2, 0]]
    }, 
    {
      "op": "_mul", 
      "name": "_mul581", 
      "inputs": [[315, 0, 0], [316, 0, 0]]
    }, 
    {
      "op": "elemwise_add", 
      "name": "lstm_l0_t10_state", 
      "inputs": [[314, 0, 0], [317, 0, 0]]
    }, 
    {
      "op": "Activation", 
      "name": "activation290", 
      "attr": {"act_type": "tanh"}, 
      "inputs": [[318, 0, 0]]
    }, 
    {
      "op": "_mul", 
      "name": "lstm_l0_t10_out", 
      "inputs": [[312, 0, 0], [319, 0, 0]]
    }, 
    {
      "op": "FullyConnected", 
      "name": "lstm_l1_t10_i2h", 
      "attr": {"num_hidden": "1024"}, 
      "inputs": [[320, 0, 0], [45, 0, 0], [46, 0, 0]]
    }, 
    {
      "op": "FullyConnected", 
      "name": "lstm_l1_t10_h2h", 
      "attr": {"num_hidden": "1024"}, 
      "inputs": [[306, 0, 0], [49, 0, 0], [50, 0, 0]]
    }, 
    {
      "op": "elemwise_add", 
      "name": "_plus350", 
      "inputs": [[321, 0, 0], [322, 0, 0]]
    }, 
    {
      "op": "SliceChannel", 
      "name": "lstm_l1_t10_slice", 
      "attr": {"num_outputs": "4"}, 
      "inputs": [[323, 0, 0]]
    }, 
    {
      "op": "Activation", 
      "name": "lstm_l1_t10_o", 
      "attr": {"act_type": "sigmoid"}, 
      "inputs": [[324, 3, 0]]
    }, 
    {
      "op": "Activation", 
      "name": "lstm_l1_t10_f", 
      "attr": {"act_type": "sigmoid"}, 
      "inputs": [[324, 1, 0]]
    }, 
    {
      "op": "_mul", 
      "name": "_mul700", 
      "inputs": [[326, 0, 0], [304, 0, 0]]
    }, 
    {
      "op": "Activation", 
      "name": "lstm_l1_t10_i", 
      "attr": {"act_type": "sigmoid"}, 
      "inputs": [[324, 0, 0]]
    }, 
    {
      "op": "Activation", 
      "name": "lstm_l1_t10_c", 
      "attr": {"act_type": "tanh"}, 
      "inputs": [[324, 2, 0]]
    }, 
    {
      "op": "_mul", 
      "name": "_mul701", 
      "inputs": [[328, 0, 0], [329, 0, 0]]
    }, 
    {
      "op": "elemwise_add", 
      "name": "lstm_l1_t10_state", 
      "inputs": [[327, 0, 0], [330, 0, 0]]
    }, 
    {
      "op": "Activation", 
      "name": "activation350", 
      "attr": {"act_type": "tanh"}, 
      "inputs": [[331, 0, 0]]
    }, 
    {
      "op": "_mul", 
      "name": "lstm_l1_t10_out", 
      "inputs": [[325, 0, 0], [332, 0, 0]]
    }, 
    {
      "op": "expand_dims", 
      "name": "expand_dims150", 
      "attr": {"axis": "1"}, 
      "inputs": [[333, 0, 0]]
    }, 
    {
      "op": "FullyConnected", 
      "name": "lstm_l0_t11_i2h", 
      "attr": {"num_hidden": "1024"}, 
      "inputs": [[25, 11, 0], [26, 0, 0], [27, 0, 0]]
    }, 
    {
      "op": "FullyConnected", 
      "name": "lstm_l0_t11_h2h", 
      "attr": {"num_hidden": "1024"}, 
      "inputs": [[320, 0, 0], [30, 0, 0], [31, 0, 0]]
    }, 
    {
      "op": "elemwise_add", 
      "name": "_plus291", 
      "inputs": [[335, 0, 0], [336, 0, 0]]
    }, 
    {
      "op": "SliceChannel", 
      "name": "lstm_l0_t11_slice", 
      "attr": {"num_outputs": "4"}, 
      "inputs": [[337, 0, 0]]
    }, 
    {
      "op": "Activation", 
      "name": "lstm_l0_t11_o", 
      "attr": {"act_type": "sigmoid"}, 
      "inputs": [[338, 3, 0]]
    }, 
    {
      "op": "Activation", 
      "name": "lstm_l0_t11_f", 
      "attr": {"act_type": "sigmoid"}, 
      "inputs": [[338, 1, 0]]
    }, 
    {
      "op": "_mul", 
      "name": "_mul582", 
      "inputs": [[340, 0, 0], [318, 0, 0]]
    }, 
    {
      "op": "Activation", 
      "name": "lstm_l0_t11_i", 
      "attr": {"act_type": "sigmoid"}, 
      "inputs": [[338, 0, 0]]
    }, 
    {
      "op": "Activation", 
      "name": "lstm_l0_t11_c", 
      "attr": {"act_type": "tanh"}, 
      "inputs": [[338, 2, 0]]
    }, 
    {
      "op": "_mul", 
      "name": "_mul583", 
      "inputs": [[342, 0, 0], [343, 0, 0]]
    }, 
    {
      "op": "elemwise_add", 
      "name": "lstm_l0_t11_state", 
      "inputs": [[341, 0, 0], [344, 0, 0]]
    }, 
    {
      "op": "Activation", 
      "name": "activation291", 
      "attr": {"act_type": "tanh"}, 
      "inputs": [[345, 0, 0]]
    }, 
    {
      "op": "_mul", 
      "name": "lstm_l0_t11_out", 
      "inputs": [[339, 0, 0], [346, 0, 0]]
    }, 
    {
      "op": "FullyConnected", 
      "name": "lstm_l1_t11_i2h", 
      "attr": {"num_hidden": "1024"}, 
      "inputs": [[347, 0, 0], [45, 0, 0], [46, 0, 0]]
    }, 
    {
      "op": "FullyConnected", 
      "name": "lstm_l1_t11_h2h", 
      "attr": {"num_hidden": "1024"}, 
      "inputs": [[333, 0, 0], [49, 0, 0], [50, 0, 0]]
    }, 
    {
      "op": "elemwise_add", 
      "name": "_plus351", 
      "inputs": [[348, 0, 0], [349, 0, 0]]
    }, 
    {
      "op": "SliceChannel", 
      "name": "lstm_l1_t11_slice", 
      "attr": {"num_outputs": "4"}, 
      "inputs": [[350, 0, 0]]
    }, 
    {
      "op": "Activation", 
      "name": "lstm_l1_t11_o", 
      "attr": {"act_type": "sigmoid"}, 
      "inputs": [[351, 3, 0]]
    }, 
    {
      "op": "Activation", 
      "name": "lstm_l1_t11_f", 
      "attr": {"act_type": "sigmoid"}, 
      "inputs": [[351, 1, 0]]
    }, 
    {
      "op": "_mul", 
      "name": "_mul702", 
      "inputs": [[353, 0, 0], [331, 0, 0]]
    }, 
    {
      "op": "Activation", 
      "name": "lstm_l1_t11_i", 
      "attr": {"act_type": "sigmoid"}, 
      "inputs": [[351, 0, 0]]
    }, 
    {
      "op": "Activation", 
      "name": "lstm_l1_t11_c", 
      "attr": {"act_type": "tanh"}, 
      "inputs": [[351, 2, 0]]
    }, 
    {
      "op": "_mul", 
      "name": "_mul703", 
      "inputs": [[355, 0, 0], [356, 0, 0]]
    }, 
    {
      "op": "elemwise_add", 
      "name": "lstm_l1_t11_state", 
      "inputs": [[354, 0, 0], [357, 0, 0]]
    }, 
    {
      "op": "Activation", 
      "name": "activation351", 
      "attr": {"act_type": "tanh"}, 
      "inputs": [[358, 0, 0]]
    }, 
    {
      "op": "_mul", 
      "name": "lstm_l1_t11_out", 
      "inputs": [[352, 0, 0], [359, 0, 0]]
    }, 
    {
      "op": "expand_dims", 
      "name": "expand_dims151", 
      "attr": {"axis": "1"}, 
      "inputs": [[360, 0, 0]]
    }, 
    {
      "op": "FullyConnected", 
      "name": "lstm_l0_t12_i2h", 
      "attr": {"num_hidden": "1024"}, 
      "inputs": [[25, 12, 0], [26, 0, 0], [27, 0, 0]]
    }, 
    {
      "op": "FullyConnected", 
      "name": "lstm_l0_t12_h2h", 
      "attr": {"num_hidden": "1024"}, 
      "inputs": [[347, 0, 0], [30, 0, 0], [31, 0, 0]]
    }, 
    {
      "op": "elemwise_add", 
      "name": "_plus292", 
      "inputs": [[362, 0, 0], [363, 0, 0]]
    }, 
    {
      "op": "SliceChannel", 
      "name": "lstm_l0_t12_slice", 
      "attr": {"num_outputs": "4"}, 
      "inputs": [[364, 0, 0]]
    }, 
    {
      "op": "Activation", 
      "name": "lstm_l0_t12_o", 
      "attr": {"act_type": "sigmoid"}, 
      "inputs": [[365, 3, 0]]
    }, 
    {
      "op": "Activation", 
      "name": "lstm_l0_t12_f", 
      "attr": {"act_type": "sigmoid"}, 
      "inputs": [[365, 1, 0]]
    }, 
    {
      "op": "_mul", 
      "name": "_mul584", 
      "inputs": [[367, 0, 0], [345, 0, 0]]
    }, 
    {
      "op": "Activation", 
      "name": "lstm_l0_t12_i", 
      "attr": {"act_type": "sigmoid"}, 
      "inputs": [[365, 0, 0]]
    }, 
    {
      "op": "Activation", 
      "name": "lstm_l0_t12_c", 
      "attr": {"act_type": "tanh"}, 
      "inputs": [[365, 2, 0]]
    }, 
    {
      "op": "_mul", 
      "name": "_mul585", 
      "inputs": [[369, 0, 0], [370, 0, 0]]
    }, 
    {
      "op": "elemwise_add", 
      "name": "lstm_l0_t12_state", 
      "inputs": [[368, 0, 0], [371, 0, 0]]
    }, 
    {
      "op": "Activation", 
      "name": "activation292", 
      "attr": {"act_type": "tanh"}, 
      "inputs": [[372, 0, 0]]
    }, 
    {
      "op": "_mul", 
      "name": "lstm_l0_t12_out", 
      "inputs": [[366, 0, 0], [373, 0, 0]]
    }, 
    {
      "op": "FullyConnected", 
      "name": "lstm_l1_t12_i2h", 
      "attr": {"num_hidden": "1024"}, 
      "inputs": [[374, 0, 0], [45, 0, 0], [46, 0, 0]]
    }, 
    {
      "op": "FullyConnected", 
      "name": "lstm_l1_t12_h2h", 
      "attr": {"num_hidden": "1024"}, 
      "inputs": [[360, 0, 0], [49, 0, 0], [50, 0, 0]]
    }, 
    {
      "op": "elemwise_add", 
      "name": "_plus352", 
      "inputs": [[375, 0, 0], [376, 0, 0]]
    }, 
    {
      "op": "SliceChannel", 
      "name": "lstm_l1_t12_slice", 
      "attr": {"num_outputs": "4"}, 
      "inputs": [[377, 0, 0]]
    }, 
    {
      "op": "Activation", 
      "name": "lstm_l1_t12_o", 
      "attr": {"act_type": "sigmoid"}, 
      "inputs": [[378, 3, 0]]
    }, 
    {
      "op": "Activation", 
      "name": "lstm_l1_t12_f", 
      "attr": {"act_type": "sigmoid"}, 
      "inputs": [[378, 1, 0]]
    }, 
    {
      "op": "_mul", 
      "name": "_mul704", 
      "inputs": [[380, 0, 0], [358, 0, 0]]
    }, 
    {
      "op": "Activation", 
      "name": "lstm_l1_t12_i", 
      "attr": {"act_type": "sigmoid"}, 
      "inputs": [[378, 0, 0]]
    }, 
    {
      "op": "Activation", 
      "name": "lstm_l1_t12_c", 
      "attr": {"act_type": "tanh"}, 
      "inputs": [[378, 2, 0]]
    }, 
    {
      "op": "_mul", 
      "name": "_mul705", 
      "inputs": [[382, 0, 0], [383, 0, 0]]
    }, 
    {
      "op": "elemwise_add", 
      "name": "lstm_l1_t12_state", 
      "inputs": [[381, 0, 0], [384, 0, 0]]
    }, 
    {
      "op": "Activation", 
      "name": "activation352", 
      "attr": {"act_type": "tanh"}, 
      "inputs": [[385, 0, 0]]
    }, 
    {
      "op": "_mul", 
      "name": "lstm_l1_t12_out", 
      "inputs": [[379, 0, 0], [386, 0, 0]]
    }, 
    {
      "op": "expand_dims", 
      "name": "expand_dims152", 
      "attr": {"axis": "1"}, 
      "inputs": [[387, 0, 0]]
    }, 
    {
      "op": "FullyConnected", 
      "name": "lstm_l0_t13_i2h", 
      "attr": {"num_hidden": "1024"}, 
      "inputs": [[25, 13, 0], [26, 0, 0], [27, 0, 0]]
    }, 
    {
      "op": "FullyConnected", 
      "name": "lstm_l0_t13_h2h", 
      "attr": {"num_hidden": "1024"}, 
      "inputs": [[374, 0, 0], [30, 0, 0], [31, 0, 0]]
    }, 
    {
      "op": "elemwise_add", 
      "name": "_plus293", 
      "inputs": [[389, 0, 0], [390, 0, 0]]
    }, 
    {
      "op": "SliceChannel", 
      "name": "lstm_l0_t13_slice", 
      "attr": {"num_outputs": "4"}, 
      "inputs": [[391, 0, 0]]
    }, 
    {
      "op": "Activation", 
      "name": "lstm_l0_t13_o", 
      "attr": {"act_type": "sigmoid"}, 
      "inputs": [[392, 3, 0]]
    }, 
    {
      "op": "Activation", 
      "name": "lstm_l0_t13_f", 
      "attr": {"act_type": "sigmoid"}, 
      "inputs": [[392, 1, 0]]
    }, 
    {
      "op": "_mul", 
      "name": "_mul586", 
      "inputs": [[394, 0, 0], [372, 0, 0]]
    }, 
    {
      "op": "Activation", 
      "name": "lstm_l0_t13_i", 
      "attr": {"act_type": "sigmoid"}, 
      "inputs": [[392, 0, 0]]
    }, 
    {
      "op": "Activation", 
      "name": "lstm_l0_t13_c", 
      "attr": {"act_type": "tanh"}, 
      "inputs": [[392, 2, 0]]
    }, 
    {
      "op": "_mul", 
      "name": "_mul587", 
      "inputs": [[396, 0, 0], [397, 0, 0]]
    }, 
    {
      "op": "elemwise_add", 
      "name": "lstm_l0_t13_state", 
      "inputs": [[395, 0, 0], [398, 0, 0]]
    }, 
    {
      "op": "Activation", 
      "name": "activation293", 
      "attr": {"act_type": "tanh"}, 
      "inputs": [[399, 0, 0]]
    }, 
    {
      "op": "_mul", 
      "name": "lstm_l0_t13_out", 
      "inputs": [[393, 0, 0], [400, 0, 0]]
    }, 
    {
      "op": "FullyConnected", 
      "name": "lstm_l1_t13_i2h", 
      "attr": {"num_hidden": "1024"}, 
      "inputs": [[401, 0, 0], [45, 0, 0], [46, 0, 0]]
    }, 
    {
      "op": "FullyConnected", 
      "name": "lstm_l1_t13_h2h", 
      "attr": {"num_hidden": "1024"}, 
      "inputs": [[387, 0, 0], [49, 0, 0], [50, 0, 0]]
    }, 
    {
      "op": "elemwise_add", 
      "name": "_plus353", 
      "inputs": [[402, 0, 0], [403, 0, 0]]
    }, 
    {
      "op": "SliceChannel", 
      "name": "lstm_l1_t13_slice", 
      "attr": {"num_outputs": "4"}, 
      "inputs": [[404, 0, 0]]
    }, 
    {
      "op": "Activation", 
      "name": "lstm_l1_t13_o", 
      "attr": {"act_type": "sigmoid"}, 
      "inputs": [[405, 3, 0]]
    }, 
    {
      "op": "Activation", 
      "name": "lstm_l1_t13_f", 
      "attr": {"act_type": "sigmoid"}, 
      "inputs": [[405, 1, 0]]
    }, 
    {
      "op": "_mul", 
      "name": "_mul706", 
      "inputs": [[407, 0, 0], [385, 0, 0]]
    }, 
    {
      "op": "Activation", 
      "name": "lstm_l1_t13_i", 
      "attr": {"act_type": "sigmoid"}, 
      "inputs": [[405, 0, 0]]
    }, 
    {
      "op": "Activation", 
      "name": "lstm_l1_t13_c", 
      "attr": {"act_type": "tanh"}, 
      "inputs": [[405, 2, 0]]
    }, 
    {
      "op": "_mul", 
      "name": "_mul707", 
      "inputs": [[409, 0, 0], [410, 0, 0]]
    }, 
    {
      "op": "elemwise_add", 
      "name": "lstm_l1_t13_state", 
      "inputs": [[408, 0, 0], [411, 0, 0]]
    }, 
    {
      "op": "Activation", 
      "name": "activation353", 
      "attr": {"act_type": "tanh"}, 
      "inputs": [[412, 0, 0]]
    }, 
    {
      "op": "_mul", 
      "name": "lstm_l1_t13_out", 
      "inputs": [[406, 0, 0], [413, 0, 0]]
    }, 
    {
      "op": "expand_dims", 
      "name": "expand_dims153", 
      "attr": {"axis": "1"}, 
      "inputs": [[414, 0, 0]]
    }, 
    {
      "op": "FullyConnected", 
      "name": "lstm_l0_t14_i2h", 
      "attr": {"num_hidden": "1024"}, 
      "inputs": [[25, 14, 0], [26, 0, 0], [27, 0, 0]]
    }, 
    {
      "op": "FullyConnected", 
      "name": "lstm_l0_t14_h2h", 
      "attr": {"num_hidden": "1024"}, 
      "inputs": [[401, 0, 0], [30, 0, 0], [31, 0, 0]]
    }, 
    {
      "op": "elemwise_add", 
      "name": "_plus294", 
      "inputs": [[416, 0, 0], [417, 0, 0]]
    }, 
    {
      "op": "SliceChannel", 
      "name": "lstm_l0_t14_slice", 
      "attr": {"num_outputs": "4"}, 
      "inputs": [[418, 0, 0]]
    }, 
    {
      "op": "Activation", 
      "name": "lstm_l0_t14_o", 
      "attr": {"act_type": "sigmoid"}, 
      "inputs": [[419, 3, 0]]
    }, 
    {
      "op": "Activation", 
      "name": "lstm_l0_t14_f", 
      "attr": {"act_type": "sigmoid"}, 
      "inputs": [[419, 1, 0]]
    }, 
    {
      "op": "_mul", 
      "name": "_mul588", 
      "inputs": [[421, 0, 0], [399, 0, 0]]
    }, 
    {
      "op": "Activation", 
      "name": "lstm_l0_t14_i", 
      "attr": {"act_type": "sigmoid"}, 
      "inputs": [[419, 0, 0]]
    }, 
    {
      "op": "Activation", 
      "name": "lstm_l0_t14_c", 
      "attr": {"act_type": "tanh"}, 
      "inputs": [[419, 2, 0]]
    }, 
    {
      "op": "_mul", 
      "name": "_mul589", 
      "inputs": [[423, 0, 0], [424, 0, 0]]
    }, 
    {
      "op": "elemwise_add", 
      "name": "lstm_l0_t14_state", 
      "inputs": [[422, 0, 0], [425, 0, 0]]
    }, 
    {
      "op": "Activation", 
      "name": "activation294", 
      "attr": {"act_type": "tanh"}, 
      "inputs": [[426, 0, 0]]
    }, 
    {
      "op": "_mul", 
      "name": "lstm_l0_t14_out", 
      "inputs": [[420, 0, 0], [427, 0, 0]]
    }, 
    {
      "op": "FullyConnected", 
      "name": "lstm_l1_t14_i2h", 
      "attr": {"num_hidden": "1024"}, 
      "inputs": [[428, 0, 0], [45, 0, 0], [46, 0, 0]]
    }, 
    {
      "op": "FullyConnected", 
      "name": "lstm_l1_t14_h2h", 
      "attr": {"num_hidden": "1024"}, 
      "inputs": [[414, 0, 0], [49, 0, 0], [50, 0, 0]]
    }, 
    {
      "op": "elemwise_add", 
      "name": "_plus354", 
      "inputs": [[429, 0, 0], [430, 0, 0]]
    }, 
    {
      "op": "SliceChannel", 
      "name": "lstm_l1_t14_slice", 
      "attr": {"num_outputs": "4"}, 
      "inputs": [[431, 0, 0]]
    }, 
    {
      "op": "Activation", 
      "name": "lstm_l1_t14_o", 
      "attr": {"act_type": "sigmoid"}, 
      "inputs": [[432, 3, 0]]
    }, 
    {
      "op": "Activation", 
      "name": "lstm_l1_t14_f", 
      "attr": {"act_type": "sigmoid"}, 
      "inputs": [[432, 1, 0]]
    }, 
    {
      "op": "_mul", 
      "name": "_mul708", 
      "inputs": [[434, 0, 0], [412, 0, 0]]
    }, 
    {
      "op": "Activation", 
      "name": "lstm_l1_t14_i", 
      "attr": {"act_type": "sigmoid"}, 
      "inputs": [[432, 0, 0]]
    }, 
    {
      "op": "Activation", 
      "name": "lstm_l1_t14_c", 
      "attr": {"act_type": "tanh"}, 
      "inputs": [[432, 2, 0]]
    }, 
    {
      "op": "_mul", 
      "name": "_mul709", 
      "inputs": [[436, 0, 0], [437, 0, 0]]
    }, 
    {
      "op": "elemwise_add", 
      "name": "lstm_l1_t14_state", 
      "inputs": [[435, 0, 0], [438, 0, 0]]
    }, 
    {
      "op": "Activation", 
      "name": "activation354", 
      "attr": {"act_type": "tanh"}, 
      "inputs": [[439, 0, 0]]
    }, 
    {
      "op": "_mul", 
      "name": "lstm_l1_t14_out", 
      "inputs": [[433, 0, 0], [440, 0, 0]]
    }, 
    {
      "op": "expand_dims", 
      "name": "expand_dims154", 
      "attr": {"axis": "1"}, 
      "inputs": [[441, 0, 0]]
    }, 
    {
      "op": "FullyConnected", 
      "name": "lstm_l0_t15_i2h", 
      "attr": {"num_hidden": "1024"}, 
      "inputs": [[25, 15, 0], [26, 0, 0], [27, 0, 0]]
    }, 
    {
      "op": "FullyConnected", 
      "name": "lstm_l0_t15_h2h", 
      "attr": {"num_hidden": "1024"}, 
      "inputs": [[428, 0, 0], [30, 0, 0], [31, 0, 0]]
    }, 
    {
      "op": "elemwise_add", 
      "name": "_plus295", 
      "inputs": [[443, 0, 0], [444, 0, 0]]
    }, 
    {
      "op": "SliceChannel", 
      "name": "lstm_l0_t15_slice", 
      "attr": {"num_outputs": "4"}, 
      "inputs": [[445, 0, 0]]
    }, 
    {
      "op": "Activation", 
      "name": "lstm_l0_t15_o", 
      "attr": {"act_type": "sigmoid"}, 
      "inputs": [[446, 3, 0]]
    }, 
    {
      "op": "Activation", 
      "name": "lstm_l0_t15_f", 
      "attr": {"act_type": "sigmoid"}, 
      "inputs": [[446, 1, 0]]
    }, 
    {
      "op": "_mul", 
      "name": "_mul590", 
      "inputs": [[448, 0, 0], [426, 0, 0]]
    }, 
    {
      "op": "Activation", 
      "name": "lstm_l0_t15_i", 
      "attr": {"act_type": "sigmoid"}, 
      "inputs": [[446, 0, 0]]
    }, 
    {
      "op": "Activation", 
      "name": "lstm_l0_t15_c", 
      "attr": {"act_type": "tanh"}, 
      "inputs": [[446, 2, 0]]
    }, 
    {
      "op": "_mul", 
      "name": "_mul591", 
      "inputs": [[450, 0, 0], [451, 0, 0]]
    }, 
    {
      "op": "elemwise_add", 
      "name": "lstm_l0_t15_state", 
      "inputs": [[449, 0, 0], [452, 0, 0]]
    }, 
    {
      "op": "Activation", 
      "name": "activation295", 
      "attr": {"act_type": "tanh"}, 
      "inputs": [[453, 0, 0]]
    }, 
    {
      "op": "_mul", 
      "name": "lstm_l0_t15_out", 
      "inputs": [[447, 0, 0], [454, 0, 0]]
    }, 
    {
      "op": "FullyConnected", 
      "name": "lstm_l1_t15_i2h", 
      "attr": {"num_hidden": "1024"}, 
      "inputs": [[455, 0, 0], [45, 0, 0], [46, 0, 0]]
    }, 
    {
      "op": "FullyConnected", 
      "name": "lstm_l1_t15_h2h", 
      "attr": {"num_hidden": "1024"}, 
      "inputs": [[441, 0, 0], [49, 0, 0], [50, 0, 0]]
    }, 
    {
      "op": "elemwise_add", 
      "name": "_plus355", 
      "inputs": [[456, 0, 0], [457, 0, 0]]
    }, 
    {
      "op": "SliceChannel", 
      "name": "lstm_l1_t15_slice", 
      "attr": {"num_outputs": "4"}, 
      "inputs": [[458, 0, 0]]
    }, 
    {
      "op": "Activation", 
      "name": "lstm_l1_t15_o", 
      "attr": {"act_type": "sigmoid"}, 
      "inputs": [[459, 3, 0]]
    }, 
    {
      "op": "Activation", 
      "name": "lstm_l1_t15_f", 
      "attr": {"act_type": "sigmoid"}, 
      "inputs": [[459, 1, 0]]
    }, 
    {
      "op": "_mul", 
      "name": "_mul710", 
      "inputs": [[461, 0, 0], [439, 0, 0]]
    }, 
    {
      "op": "Activation", 
      "name": "lstm_l1_t15_i", 
      "attr": {"act_type": "sigmoid"}, 
      "inputs": [[459, 0, 0]]
    }, 
    {
      "op": "Activation", 
      "name": "lstm_l1_t15_c", 
      "attr": {"act_type": "tanh"}, 
      "inputs": [[459, 2, 0]]
    }, 
    {
      "op": "_mul", 
      "name": "_mul711", 
      "inputs": [[463, 0, 0], [464, 0, 0]]
    }, 
    {
      "op": "elemwise_add", 
      "name": "lstm_l1_t15_state", 
      "inputs": [[462, 0, 0], [465, 0, 0]]
    }, 
    {
      "op": "Activation", 
      "name": "activation355", 
      "attr": {"act_type": "tanh"}, 
      "inputs": [[466, 0, 0]]
    }, 
    {
      "op": "_mul", 
      "name": "lstm_l1_t15_out", 
      "inputs": [[460, 0, 0], [467, 0, 0]]
    }, 
    {
      "op": "expand_dims", 
      "name": "expand_dims155", 
      "attr": {"axis": "1"}, 
      "inputs": [[468, 0, 0]]
    }, 
    {
      "op": "FullyConnected", 
      "name": "lstm_l0_t16_i2h", 
      "attr": {"num_hidden": "1024"}, 
      "inputs": [[25, 16, 0], [26, 0, 0], [27, 0, 0]]
    }, 
    {
      "op": "FullyConnected", 
      "name": "lstm_l0_t16_h2h", 
      "attr": {"num_hidden": "1024"}, 
      "inputs": [[455, 0, 0], [30, 0, 0], [31, 0, 0]]
    }, 
    {
      "op": "elemwise_add", 
      "name": "_plus296", 
      "inputs": [[470, 0, 0], [471, 0, 0]]
    }, 
    {
      "op": "SliceChannel", 
      "name": "lstm_l0_t16_slice", 
      "attr": {"num_outputs": "4"}, 
      "inputs": [[472, 0, 0]]
    }, 
    {
      "op": "Activation", 
      "name": "lstm_l0_t16_o", 
      "attr": {"act_type": "sigmoid"}, 
      "inputs": [[473, 3, 0]]
    }, 
    {
      "op": "Activation", 
      "name": "lstm_l0_t16_f", 
      "attr": {"act_type": "sigmoid"}, 
      "inputs": [[473, 1, 0]]
    }, 
    {
      "op": "_mul", 
      "name": "_mul592", 
      "inputs": [[475, 0, 0], [453, 0, 0]]
    }, 
    {
      "op": "Activation", 
      "name": "lstm_l0_t16_i", 
      "attr": {"act_type": "sigmoid"}, 
      "inputs": [[473, 0, 0]]
    }, 
    {
      "op": "Activation", 
      "name": "lstm_l0_t16_c", 
      "attr": {"act_type": "tanh"}, 
      "inputs": [[473, 2, 0]]
    }, 
    {
      "op": "_mul", 
      "name": "_mul593", 
      "inputs": [[477, 0, 0], [478, 0, 0]]
    }, 
    {
      "op": "elemwise_add", 
      "name": "lstm_l0_t16_state", 
      "inputs": [[476, 0, 0], [479, 0, 0]]
    }, 
    {
      "op": "Activation", 
      "name": "activation296", 
      "attr": {"act_type": "tanh"}, 
      "inputs": [[480, 0, 0]]
    }, 
    {
      "op": "_mul", 
      "name": "lstm_l0_t16_out", 
      "inputs": [[474, 0, 0], [481, 0, 0]]
    }, 
    {
      "op": "FullyConnected", 
      "name": "lstm_l1_t16_i2h", 
      "attr": {"num_hidden": "1024"}, 
      "inputs": [[482, 0, 0], [45, 0, 0], [46, 0, 0]]
    }, 
    {
      "op": "FullyConnected", 
      "name": "lstm_l1_t16_h2h", 
      "attr": {"num_hidden": "1024"}, 
      "inputs": [[468, 0, 0], [49, 0, 0], [50, 0, 0]]
    }, 
    {
      "op": "elemwise_add", 
      "name": "_plus356", 
      "inputs": [[483, 0, 0], [484, 0, 0]]
    }, 
    {
      "op": "SliceChannel", 
      "name": "lstm_l1_t16_slice", 
      "attr": {"num_outputs": "4"}, 
      "inputs": [[485, 0, 0]]
    }, 
    {
      "op": "Activation", 
      "name": "lstm_l1_t16_o", 
      "attr": {"act_type": "sigmoid"}, 
      "inputs": [[486, 3, 0]]
    }, 
    {
      "op": "Activation", 
      "name": "lstm_l1_t16_f", 
      "attr": {"act_type": "sigmoid"}, 
      "inputs": [[486, 1, 0]]
    }, 
    {
      "op": "_mul", 
      "name": "_mul712", 
      "inputs": [[488, 0, 0], [466, 0, 0]]
    }, 
    {
      "op": "Activation", 
      "name": "lstm_l1_t16_i", 
      "attr": {"act_type": "sigmoid"}, 
      "inputs": [[486, 0, 0]]
    }, 
    {
      "op": "Activation", 
      "name": "lstm_l1_t16_c", 
      "attr": {"act_type": "tanh"}, 
      "inputs": [[486, 2, 0]]
    }, 
    {
      "op": "_mul", 
      "name": "_mul713", 
      "inputs": [[490, 0, 0], [491, 0, 0]]
    }, 
    {
      "op": "elemwise_add", 
      "name": "lstm_l1_t16_state", 
      "inputs": [[489, 0, 0], [492, 0, 0]]
    }, 
    {
      "op": "Activation", 
      "name": "activation356", 
      "attr": {"act_type": "tanh"}, 
      "inputs": [[493, 0, 0]]
    }, 
    {
      "op": "_mul", 
      "name": "lstm_l1_t16_out", 
      "inputs": [[487, 0, 0], [494, 0, 0]]
    }, 
    {
      "op": "expand_dims", 
      "name": "expand_dims156", 
      "attr": {"axis": "1"}, 
      "inputs": [[495, 0, 0]]
    }, 
    {
      "op": "FullyConnected", 
      "name": "lstm_l0_t17_i2h", 
      "attr": {"num_hidden": "1024"}, 
      "inputs": [[25, 17, 0], [26, 0, 0], [27, 0, 0]]
    }, 
    {
      "op": "FullyConnected", 
      "name": "lstm_l0_t17_h2h", 
      "attr": {"num_hidden": "1024"}, 
      "inputs": [[482, 0, 0], [30, 0, 0], [31, 0, 0]]
    }, 
    {
      "op": "elemwise_add", 
      "name": "_plus297", 
      "inputs": [[497, 0, 0], [498, 0, 0]]
    }, 
    {
      "op": "SliceChannel", 
      "name": "lstm_l0_t17_slice", 
      "attr": {"num_outputs": "4"}, 
      "inputs": [[499, 0, 0]]
    }, 
    {
      "op": "Activation", 
      "name": "lstm_l0_t17_o", 
      "attr": {"act_type": "sigmoid"}, 
      "inputs": [[500, 3, 0]]
    }, 
    {
      "op": "Activation", 
      "name": "lstm_l0_t17_f", 
      "attr": {"act_type": "sigmoid"}, 
      "inputs": [[500, 1, 0]]
    }, 
    {
      "op": "_mul", 
      "name": "_mul594", 
      "inputs": [[502, 0, 0], [480, 0, 0]]
    }, 
    {
      "op": "Activation", 
      "name": "lstm_l0_t17_i", 
      "attr": {"act_type": "sigmoid"}, 
      "inputs": [[500, 0, 0]]
    }, 
    {
      "op": "Activation", 
      "name": "lstm_l0_t17_c", 
      "attr": {"act_type": "tanh"}, 
      "inputs": [[500, 2, 0]]
    }, 
    {
      "op": "_mul", 
      "name": "_mul595", 
      "inputs": [[504, 0, 0], [505, 0, 0]]
    }, 
    {
      "op": "elemwise_add", 
      "name": "lstm_l0_t17_state", 
      "inputs": [[503, 0, 0], [506, 0, 0]]
    }, 
    {
      "op": "Activation", 
      "name": "activation297", 
      "attr": {"act_type": "tanh"}, 
      "inputs": [[507, 0, 0]]
    }, 
    {
      "op": "_mul", 
      "name": "lstm_l0_t17_out", 
      "inputs": [[501, 0, 0], [508, 0, 0]]
    }, 
    {
      "op": "FullyConnected", 
      "name": "lstm_l1_t17_i2h", 
      "attr": {"num_hidden": "1024"}, 
      "inputs": [[509, 0, 0], [45, 0, 0], [46, 0, 0]]
    }, 
    {
      "op": "FullyConnected", 
      "name": "lstm_l1_t17_h2h", 
      "attr": {"num_hidden": "1024"}, 
      "inputs": [[495, 0, 0], [49, 0, 0], [50, 0, 0]]
    }, 
    {
      "op": "elemwise_add", 
      "name": "_plus357", 
      "inputs": [[510, 0, 0], [511, 0, 0]]
    }, 
    {
      "op": "SliceChannel", 
      "name": "lstm_l1_t17_slice", 
      "attr": {"num_outputs": "4"}, 
      "inputs": [[512, 0, 0]]
    }, 
    {
      "op": "Activation", 
      "name": "lstm_l1_t17_o", 
      "attr": {"act_type": "sigmoid"}, 
      "inputs": [[513, 3, 0]]
    }, 
    {
      "op": "Activation", 
      "name": "lstm_l1_t17_f", 
      "attr": {"act_type": "sigmoid"}, 
      "inputs": [[513, 1, 0]]
    }, 
    {
      "op": "_mul", 
      "name": "_mul714", 
      "inputs": [[515, 0, 0], [493, 0, 0]]
    }, 
    {
      "op": "Activation", 
      "name": "lstm_l1_t17_i", 
      "attr": {"act_type": "sigmoid"}, 
      "inputs": [[513, 0, 0]]
    }, 
    {
      "op": "Activation", 
      "name": "lstm_l1_t17_c", 
      "attr": {"act_type": "tanh"}, 
      "inputs": [[513, 2, 0]]
    }, 
    {
      "op": "_mul", 
      "name": "_mul715", 
      "inputs": [[517, 0, 0], [518, 0, 0]]
    }, 
    {
      "op": "elemwise_add", 
      "name": "lstm_l1_t17_state", 
      "inputs": [[516, 0, 0], [519, 0, 0]]
    }, 
    {
      "op": "Activation", 
      "name": "activation357", 
      "attr": {"act_type": "tanh"}, 
      "inputs": [[520, 0, 0]]
    }, 
    {
      "op": "_mul", 
      "name": "lstm_l1_t17_out", 
      "inputs": [[514, 0, 0], [521, 0, 0]]
    }, 
    {
      "op": "expand_dims", 
      "name": "expand_dims157", 
      "attr": {"axis": "1"}, 
      "inputs": [[522, 0, 0]]
    }, 
    {
      "op": "FullyConnected", 
      "name": "lstm_l0_t18_i2h", 
      "attr": {"num_hidden": "1024"}, 
      "inputs": [[25, 18, 0], [26, 0, 0], [27, 0, 0]]
    }, 
    {
      "op": "FullyConnected", 
      "name": "lstm_l0_t18_h2h", 
      "attr": {"num_hidden": "1024"}, 
      "inputs": [[509, 0, 0], [30, 0, 0], [31, 0, 0]]
    }, 
    {
      "op": "elemwise_add", 
      "name": "_plus298", 
      "inputs": [[524, 0, 0], [525, 0, 0]]
    }, 
    {
      "op": "SliceChannel", 
      "name": "lstm_l0_t18_slice", 
      "attr": {"num_outputs": "4"}, 
      "inputs": [[526, 0, 0]]
    }, 
    {
      "op": "Activation", 
      "name": "lstm_l0_t18_o", 
      "attr": {"act_type": "sigmoid"}, 
      "inputs": [[527, 3, 0]]
    }, 
    {
      "op": "Activation", 
      "name": "lstm_l0_t18_f", 
      "attr": {"act_type": "sigmoid"}, 
      "inputs": [[527, 1, 0]]
    }, 
    {
      "op": "_mul", 
      "name": "_mul596", 
      "inputs": [[529, 0, 0], [507, 0, 0]]
    }, 
    {
      "op": "Activation", 
      "name": "lstm_l0_t18_i", 
      "attr": {"act_type": "sigmoid"}, 
      "inputs": [[527, 0, 0]]
    }, 
    {
      "op": "Activation", 
      "name": "lstm_l0_t18_c", 
      "attr": {"act_type": "tanh"}, 
      "inputs": [[527, 2, 0]]
    }, 
    {
      "op": "_mul", 
      "name": "_mul597", 
      "inputs": [[531, 0, 0], [532, 0, 0]]
    }, 
    {
      "op": "elemwise_add", 
      "name": "lstm_l0_t18_state", 
      "inputs": [[530, 0, 0], [533, 0, 0]]
    }, 
    {
      "op": "Activation", 
      "name": "activation298", 
      "attr": {"act_type": "tanh"}, 
      "inputs": [[534, 0, 0]]
    }, 
    {
      "op": "_mul", 
      "name": "lstm_l0_t18_out", 
      "inputs": [[528, 0, 0], [535, 0, 0]]
    }, 
    {
      "op": "FullyConnected", 
      "name": "lstm_l1_t18_i2h", 
      "attr": {"num_hidden": "1024"}, 
      "inputs": [[536, 0, 0], [45, 0, 0], [46, 0, 0]]
    }, 
    {
      "op": "FullyConnected", 
      "name": "lstm_l1_t18_h2h", 
      "attr": {"num_hidden": "1024"}, 
      "inputs": [[522, 0, 0], [49, 0, 0], [50, 0, 0]]
    }, 
    {
      "op": "elemwise_add", 
      "name": "_plus358", 
      "inputs": [[537, 0, 0], [538, 0, 0]]
    }, 
    {
      "op": "SliceChannel", 
      "name": "lstm_l1_t18_slice", 
      "attr": {"num_outputs": "4"}, 
      "inputs": [[539, 0, 0]]
    }, 
    {
      "op": "Activation", 
      "name": "lstm_l1_t18_o", 
      "attr": {"act_type": "sigmoid"}, 
      "inputs": [[540, 3, 0]]
    }, 
    {
      "op": "Activation", 
      "name": "lstm_l1_t18_f", 
      "attr": {"act_type": "sigmoid"}, 
      "inputs": [[540, 1, 0]]
    }, 
    {
      "op": "_mul", 
      "name": "_mul716", 
      "inputs": [[542, 0, 0], [520, 0, 0]]
    }, 
    {
      "op": "Activation", 
      "name": "lstm_l1_t18_i", 
      "attr": {"act_type": "sigmoid"}, 
      "inputs": [[540, 0, 0]]
    }, 
    {
      "op": "Activation", 
      "name": "lstm_l1_t18_c", 
      "attr": {"act_type": "tanh"}, 
      "inputs": [[540, 2, 0]]
    }, 
    {
      "op": "_mul", 
      "name": "_mul717", 
      "inputs": [[544, 0, 0], [545, 0, 0]]
    }, 
    {
      "op": "elemwise_add", 
      "name": "lstm_l1_t18_state", 
      "inputs": [[543, 0, 0], [546, 0, 0]]
    }, 
    {
      "op": "Activation", 
      "name": "activation358", 
      "attr": {"act_type": "tanh"}, 
      "inputs": [[547, 0, 0]]
    }, 
    {
      "op": "_mul", 
      "name": "lstm_l1_t18_out", 
      "inputs": [[541, 0, 0], [548, 0, 0]]
    }, 
    {
      "op": "expand_dims", 
      "name": "expand_dims158", 
      "attr": {"axis": "1"}, 
      "inputs": [[549, 0, 0]]
    }, 
    {
      "op": "FullyConnected", 
      "name": "lstm_l0_t19_i2h", 
      "attr": {"num_hidden": "1024"}, 
      "inputs": [[25, 19, 0], [26, 0, 0], [27, 0, 0]]
    }, 
    {
      "op": "FullyConnected", 
      "name": "lstm_l0_t19_h2h", 
      "attr": {"num_hidden": "1024"}, 
      "inputs": [[536, 0, 0], [30, 0, 0], [31, 0, 0]]
    }, 
    {
      "op": "elemwise_add", 
      "name": "_plus299", 
      "inputs": [[551, 0, 0], [552, 0, 0]]
    }, 
    {
      "op": "SliceChannel", 
      "name": "lstm_l0_t19_slice", 
      "attr": {"num_outputs": "4"}, 
      "inputs": [[553, 0, 0]]
    }, 
    {
      "op": "Activation", 
      "name": "lstm_l0_t19_o", 
      "attr": {"act_type": "sigmoid"}, 
      "inputs": [[554, 3, 0]]
    }, 
    {
      "op": "Activation", 
      "name": "lstm_l0_t19_f", 
      "attr": {"act_type": "sigmoid"}, 
      "inputs": [[554, 1, 0]]
    }, 
    {
      "op": "_mul", 
      "name": "_mul598", 
      "inputs": [[556, 0, 0], [534, 0, 0]]
    }, 
    {
      "op": "Activation", 
      "name": "lstm_l0_t19_i", 
      "attr": {"act_type": "sigmoid"}, 
      "inputs": [[554, 0, 0]]
    }, 
    {
      "op": "Activation", 
      "name": "lstm_l0_t19_c", 
      "attr": {"act_type": "tanh"}, 
      "inputs": [[554, 2, 0]]
    }, 
    {
      "op": "_mul", 
      "name": "_mul599", 
      "inputs": [[558, 0, 0], [559, 0, 0]]
    }, 
    {
      "op": "elemwise_add", 
      "name": "lstm_l0_t19_state", 
      "inputs": [[557, 0, 0], [560, 0, 0]]
    }, 
    {
      "op": "Activation", 
      "name": "activation299", 
      "attr": {"act_type": "tanh"}, 
      "inputs": [[561, 0, 0]]
    }, 
    {
      "op": "_mul", 
      "name": "lstm_l0_t19_out", 
      "inputs": [[555, 0, 0], [562, 0, 0]]
    }, 
    {
      "op": "FullyConnected", 
      "name": "lstm_l1_t19_i2h", 
      "attr": {"num_hidden": "1024"}, 
      "inputs": [[563, 0, 0], [45, 0, 0], [46, 0, 0]]
    }, 
    {
      "op": "FullyConnected", 
      "name": "lstm_l1_t19_h2h", 
      "attr": {"num_hidden": "1024"}, 
      "inputs": [[549, 0, 0], [49, 0, 0], [50, 0, 0]]
    }, 
    {
      "op": "elemwise_add", 
      "name": "_plus359", 
      "inputs": [[564, 0, 0], [565, 0, 0]]
    }, 
    {
      "op": "SliceChannel", 
      "name": "lstm_l1_t19_slice", 
      "attr": {"num_outputs": "4"}, 
      "inputs": [[566, 0, 0]]
    }, 
    {
      "op": "Activation", 
      "name": "lstm_l1_t19_o", 
      "attr": {"act_type": "sigmoid"}, 
      "inputs": [[567, 3, 0]]
    }, 
    {
      "op": "Activation", 
      "name": "lstm_l1_t19_f", 
      "attr": {"act_type": "sigmoid"}, 
      "inputs": [[567, 1, 0]]
    }, 
    {
      "op": "_mul", 
      "name": "_mul718", 
      "inputs": [[569, 0, 0], [547, 0, 0]]
    }, 
    {
      "op": "Activation", 
      "name": "lstm_l1_t19_i", 
      "attr": {"act_type": "sigmoid"}, 
      "inputs": [[567, 0, 0]]
    }, 
    {
      "op": "Activation", 
      "name": "lstm_l1_t19_c", 
      "attr": {"act_type": "tanh"}, 
      "inputs": [[567, 2, 0]]
    }, 
    {
      "op": "_mul", 
      "name": "_mul719", 
      "inputs": [[571, 0, 0], [572, 0, 0]]
    }, 
    {
      "op": "elemwise_add", 
      "name": "lstm_l1_t19_state", 
      "inputs": [[570, 0, 0], [573, 0, 0]]
    }, 
    {
      "op": "Activation", 
      "name": "activation359", 
      "attr": {"act_type": "tanh"}, 
      "inputs": [[574, 0, 0]]
    }, 
    {
      "op": "_mul", 
      "name": "lstm_l1_t19_out", 
      "inputs": [[568, 0, 0], [575, 0, 0]]
    }, 
    {
      "op": "expand_dims", 
      "name": "expand_dims159", 
      "attr": {"axis": "1"}, 
      "inputs": [[576, 0, 0]]
    }, 
    {
      "op": "FullyConnected", 
      "name": "lstm_l0_t20_i2h", 
      "attr": {"num_hidden": "1024"}, 
      "inputs": [[25, 20, 0], [26, 0, 0], [27, 0, 0]]
    }, 
    {
      "op": "FullyConnected", 
      "name": "lstm_l0_t20_h2h", 
      "attr": {"num_hidden": "1024"}, 
      "inputs": [[563, 0, 0], [30, 0, 0], [31, 0, 0]]
    }, 
    {
      "op": "elemwise_add", 
      "name": "_plus300", 
      "inputs": [[578, 0, 0], [579, 0, 0]]
    }, 
    {
      "op": "SliceChannel", 
      "name": "lstm_l0_t20_slice", 
      "attr": {"num_outputs": "4"}, 
      "inputs": [[580, 0, 0]]
    }, 
    {
      "op": "Activation", 
      "name": "lstm_l0_t20_o", 
      "attr": {"act_type": "sigmoid"}, 
      "inputs": [[581, 3, 0]]
    }, 
    {
      "op": "Activation", 
      "name": "lstm_l0_t20_f", 
      "attr": {"act_type": "sigmoid"}, 
      "inputs": [[581, 1, 0]]
    }, 
    {
      "op": "_mul", 
      "name": "_mul600", 
      "inputs": [[583, 0, 0], [561, 0, 0]]
    }, 
    {
      "op": "Activation", 
      "name": "lstm_l0_t20_i", 
      "attr": {"act_type": "sigmoid"}, 
      "inputs": [[581, 0, 0]]
    }, 
    {
      "op": "Activation", 
      "name": "lstm_l0_t20_c", 
      "attr": {"act_type": "tanh"}, 
      "inputs": [[581, 2, 0]]
    }, 
    {
      "op": "_mul", 
      "name": "_mul601", 
      "inputs": [[585, 0, 0], [586, 0, 0]]
    }, 
    {
      "op": "elemwise_add", 
      "name": "lstm_l0_t20_state", 
      "inputs": [[584, 0, 0], [587, 0, 0]]
    }, 
    {
      "op": "Activation", 
      "name": "activation300", 
      "attr": {"act_type": "tanh"}, 
      "inputs": [[588, 0, 0]]
    }, 
    {
      "op": "_mul", 
      "name": "lstm_l0_t20_out", 
      "inputs": [[582, 0, 0], [589, 0, 0]]
    }, 
    {
      "op": "FullyConnected", 
      "name": "lstm_l1_t20_i2h", 
      "attr": {"num_hidden": "1024"}, 
      "inputs": [[590, 0, 0], [45, 0, 0], [46, 0, 0]]
    }, 
    {
      "op": "FullyConnected", 
      "name": "lstm_l1_t20_h2h", 
      "attr": {"num_hidden": "1024"}, 
      "inputs": [[576, 0, 0], [49, 0, 0], [50, 0, 0]]
    }, 
    {
      "op": "elemwise_add", 
      "name": "_plus360", 
      "inputs": [[591, 0, 0], [592, 0, 0]]
    }, 
    {
      "op": "SliceChannel", 
      "name": "lstm_l1_t20_slice", 
      "attr": {"num_outputs": "4"}, 
      "inputs": [[593, 0, 0]]
    }, 
    {
      "op": "Activation", 
      "name": "lstm_l1_t20_o", 
      "attr": {"act_type": "sigmoid"}, 
      "inputs": [[594, 3, 0]]
    }, 
    {
      "op": "Activation", 
      "name": "lstm_l1_t20_f", 
      "attr": {"act_type": "sigmoid"}, 
      "inputs": [[594, 1, 0]]
    }, 
    {
      "op": "_mul", 
      "name": "_mul720", 
      "inputs": [[596, 0, 0], [574, 0, 0]]
    }, 
    {
      "op": "Activation", 
      "name": "lstm_l1_t20_i", 
      "attr": {"act_type": "sigmoid"}, 
      "inputs": [[594, 0, 0]]
    }, 
    {
      "op": "Activation", 
      "name": "lstm_l1_t20_c", 
      "attr": {"act_type": "tanh"}, 
      "inputs": [[594, 2, 0]]
    }, 
    {
      "op": "_mul", 
      "name": "_mul721", 
      "inputs": [[598, 0, 0], [599, 0, 0]]
    }, 
    {
      "op": "elemwise_add", 
      "name": "lstm_l1_t20_state", 
      "inputs": [[597, 0, 0], [600, 0, 0]]
    }, 
    {
      "op": "Activation", 
      "name": "activation360", 
      "attr": {"act_type": "tanh"}, 
      "inputs": [[601, 0, 0]]
    }, 
    {
      "op": "_mul", 
      "name": "lstm_l1_t20_out", 
      "inputs": [[595, 0, 0], [602, 0, 0]]
    }, 
    {
      "op": "expand_dims", 
      "name": "expand_dims160", 
      "attr": {"axis": "1"}, 
      "inputs": [[603, 0, 0]]
    }, 
    {
      "op": "FullyConnected", 
      "name": "lstm_l0_t21_i2h", 
      "attr": {"num_hidden": "1024"}, 
      "inputs": [[25, 21, 0], [26, 0, 0], [27, 0, 0]]
    }, 
    {
      "op": "FullyConnected", 
      "name": "lstm_l0_t21_h2h", 
      "attr": {"num_hidden": "1024"}, 
      "inputs": [[590, 0, 0], [30, 0, 0], [31, 0, 0]]
    }, 
    {
      "op": "elemwise_add", 
      "name": "_plus301", 
      "inputs": [[605, 0, 0], [606, 0, 0]]
    }, 
    {
      "op": "SliceChannel", 
      "name": "lstm_l0_t21_slice", 
      "attr": {"num_outputs": "4"}, 
      "inputs": [[607, 0, 0]]
    }, 
    {
      "op": "Activation", 
      "name": "lstm_l0_t21_o", 
      "attr": {"act_type": "sigmoid"}, 
      "inputs": [[608, 3, 0]]
    }, 
    {
      "op": "Activation", 
      "name": "lstm_l0_t21_f", 
      "attr": {"act_type": "sigmoid"}, 
      "inputs": [[608, 1, 0]]
    }, 
    {
      "op": "_mul", 
      "name": "_mul602", 
      "inputs": [[610, 0, 0], [588, 0, 0]]
    }, 
    {
      "op": "Activation", 
      "name": "lstm_l0_t21_i", 
      "attr": {"act_type": "sigmoid"}, 
      "inputs": [[608, 0, 0]]
    }, 
    {
      "op": "Activation", 
      "name": "lstm_l0_t21_c", 
      "attr": {"act_type": "tanh"}, 
      "inputs": [[608, 2, 0]]
    }, 
    {
      "op": "_mul", 
      "name": "_mul603", 
      "inputs": [[612, 0, 0], [613, 0, 0]]
    }, 
    {
      "op": "elemwise_add", 
      "name": "lstm_l0_t21_state", 
      "inputs": [[611, 0, 0], [614, 0, 0]]
    }, 
    {
      "op": "Activation", 
      "name": "activation301", 
      "attr": {"act_type": "tanh"}, 
      "inputs": [[615, 0, 0]]
    }, 
    {
      "op": "_mul", 
      "name": "lstm_l0_t21_out", 
      "inputs": [[609, 0, 0], [616, 0, 0]]
    }, 
    {
      "op": "FullyConnected", 
      "name": "lstm_l1_t21_i2h", 
      "attr": {"num_hidden": "1024"}, 
      "inputs": [[617, 0, 0], [45, 0, 0], [46, 0, 0]]
    }, 
    {
      "op": "FullyConnected", 
      "name": "lstm_l1_t21_h2h", 
      "attr": {"num_hidden": "1024"}, 
      "inputs": [[603, 0, 0], [49, 0, 0], [50, 0, 0]]
    }, 
    {
      "op": "elemwise_add", 
      "name": "_plus361", 
      "inputs": [[618, 0, 0], [619, 0, 0]]
    }, 
    {
      "op": "SliceChannel", 
      "name": "lstm_l1_t21_slice", 
      "attr": {"num_outputs": "4"}, 
      "inputs": [[620, 0, 0]]
    }, 
    {
      "op": "Activation", 
      "name": "lstm_l1_t21_o", 
      "attr": {"act_type": "sigmoid"}, 
      "inputs": [[621, 3, 0]]
    }, 
    {
      "op": "Activation", 
      "name": "lstm_l1_t21_f", 
      "attr": {"act_type": "sigmoid"}, 
      "inputs": [[621, 1, 0]]
    }, 
    {
      "op": "_mul", 
      "name": "_mul722", 
      "inputs": [[623, 0, 0], [601, 0, 0]]
    }, 
    {
      "op": "Activation", 
      "name": "lstm_l1_t21_i", 
      "attr": {"act_type": "sigmoid"}, 
      "inputs": [[621, 0, 0]]
    }, 
    {
      "op": "Activation", 
      "name": "lstm_l1_t21_c", 
      "attr": {"act_type": "tanh"}, 
      "inputs": [[621, 2, 0]]
    }, 
    {
      "op": "_mul", 
      "name": "_mul723", 
      "inputs": [[625, 0, 0], [626, 0, 0]]
    }, 
    {
      "op": "elemwise_add", 
      "name": "lstm_l1_t21_state", 
      "inputs": [[624, 0, 0], [627, 0, 0]]
    }, 
    {
      "op": "Activation", 
      "name": "activation361", 
      "attr": {"act_type": "tanh"}, 
      "inputs": [[628, 0, 0]]
    }, 
    {
      "op": "_mul", 
      "name": "lstm_l1_t21_out", 
      "inputs": [[622, 0, 0], [629, 0, 0]]
    }, 
    {
      "op": "expand_dims", 
      "name": "expand_dims161", 
      "attr": {"axis": "1"}, 
      "inputs": [[630, 0, 0]]
    }, 
    {
      "op": "FullyConnected", 
      "name": "lstm_l0_t22_i2h", 
      "attr": {"num_hidden": "1024"}, 
      "inputs": [[25, 22, 0], [26, 0, 0], [27, 0, 0]]
    }, 
    {
      "op": "FullyConnected", 
      "name": "lstm_l0_t22_h2h", 
      "attr": {"num_hidden": "1024"}, 
      "inputs": [[617, 0, 0], [30, 0, 0], [31, 0, 0]]
    }, 
    {
      "op": "elemwise_add", 
      "name": "_plus302", 
      "inputs": [[632, 0, 0], [633, 0, 0]]
    }, 
    {
      "op": "SliceChannel", 
      "name": "lstm_l0_t22_slice", 
      "attr": {"num_outputs": "4"}, 
      "inputs": [[634, 0, 0]]
    }, 
    {
      "op": "Activation", 
      "name": "lstm_l0_t22_o", 
      "attr": {"act_type": "sigmoid"}, 
      "inputs": [[635, 3, 0]]
    }, 
    {
      "op": "Activation", 
      "name": "lstm_l0_t22_f", 
      "attr": {"act_type": "sigmoid"}, 
      "inputs": [[635, 1, 0]]
    }, 
    {
      "op": "_mul", 
      "name": "_mul604", 
      "inputs": [[637, 0, 0], [615, 0, 0]]
    }, 
    {
      "op": "Activation", 
      "name": "lstm_l0_t22_i", 
      "attr": {"act_type": "sigmoid"}, 
      "inputs": [[635, 0, 0]]
    }, 
    {
      "op": "Activation", 
      "name": "lstm_l0_t22_c", 
      "attr": {"act_type": "tanh"}, 
      "inputs": [[635, 2, 0]]
    }, 
    {
      "op": "_mul", 
      "name": "_mul605", 
      "inputs": [[639, 0, 0], [640, 0, 0]]
    }, 
    {
      "op": "elemwise_add", 
      "name": "lstm_l0_t22_state", 
      "inputs": [[638, 0, 0], [641, 0, 0]]
    }, 
    {
      "op": "Activation", 
      "name": "activation302", 
      "attr": {"act_type": "tanh"}, 
      "inputs": [[642, 0, 0]]
    }, 
    {
      "op": "_mul", 
      "name": "lstm_l0_t22_out", 
      "inputs": [[636, 0, 0], [643, 0, 0]]
    }, 
    {
      "op": "FullyConnected", 
      "name": "lstm_l1_t22_i2h", 
      "attr": {"num_hidden": "1024"}, 
      "inputs": [[644, 0, 0], [45, 0, 0], [46, 0, 0]]
    }, 
    {
      "op": "FullyConnected", 
      "name": "lstm_l1_t22_h2h", 
      "attr": {"num_hidden": "1024"}, 
      "inputs": [[630, 0, 0], [49, 0, 0], [50, 0, 0]]
    }, 
    {
      "op": "elemwise_add", 
      "name": "_plus362", 
      "inputs": [[645, 0, 0], [646, 0, 0]]
    }, 
    {
      "op": "SliceChannel", 
      "name": "lstm_l1_t22_slice", 
      "attr": {"num_outputs": "4"}, 
      "inputs": [[647, 0, 0]]
    }, 
    {
      "op": "Activation", 
      "name": "lstm_l1_t22_o", 
      "attr": {"act_type": "sigmoid"}, 
      "inputs": [[648, 3, 0]]
    }, 
    {
      "op": "Activation", 
      "name": "lstm_l1_t22_f", 
      "attr": {"act_type": "sigmoid"}, 
      "inputs": [[648, 1, 0]]
    }, 
    {
      "op": "_mul", 
      "name": "_mul724", 
      "inputs": [[650, 0, 0], [628, 0, 0]]
    }, 
    {
      "op": "Activation", 
      "name": "lstm_l1_t22_i", 
      "attr": {"act_type": "sigmoid"}, 
      "inputs": [[648, 0, 0]]
    }, 
    {
      "op": "Activation", 
      "name": "lstm_l1_t22_c", 
      "attr": {"act_type": "tanh"}, 
      "inputs": [[648, 2, 0]]
    }, 
    {
      "op": "_mul", 
      "name": "_mul725", 
      "inputs": [[652, 0, 0], [653, 0, 0]]
    }, 
    {
      "op": "elemwise_add", 
      "name": "lstm_l1_t22_state", 
      "inputs": [[651, 0, 0], [654, 0, 0]]
    }, 
    {
      "op": "Activation", 
      "name": "activation362", 
      "attr": {"act_type": "tanh"}, 
      "inputs": [[655, 0, 0]]
    }, 
    {
      "op": "_mul", 
      "name": "lstm_l1_t22_out", 
      "inputs": [[649, 0, 0], [656, 0, 0]]
    }, 
    {
      "op": "expand_dims", 
      "name": "expand_dims162", 
      "attr": {"axis": "1"}, 
      "inputs": [[657, 0, 0]]
    }, 
    {
      "op": "FullyConnected", 
      "name": "lstm_l0_t23_i2h", 
      "attr": {"num_hidden": "1024"}, 
      "inputs": [[25, 23, 0], [26, 0, 0], [27, 0, 0]]
    }, 
    {
      "op": "FullyConnected", 
      "name": "lstm_l0_t23_h2h", 
      "attr": {"num_hidden": "1024"}, 
      "inputs": [[644, 0, 0], [30, 0, 0], [31, 0, 0]]
    }, 
    {
      "op": "elemwise_add", 
      "name": "_plus303", 
      "inputs": [[659, 0, 0], [660, 0, 0]]
    }, 
    {
      "op": "SliceChannel", 
      "name": "lstm_l0_t23_slice", 
      "attr": {"num_outputs": "4"}, 
      "inputs": [[661, 0, 0]]
    }, 
    {
      "op": "Activation", 
      "name": "lstm_l0_t23_o", 
      "attr": {"act_type": "sigmoid"}, 
      "inputs": [[662, 3, 0]]
    }, 
    {
      "op": "Activation", 
      "name": "lstm_l0_t23_f", 
      "attr": {"act_type": "sigmoid"}, 
      "inputs": [[662, 1, 0]]
    }, 
    {
      "op": "_mul", 
      "name": "_mul606", 
      "inputs": [[664, 0, 0], [642, 0, 0]]
    }, 
    {
      "op": "Activation", 
      "name": "lstm_l0_t23_i", 
      "attr": {"act_type": "sigmoid"}, 
      "inputs": [[662, 0, 0]]
    }, 
    {
      "op": "Activation", 
      "name": "lstm_l0_t23_c", 
      "attr": {"act_type": "tanh"}, 
      "inputs": [[662, 2, 0]]
    }, 
    {
      "op": "_mul", 
      "name": "_mul607", 
      "inputs": [[666, 0, 0], [667, 0, 0]]
    }, 
    {
      "op": "elemwise_add", 
      "name": "lstm_l0_t23_state", 
      "inputs": [[665, 0, 0], [668, 0, 0]]
    }, 
    {
      "op": "Activation", 
      "name": "activation303", 
      "attr": {"act_type": "tanh"}, 
      "inputs": [[669, 0, 0]]
    }, 
    {
      "op": "_mul", 
      "name": "lstm_l0_t23_out", 
      "inputs": [[663, 0, 0], [670, 0, 0]]
    }, 
    {
      "op": "FullyConnected", 
      "name": "lstm_l1_t23_i2h", 
      "attr": {"num_hidden": "1024"}, 
      "inputs": [[671, 0, 0], [45, 0, 0], [46, 0, 0]]
    }, 
    {
      "op": "FullyConnected", 
      "name": "lstm_l1_t23_h2h", 
      "attr": {"num_hidden": "1024"}, 
      "inputs": [[657, 0, 0], [49, 0, 0], [50, 0, 0]]
    }, 
    {
      "op": "elemwise_add", 
      "name": "_plus363", 
      "inputs": [[672, 0, 0], [673, 0, 0]]
    }, 
    {
      "op": "SliceChannel", 
      "name": "lstm_l1_t23_slice", 
      "attr": {"num_outputs": "4"}, 
      "inputs": [[674, 0, 0]]
    }, 
    {
      "op": "Activation", 
      "name": "lstm_l1_t23_o", 
      "attr": {"act_type": "sigmoid"}, 
      "inputs": [[675, 3, 0]]
    }, 
    {
      "op": "Activation", 
      "name": "lstm_l1_t23_f", 
      "attr": {"act_type": "sigmoid"}, 
      "inputs": [[675, 1, 0]]
    }, 
    {
      "op": "_mul", 
      "name": "_mul726", 
      "inputs": [[677, 0, 0], [655, 0, 0]]
    }, 
    {
      "op": "Activation", 
      "name": "lstm_l1_t23_i", 
      "attr": {"act_type": "sigmoid"}, 
      "inputs": [[675, 0, 0]]
    }, 
    {
      "op": "Activation", 
      "name": "lstm_l1_t23_c", 
      "attr": {"act_type": "tanh"}, 
      "inputs": [[675, 2, 0]]
    }, 
    {
      "op": "_mul", 
      "name": "_mul727", 
      "inputs": [[679, 0, 0], [680, 0, 0]]
    }, 
    {
      "op": "elemwise_add", 
      "name": "lstm_l1_t23_state", 
      "inputs": [[678, 0, 0], [681, 0, 0]]
    }, 
    {
      "op": "Activation", 
      "name": "activation363", 
      "attr": {"act_type": "tanh"}, 
      "inputs": [[682, 0, 0]]
    }, 
    {
      "op": "_mul", 
      "name": "lstm_l1_t23_out", 
      "inputs": [[676, 0, 0], [683, 0, 0]]
    }, 
    {
      "op": "expand_dims", 
      "name": "expand_dims163", 
      "attr": {"axis": "1"}, 
      "inputs": [[684, 0, 0]]
    }, 
    {
      "op": "FullyConnected", 
      "name": "lstm_l0_t24_i2h", 
      "attr": {"num_hidden": "1024"}, 
      "inputs": [[25, 24, 0], [26, 0, 0], [27, 0, 0]]
    }, 
    {
      "op": "FullyConnected", 
      "name": "lstm_l0_t24_h2h", 
      "attr": {"num_hidden": "1024"}, 
      "inputs": [[671, 0, 0], [30, 0, 0], [31, 0, 0]]
    }, 
    {
      "op": "elemwise_add", 
      "name": "_plus304", 
      "inputs": [[686, 0, 0], [687, 0, 0]]
    }, 
    {
      "op": "SliceChannel", 
      "name": "lstm_l0_t24_slice", 
      "attr": {"num_outputs": "4"}, 
      "inputs": [[688, 0, 0]]
    }, 
    {
      "op": "Activation", 
      "name": "lstm_l0_t24_o", 
      "attr": {"act_type": "sigmoid"}, 
      "inputs": [[689, 3, 0]]
    }, 
    {
      "op": "Activation", 
      "name": "lstm_l0_t24_f", 
      "attr": {"act_type": "sigmoid"}, 
      "inputs": [[689, 1, 0]]
    }, 
    {
      "op": "_mul", 
      "name": "_mul608", 
      "inputs": [[691, 0, 0], [669, 0, 0]]
    }, 
    {
      "op": "Activation", 
      "name": "lstm_l0_t24_i", 
      "attr": {"act_type": "sigmoid"}, 
      "inputs": [[689, 0, 0]]
    }, 
    {
      "op": "Activation", 
      "name": "lstm_l0_t24_c", 
      "attr": {"act_type": "tanh"}, 
      "inputs": [[689, 2, 0]]
    }, 
    {
      "op": "_mul", 
      "name": "_mul609", 
      "inputs": [[693, 0, 0], [694, 0, 0]]
    }, 
    {
      "op": "elemwise_add", 
      "name": "lstm_l0_t24_state", 
      "inputs": [[692, 0, 0], [695, 0, 0]]
    }, 
    {
      "op": "Activation", 
      "name": "activation304", 
      "attr": {"act_type": "tanh"}, 
      "inputs": [[696, 0, 0]]
    }, 
    {
      "op": "_mul", 
      "name": "lstm_l0_t24_out", 
      "inputs": [[690, 0, 0], [697, 0, 0]]
    }, 
    {
      "op": "FullyConnected", 
      "name": "lstm_l1_t24_i2h", 
      "attr": {"num_hidden": "1024"}, 
      "inputs": [[698, 0, 0], [45, 0, 0], [46, 0, 0]]
    }, 
    {
      "op": "FullyConnected", 
      "name": "lstm_l1_t24_h2h", 
      "attr": {"num_hidden": "1024"}, 
      "inputs": [[684, 0, 0], [49, 0, 0], [50, 0, 0]]
    }, 
    {
      "op": "elemwise_add", 
      "name": "_plus364", 
      "inputs": [[699, 0, 0], [700, 0, 0]]
    }, 
    {
      "op": "SliceChannel", 
      "name": "lstm_l1_t24_slice", 
      "attr": {"num_outputs": "4"}, 
      "inputs": [[701, 0, 0]]
    }, 
    {
      "op": "Activation", 
      "name": "lstm_l1_t24_o", 
      "attr": {"act_type": "sigmoid"}, 
      "inputs": [[702, 3, 0]]
    }, 
    {
      "op": "Activation", 
      "name": "lstm_l1_t24_f", 
      "attr": {"act_type": "sigmoid"}, 
      "inputs": [[702, 1, 0]]
    }, 
    {
      "op": "_mul", 
      "name": "_mul728", 
      "inputs": [[704, 0, 0], [682, 0, 0]]
    }, 
    {
      "op": "Activation", 
      "name": "lstm_l1_t24_i", 
      "attr": {"act_type": "sigmoid"}, 
      "inputs": [[702, 0, 0]]
    }, 
    {
      "op": "Activation", 
      "name": "lstm_l1_t24_c", 
      "attr": {"act_type": "tanh"}, 
      "inputs": [[702, 2, 0]]
    }, 
    {
      "op": "_mul", 
      "name": "_mul729", 
      "inputs": [[706, 0, 0], [707, 0, 0]]
    }, 
    {
      "op": "elemwise_add", 
      "name": "lstm_l1_t24_state", 
      "inputs": [[705, 0, 0], [708, 0, 0]]
    }, 
    {
      "op": "Activation", 
      "name": "activation364", 
      "attr": {"act_type": "tanh"}, 
      "inputs": [[709, 0, 0]]
    }, 
    {
      "op": "_mul", 
      "name": "lstm_l1_t24_out", 
      "inputs": [[703, 0, 0], [710, 0, 0]]
    }, 
    {
      "op": "expand_dims", 
      "name": "expand_dims164", 
      "attr": {"axis": "1"}, 
      "inputs": [[711, 0, 0]]
    }, 
    {
      "op": "FullyConnected", 
      "name": "lstm_l0_t25_i2h", 
      "attr": {"num_hidden": "1024"}, 
      "inputs": [[25, 25, 0], [26, 0, 0], [27, 0, 0]]
    }, 
    {
      "op": "FullyConnected", 
      "name": "lstm_l0_t25_h2h", 
      "attr": {"num_hidden": "1024"}, 
      "inputs": [[698, 0, 0], [30, 0, 0], [31, 0, 0]]
    }, 
    {
      "op": "elemwise_add", 
      "name": "_plus305", 
      "inputs": [[713, 0, 0], [714, 0, 0]]
    }, 
    {
      "op": "SliceChannel", 
      "name": "lstm_l0_t25_slice", 
      "attr": {"num_outputs": "4"}, 
      "inputs": [[715, 0, 0]]
    }, 
    {
      "op": "Activation", 
      "name": "lstm_l0_t25_o", 
      "attr": {"act_type": "sigmoid"}, 
      "inputs": [[716, 3, 0]]
    }, 
    {
      "op": "Activation", 
      "name": "lstm_l0_t25_f", 
      "attr": {"act_type": "sigmoid"}, 
      "inputs": [[716, 1, 0]]
    }, 
    {
      "op": "_mul", 
      "name": "_mul610", 
      "inputs": [[718, 0, 0], [696, 0, 0]]
    }, 
    {
      "op": "Activation", 
      "name": "lstm_l0_t25_i", 
      "attr": {"act_type": "sigmoid"}, 
      "inputs": [[716, 0, 0]]
    }, 
    {
      "op": "Activation", 
      "name": "lstm_l0_t25_c", 
      "attr": {"act_type": "tanh"}, 
      "inputs": [[716, 2, 0]]
    }, 
    {
      "op": "_mul", 
      "name": "_mul611", 
      "inputs": [[720, 0, 0], [721, 0, 0]]
    }, 
    {
      "op": "elemwise_add", 
      "name": "lstm_l0_t25_state", 
      "inputs": [[719, 0, 0], [722, 0, 0]]
    }, 
    {
      "op": "Activation", 
      "name": "activation305", 
      "attr": {"act_type": "tanh"}, 
      "inputs": [[723, 0, 0]]
    }, 
    {
      "op": "_mul", 
      "name": "lstm_l0_t25_out", 
      "inputs": [[717, 0, 0], [724, 0, 0]]
    }, 
    {
      "op": "FullyConnected", 
      "name": "lstm_l1_t25_i2h", 
      "attr": {"num_hidden": "1024"}, 
      "inputs": [[725, 0, 0], [45, 0, 0], [46, 0, 0]]
    }, 
    {
      "op": "FullyConnected", 
      "name": "lstm_l1_t25_h2h", 
      "attr": {"num_hidden": "1024"}, 
      "inputs": [[711, 0, 0], [49, 0, 0], [50, 0, 0]]
    }, 
    {
      "op": "elemwise_add", 
      "name": "_plus365", 
      "inputs": [[726, 0, 0], [727, 0, 0]]
    }, 
    {
      "op": "SliceChannel", 
      "name": "lstm_l1_t25_slice", 
      "attr": {"num_outputs": "4"}, 
      "inputs": [[728, 0, 0]]
    }, 
    {
      "op": "Activation", 
      "name": "lstm_l1_t25_o", 
      "attr": {"act_type": "sigmoid"}, 
      "inputs": [[729, 3, 0]]
    }, 
    {
      "op": "Activation", 
      "name": "lstm_l1_t25_f", 
      "attr": {"act_type": "sigmoid"}, 
      "inputs": [[729, 1, 0]]
    }, 
    {
      "op": "_mul", 
      "name": "_mul730", 
      "inputs": [[731, 0, 0], [709, 0, 0]]
    }, 
    {
      "op": "Activation", 
      "name": "lstm_l1_t25_i", 
      "attr": {"act_type": "sigmoid"}, 
      "inputs": [[729, 0, 0]]
    }, 
    {
      "op": "Activation", 
      "name": "lstm_l1_t25_c", 
      "attr": {"act_type": "tanh"}, 
      "inputs": [[729, 2, 0]]
    }, 
    {
      "op": "_mul", 
      "name": "_mul731", 
      "inputs": [[733, 0, 0], [734, 0, 0]]
    }, 
    {
      "op": "elemwise_add", 
      "name": "lstm_l1_t25_state", 
      "inputs": [[732, 0, 0], [735, 0, 0]]
    }, 
    {
      "op": "Activation", 
      "name": "activation365", 
      "attr": {"act_type": "tanh"}, 
      "inputs": [[736, 0, 0]]
    }, 
    {
      "op": "_mul", 
      "name": "lstm_l1_t25_out", 
      "inputs": [[730, 0, 0], [737, 0, 0]]
    }, 
    {
      "op": "expand_dims", 
      "name": "expand_dims165", 
      "attr": {"axis": "1"}, 
      "inputs": [[738, 0, 0]]
    }, 
    {
      "op": "FullyConnected", 
      "name": "lstm_l0_t26_i2h", 
      "attr": {"num_hidden": "1024"}, 
      "inputs": [[25, 26, 0], [26, 0, 0], [27, 0, 0]]
    }, 
    {
      "op": "FullyConnected", 
      "name": "lstm_l0_t26_h2h", 
      "attr": {"num_hidden": "1024"}, 
      "inputs": [[725, 0, 0], [30, 0, 0], [31, 0, 0]]
    }, 
    {
      "op": "elemwise_add", 
      "name": "_plus306", 
      "inputs": [[740, 0, 0], [741, 0, 0]]
    }, 
    {
      "op": "SliceChannel", 
      "name": "lstm_l0_t26_slice", 
      "attr": {"num_outputs": "4"}, 
      "inputs": [[742, 0, 0]]
    }, 
    {
      "op": "Activation", 
      "name": "lstm_l0_t26_o", 
      "attr": {"act_type": "sigmoid"}, 
      "inputs": [[743, 3, 0]]
    }, 
    {
      "op": "Activation", 
      "name": "lstm_l0_t26_f", 
      "attr": {"act_type": "sigmoid"}, 
      "inputs": [[743, 1, 0]]
    }, 
    {
      "op": "_mul", 
      "name": "_mul612", 
      "inputs": [[745, 0, 0], [723, 0, 0]]
    }, 
    {
      "op": "Activation", 
      "name": "lstm_l0_t26_i", 
      "attr": {"act_type": "sigmoid"}, 
      "inputs": [[743, 0, 0]]
    }, 
    {
      "op": "Activation", 
      "name": "lstm_l0_t26_c", 
      "attr": {"act_type": "tanh"}, 
      "inputs": [[743, 2, 0]]
    }, 
    {
      "op": "_mul", 
      "name": "_mul613", 
      "inputs": [[747, 0, 0], [748, 0, 0]]
    }, 
    {
      "op": "elemwise_add", 
      "name": "lstm_l0_t26_state", 
      "inputs": [[746, 0, 0], [749, 0, 0]]
    }, 
    {
      "op": "Activation", 
      "name": "activation306", 
      "attr": {"act_type": "tanh"}, 
      "inputs": [[750, 0, 0]]
    }, 
    {
      "op": "_mul", 
      "name": "lstm_l0_t26_out", 
      "inputs": [[744, 0, 0], [751, 0, 0]]
    }, 
    {
      "op": "FullyConnected", 
      "name": "lstm_l1_t26_i2h", 
      "attr": {"num_hidden": "1024"}, 
      "inputs": [[752, 0, 0], [45, 0, 0], [46, 0, 0]]
    }, 
    {
      "op": "FullyConnected", 
      "name": "lstm_l1_t26_h2h", 
      "attr": {"num_hidden": "1024"}, 
      "inputs": [[738, 0, 0], [49, 0, 0], [50, 0, 0]]
    }, 
    {
      "op": "elemwise_add", 
      "name": "_plus366", 
      "inputs": [[753, 0, 0], [754, 0, 0]]
    }, 
    {
      "op": "SliceChannel", 
      "name": "lstm_l1_t26_slice", 
      "attr": {"num_outputs": "4"}, 
      "inputs": [[755, 0, 0]]
    }, 
    {
      "op": "Activation", 
      "name": "lstm_l1_t26_o", 
      "attr": {"act_type": "sigmoid"}, 
      "inputs": [[756, 3, 0]]
    }, 
    {
      "op": "Activation", 
      "name": "lstm_l1_t26_f", 
      "attr": {"act_type": "sigmoid"}, 
      "inputs": [[756, 1, 0]]
    }, 
    {
      "op": "_mul", 
      "name": "_mul732", 
      "inputs": [[758, 0, 0], [736, 0, 0]]
    }, 
    {
      "op": "Activation", 
      "name": "lstm_l1_t26_i", 
      "attr": {"act_type": "sigmoid"}, 
      "inputs": [[756, 0, 0]]
    }, 
    {
      "op": "Activation", 
      "name": "lstm_l1_t26_c", 
      "attr": {"act_type": "tanh"}, 
      "inputs": [[756, 2, 0]]
    }, 
    {
      "op": "_mul", 
      "name": "_mul733", 
      "inputs": [[760, 0, 0], [761, 0, 0]]
    }, 
    {
      "op": "elemwise_add", 
      "name": "lstm_l1_t26_state", 
      "inputs": [[759, 0, 0], [762, 0, 0]]
    }, 
    {
      "op": "Activation", 
      "name": "activation366", 
      "attr": {"act_type": "tanh"}, 
      "inputs": [[763, 0, 0]]
    }, 
    {
      "op": "_mul", 
      "name": "lstm_l1_t26_out", 
      "inputs": [[757, 0, 0], [764, 0, 0]]
    }, 
    {
      "op": "expand_dims", 
      "name": "expand_dims166", 
      "attr": {"axis": "1"}, 
      "inputs": [[765, 0, 0]]
    }, 
    {
      "op": "FullyConnected", 
      "name": "lstm_l0_t27_i2h", 
      "attr": {"num_hidden": "1024"}, 
      "inputs": [[25, 27, 0], [26, 0, 0], [27, 0, 0]]
    }, 
    {
      "op": "FullyConnected", 
      "name": "lstm_l0_t27_h2h", 
      "attr": {"num_hidden": "1024"}, 
      "inputs": [[752, 0, 0], [30, 0, 0], [31, 0, 0]]
    }, 
    {
      "op": "elemwise_add", 
      "name": "_plus307", 
      "inputs": [[767, 0, 0], [768, 0, 0]]
    }, 
    {
      "op": "SliceChannel", 
      "name": "lstm_l0_t27_slice", 
      "attr": {"num_outputs": "4"}, 
      "inputs": [[769, 0, 0]]
    }, 
    {
      "op": "Activation", 
      "name": "lstm_l0_t27_o", 
      "attr": {"act_type": "sigmoid"}, 
      "inputs": [[770, 3, 0]]
    }, 
    {
      "op": "Activation", 
      "name": "lstm_l0_t27_f", 
      "attr": {"act_type": "sigmoid"}, 
      "inputs": [[770, 1, 0]]
    }, 
    {
      "op": "_mul", 
      "name": "_mul614", 
      "inputs": [[772, 0, 0], [750, 0, 0]]
    }, 
    {
      "op": "Activation", 
      "name": "lstm_l0_t27_i", 
      "attr": {"act_type": "sigmoid"}, 
      "inputs": [[770, 0, 0]]
    }, 
    {
      "op": "Activation", 
      "name": "lstm_l0_t27_c", 
      "attr": {"act_type": "tanh"}, 
      "inputs": [[770, 2, 0]]
    }, 
    {
      "op": "_mul", 
      "name": "_mul615", 
      "inputs": [[774, 0, 0], [775, 0, 0]]
    }, 
    {
      "op": "elemwise_add", 
      "name": "lstm_l0_t27_state", 
      "inputs": [[773, 0, 0], [776, 0, 0]]
    }, 
    {
      "op": "Activation", 
      "name": "activation307", 
      "attr": {"act_type": "tanh"}, 
      "inputs": [[777, 0, 0]]
    }, 
    {
      "op": "_mul", 
      "name": "lstm_l0_t27_out", 
      "inputs": [[771, 0, 0], [778, 0, 0]]
    }, 
    {
      "op": "FullyConnected", 
      "name": "lstm_l1_t27_i2h", 
      "attr": {"num_hidden": "1024"}, 
      "inputs": [[779, 0, 0], [45, 0, 0], [46, 0, 0]]
    }, 
    {
      "op": "FullyConnected", 
      "name": "lstm_l1_t27_h2h", 
      "attr": {"num_hidden": "1024"}, 
      "inputs": [[765, 0, 0], [49, 0, 0], [50, 0, 0]]
    }, 
    {
      "op": "elemwise_add", 
      "name": "_plus367", 
      "inputs": [[780, 0, 0], [781, 0, 0]]
    }, 
    {
      "op": "SliceChannel", 
      "name": "lstm_l1_t27_slice", 
      "attr": {"num_outputs": "4"}, 
      "inputs": [[782, 0, 0]]
    }, 
    {
      "op": "Activation", 
      "name": "lstm_l1_t27_o", 
      "attr": {"act_type": "sigmoid"}, 
      "inputs": [[783, 3, 0]]
    }, 
    {
      "op": "Activation", 
      "name": "lstm_l1_t27_f", 
      "attr": {"act_type": "sigmoid"}, 
      "inputs": [[783, 1, 0]]
    }, 
    {
      "op": "_mul", 
      "name": "_mul734", 
      "inputs": [[785, 0, 0], [763, 0, 0]]
    }, 
    {
      "op": "Activation", 
      "name": "lstm_l1_t27_i", 
      "attr": {"act_type": "sigmoid"}, 
      "inputs": [[783, 0, 0]]
    }, 
    {
      "op": "Activation", 
      "name": "lstm_l1_t27_c", 
      "attr": {"act_type": "tanh"}, 
      "inputs": [[783, 2, 0]]
    }, 
    {
      "op": "_mul", 
      "name": "_mul735", 
      "inputs": [[787, 0, 0], [788, 0, 0]]
    }, 
    {
      "op": "elemwise_add", 
      "name": "lstm_l1_t27_state", 
      "inputs": [[786, 0, 0], [789, 0, 0]]
    }, 
    {
      "op": "Activation", 
      "name": "activation367", 
      "attr": {"act_type": "tanh"}, 
      "inputs": [[790, 0, 0]]
    }, 
    {
      "op": "_mul", 
      "name": "lstm_l1_t27_out", 
      "inputs": [[784, 0, 0], [791, 0, 0]]
    }, 
    {
      "op": "expand_dims", 
      "name": "expand_dims167", 
      "attr": {"axis": "1"}, 
      "inputs": [[792, 0, 0]]
    }, 
    {
      "op": "FullyConnected", 
      "name": "lstm_l0_t28_i2h", 
      "attr": {"num_hidden": "1024"}, 
      "inputs": [[25, 28, 0], [26, 0, 0], [27, 0, 0]]
    }, 
    {
      "op": "FullyConnected", 
      "name": "lstm_l0_t28_h2h", 
      "attr": {"num_hidden": "1024"}, 
      "inputs": [[779, 0, 0], [30, 0, 0], [31, 0, 0]]
    }, 
    {
      "op": "elemwise_add", 
      "name": "_plus308", 
      "inputs": [[794, 0, 0], [795, 0, 0]]
    }, 
    {
      "op": "SliceChannel", 
      "name": "lstm_l0_t28_slice", 
      "attr": {"num_outputs": "4"}, 
      "inputs": [[796, 0, 0]]
    }, 
    {
      "op": "Activation", 
      "name": "lstm_l0_t28_o", 
      "attr": {"act_type": "sigmoid"}, 
      "inputs": [[797, 3, 0]]
    }, 
    {
      "op": "Activation", 
      "name": "lstm_l0_t28_f", 
      "attr": {"act_type": "sigmoid"}, 
      "inputs": [[797, 1, 0]]
    }, 
    {
      "op": "_mul", 
      "name": "_mul616", 
      "inputs": [[799, 0, 0], [777, 0, 0]]
    }, 
    {
      "op": "Activation", 
      "name": "lstm_l0_t28_i", 
      "attr": {"act_type": "sigmoid"}, 
      "inputs": [[797, 0, 0]]
    }, 
    {
      "op": "Activation", 
      "name": "lstm_l0_t28_c", 
      "attr": {"act_type": "tanh"}, 
      "inputs": [[797, 2, 0]]
    }, 
    {
      "op": "_mul", 
      "name": "_mul617", 
      "inputs": [[801, 0, 0], [802, 0, 0]]
    }, 
    {
      "op": "elemwise_add", 
      "name": "lstm_l0_t28_state", 
      "inputs": [[800, 0, 0], [803, 0, 0]]
    }, 
    {
      "op": "Activation", 
      "name": "activation308", 
      "attr": {"act_type": "tanh"}, 
      "inputs": [[804, 0, 0]]
    }, 
    {
      "op": "_mul", 
      "name": "lstm_l0_t28_out", 
      "inputs": [[798, 0, 0], [805, 0, 0]]
    }, 
    {
      "op": "FullyConnected", 
      "name": "lstm_l1_t28_i2h", 
      "attr": {"num_hidden": "1024"}, 
      "inputs": [[806, 0, 0], [45, 0, 0], [46, 0, 0]]
    }, 
    {
      "op": "FullyConnected", 
      "name": "lstm_l1_t28_h2h", 
      "attr": {"num_hidden": "1024"}, 
      "inputs": [[792, 0, 0], [49, 0, 0], [50, 0, 0]]
    }, 
    {
      "op": "elemwise_add", 
      "name": "_plus368", 
      "inputs": [[807, 0, 0], [808, 0, 0]]
    }, 
    {
      "op": "SliceChannel", 
      "name": "lstm_l1_t28_slice", 
      "attr": {"num_outputs": "4"}, 
      "inputs": [[809, 0, 0]]
    }, 
    {
      "op": "Activation", 
      "name": "lstm_l1_t28_o", 
      "attr": {"act_type": "sigmoid"}, 
      "inputs": [[810, 3, 0]]
    }, 
    {
      "op": "Activation", 
      "name": "lstm_l1_t28_f", 
      "attr": {"act_type": "sigmoid"}, 
      "inputs": [[810, 1, 0]]
    }, 
    {
      "op": "_mul", 
      "name": "_mul736", 
      "inputs": [[812, 0, 0], [790, 0, 0]]
    }, 
    {
      "op": "Activation", 
      "name": "lstm_l1_t28_i", 
      "attr": {"act_type": "sigmoid"}, 
      "inputs": [[810, 0, 0]]
    }, 
    {
      "op": "Activation", 
      "name": "lstm_l1_t28_c", 
      "attr": {"act_type": "tanh"}, 
      "inputs": [[810, 2, 0]]
    }, 
    {
      "op": "_mul", 
      "name": "_mul737", 
      "inputs": [[814, 0, 0], [815, 0, 0]]
    }, 
    {
      "op": "elemwise_add", 
      "name": "lstm_l1_t28_state", 
      "inputs": [[813, 0, 0], [816, 0, 0]]
    }, 
    {
      "op": "Activation", 
      "name": "activation368", 
      "attr": {"act_type": "tanh"}, 
      "inputs": [[817, 0, 0]]
    }, 
    {
      "op": "_mul", 
      "name": "lstm_l1_t28_out", 
      "inputs": [[811, 0, 0], [818, 0, 0]]
    }, 
    {
      "op": "expand_dims", 
      "name": "expand_dims168", 
      "attr": {"axis": "1"}, 
      "inputs": [[819, 0, 0]]
    }, 
    {
      "op": "FullyConnected", 
      "name": "lstm_l0_t29_i2h", 
      "attr": {"num_hidden": "1024"}, 
      "inputs": [[25, 29, 0], [26, 0, 0], [27, 0, 0]]
    }, 
    {
      "op": "FullyConnected", 
      "name": "lstm_l0_t29_h2h", 
      "attr": {"num_hidden": "1024"}, 
      "inputs": [[806, 0, 0], [30, 0, 0], [31, 0, 0]]
    }, 
    {
      "op": "elemwise_add", 
      "name": "_plus309", 
      "inputs": [[821, 0, 0], [822, 0, 0]]
    }, 
    {
      "op": "SliceChannel", 
      "name": "lstm_l0_t29_slice", 
      "attr": {"num_outputs": "4"}, 
      "inputs": [[823, 0, 0]]
    }, 
    {
      "op": "Activation", 
      "name": "lstm_l0_t29_o", 
      "attr": {"act_type": "sigmoid"}, 
      "inputs": [[824, 3, 0]]
    }, 
    {
      "op": "Activation", 
      "name": "lstm_l0_t29_f", 
      "attr": {"act_type": "sigmoid"}, 
      "inputs": [[824, 1, 0]]
    }, 
    {
      "op": "_mul", 
      "name": "_mul618", 
      "inputs": [[826, 0, 0], [804, 0, 0]]
    }, 
    {
      "op": "Activation", 
      "name": "lstm_l0_t29_i", 
      "attr": {"act_type": "sigmoid"}, 
      "inputs": [[824, 0, 0]]
    }, 
    {
      "op": "Activation", 
      "name": "lstm_l0_t29_c", 
      "attr": {"act_type": "tanh"}, 
      "inputs": [[824, 2, 0]]
    }, 
    {
      "op": "_mul", 
      "name": "_mul619", 
      "inputs": [[828, 0, 0], [829, 0, 0]]
    }, 
    {
      "op": "elemwise_add", 
      "name": "lstm_l0_t29_state", 
      "inputs": [[827, 0, 0], [830, 0, 0]]
    }, 
    {
      "op": "Activation", 
      "name": "activation309", 
      "attr": {"act_type": "tanh"}, 
      "inputs": [[831, 0, 0]]
    }, 
    {
      "op": "_mul", 
      "name": "lstm_l0_t29_out", 
      "inputs": [[825, 0, 0], [832, 0, 0]]
    }, 
    {
      "op": "FullyConnected", 
      "name": "lstm_l1_t29_i2h", 
      "attr": {"num_hidden": "1024"}, 
      "inputs": [[833, 0, 0], [45, 0, 0], [46, 0, 0]]
    }, 
    {
      "op": "FullyConnected", 
      "name": "lstm_l1_t29_h2h", 
      "attr": {"num_hidden": "1024"}, 
      "inputs": [[819, 0, 0], [49, 0, 0], [50, 0, 0]]
    }, 
    {
      "op": "elemwise_add", 
      "name": "_plus369", 
      "inputs": [[834, 0, 0], [835, 0, 0]]
    }, 
    {
      "op": "SliceChannel", 
      "name": "lstm_l1_t29_slice", 
      "attr": {"num_outputs": "4"}, 
      "inputs": [[836, 0, 0]]
    }, 
    {
      "op": "Activation", 
      "name": "lstm_l1_t29_o", 
      "attr": {"act_type": "sigmoid"}, 
      "inputs": [[837, 3, 0]]
    }, 
    {
      "op": "Activation", 
      "name": "lstm_l1_t29_f", 
      "attr": {"act_type": "sigmoid"}, 
      "inputs": [[837, 1, 0]]
    }, 
    {
      "op": "_mul", 
      "name": "_mul738", 
      "inputs": [[839, 0, 0], [817, 0, 0]]
    }, 
    {
      "op": "Activation", 
      "name": "lstm_l1_t29_i", 
      "attr": {"act_type": "sigmoid"}, 
      "inputs": [[837, 0, 0]]
    }, 
    {
      "op": "Activation", 
      "name": "lstm_l1_t29_c", 
      "attr": {"act_type": "tanh"}, 
      "inputs": [[837, 2, 0]]
    }, 
    {
      "op": "_mul", 
      "name": "_mul739", 
      "inputs": [[841, 0, 0], [842, 0, 0]]
    }, 
    {
      "op": "elemwise_add", 
      "name": "lstm_l1_t29_state", 
      "inputs": [[840, 0, 0], [843, 0, 0]]
    }, 
    {
      "op": "Activation", 
      "name": "activation369", 
      "attr": {"act_type": "tanh"}, 
      "inputs": [[844, 0, 0]]
    }, 
    {
      "op": "_mul", 
      "name": "lstm_l1_t29_out", 
      "inputs": [[838, 0, 0], [845, 0, 0]]
    }, 
    {
      "op": "expand_dims", 
      "name": "expand_dims169", 
      "attr": {"axis": "1"}, 
      "inputs": [[846, 0, 0]]
    }, 
    {
      "op": "FullyConnected", 
      "name": "lstm_l0_t30_i2h", 
      "attr": {"num_hidden": "1024"}, 
      "inputs": [[25, 30, 0], [26, 0, 0], [27, 0, 0]]
    }, 
    {
      "op": "FullyConnected", 
      "name": "lstm_l0_t30_h2h", 
      "attr": {"num_hidden": "1024"}, 
      "inputs": [[833, 0, 0], [30, 0, 0], [31, 0, 0]]
    }, 
    {
      "op": "elemwise_add", 
      "name": "_plus310", 
      "inputs": [[848, 0, 0], [849, 0, 0]]
    }, 
    {
      "op": "SliceChannel", 
      "name": "lstm_l0_t30_slice", 
      "attr": {"num_outputs": "4"}, 
      "inputs": [[850, 0, 0]]
    }, 
    {
      "op": "Activation", 
      "name": "lstm_l0_t30_o", 
      "attr": {"act_type": "sigmoid"}, 
      "inputs": [[851, 3, 0]]
    }, 
    {
      "op": "Activation", 
      "name": "lstm_l0_t30_f", 
      "attr": {"act_type": "sigmoid"}, 
      "inputs": [[851, 1, 0]]
    }, 
    {
      "op": "_mul", 
      "name": "_mul620", 
      "inputs": [[853, 0, 0], [831, 0, 0]]
    }, 
    {
      "op": "Activation", 
      "name": "lstm_l0_t30_i", 
      "attr": {"act_type": "sigmoid"}, 
      "inputs": [[851, 0, 0]]
    }, 
    {
      "op": "Activation", 
      "name": "lstm_l0_t30_c", 
      "attr": {"act_type": "tanh"}, 
      "inputs": [[851, 2, 0]]
    }, 
    {
      "op": "_mul", 
      "name": "_mul621", 
      "inputs": [[855, 0, 0], [856, 0, 0]]
    }, 
    {
      "op": "elemwise_add", 
      "name": "lstm_l0_t30_state", 
      "inputs": [[854, 0, 0], [857, 0, 0]]
    }, 
    {
      "op": "Activation", 
      "name": "activation310", 
      "attr": {"act_type": "tanh"}, 
      "inputs": [[858, 0, 0]]
    }, 
    {
      "op": "_mul", 
      "name": "lstm_l0_t30_out", 
      "inputs": [[852, 0, 0], [859, 0, 0]]
    }, 
    {
      "op": "FullyConnected", 
      "name": "lstm_l1_t30_i2h", 
      "attr": {"num_hidden": "1024"}, 
      "inputs": [[860, 0, 0], [45, 0, 0], [46, 0, 0]]
    }, 
    {
      "op": "FullyConnected", 
      "name": "lstm_l1_t30_h2h", 
      "attr": {"num_hidden": "1024"}, 
      "inputs": [[846, 0, 0], [49, 0, 0], [50, 0, 0]]
    }, 
    {
      "op": "elemwise_add", 
      "name": "_plus370", 
      "inputs": [[861, 0, 0], [862, 0, 0]]
    }, 
    {
      "op": "SliceChannel", 
      "name": "lstm_l1_t30_slice", 
      "attr": {"num_outputs": "4"}, 
      "inputs": [[863, 0, 0]]
    }, 
    {
      "op": "Activation", 
      "name": "lstm_l1_t30_o", 
      "attr": {"act_type": "sigmoid"}, 
      "inputs": [[864, 3, 0]]
    }, 
    {
      "op": "Activation", 
      "name": "lstm_l1_t30_f", 
      "attr": {"act_type": "sigmoid"}, 
      "inputs": [[864, 1, 0]]
    }, 
    {
      "op": "_mul", 
      "name": "_mul740", 
      "inputs": [[866, 0, 0], [844, 0, 0]]
    }, 
    {
      "op": "Activation", 
      "name": "lstm_l1_t30_i", 
      "attr": {"act_type": "sigmoid"}, 
      "inputs": [[864, 0, 0]]
    }, 
    {
      "op": "Activation", 
      "name": "lstm_l1_t30_c", 
      "attr": {"act_type": "tanh"}, 
      "inputs": [[864, 2, 0]]
    }, 
    {
      "op": "_mul", 
      "name": "_mul741", 
      "inputs": [[868, 0, 0], [869, 0, 0]]
    }, 
    {
      "op": "elemwise_add", 
      "name": "lstm_l1_t30_state", 
      "inputs": [[867, 0, 0], [870, 0, 0]]
    }, 
    {
      "op": "Activation", 
      "name": "activation370", 
      "attr": {"act_type": "tanh"}, 
      "inputs": [[871, 0, 0]]
    }, 
    {
      "op": "_mul", 
      "name": "lstm_l1_t30_out", 
      "inputs": [[865, 0, 0], [872, 0, 0]]
    }, 
    {
      "op": "expand_dims", 
      "name": "expand_dims170", 
      "attr": {"axis": "1"}, 
      "inputs": [[873, 0, 0]]
    }, 
    {
      "op": "FullyConnected", 
      "name": "lstm_l0_t31_i2h", 
      "attr": {"num_hidden": "1024"}, 
      "inputs": [[25, 31, 0], [26, 0, 0], [27, 0, 0]]
    }, 
    {
      "op": "FullyConnected", 
      "name": "lstm_l0_t31_h2h", 
      "attr": {"num_hidden": "1024"}, 
      "inputs": [[860, 0, 0], [30, 0, 0], [31, 0, 0]]
    }, 
    {
      "op": "elemwise_add", 
      "name": "_plus311", 
      "inputs": [[875, 0, 0], [876, 0, 0]]
    }, 
    {
      "op": "SliceChannel", 
      "name": "lstm_l0_t31_slice", 
      "attr": {"num_outputs": "4"}, 
      "inputs": [[877, 0, 0]]
    }, 
    {
      "op": "Activation", 
      "name": "lstm_l0_t31_o", 
      "attr": {"act_type": "sigmoid"}, 
      "inputs": [[878, 3, 0]]
    }, 
    {
      "op": "Activation", 
      "name": "lstm_l0_t31_f", 
      "attr": {"act_type": "sigmoid"}, 
      "inputs": [[878, 1, 0]]
    }, 
    {
      "op": "_mul", 
      "name": "_mul622", 
      "inputs": [[880, 0, 0], [858, 0, 0]]
    }, 
    {
      "op": "Activation", 
      "name": "lstm_l0_t31_i", 
      "attr": {"act_type": "sigmoid"}, 
      "inputs": [[878, 0, 0]]
    }, 
    {
      "op": "Activation", 
      "name": "lstm_l0_t31_c", 
      "attr": {"act_type": "tanh"}, 
      "inputs": [[878, 2, 0]]
    }, 
    {
      "op": "_mul", 
      "name": "_mul623", 
      "inputs": [[882, 0, 0], [883, 0, 0]]
    }, 
    {
      "op": "elemwise_add", 
      "name": "lstm_l0_t31_state", 
      "inputs": [[881, 0, 0], [884, 0, 0]]
    }, 
    {
      "op": "Activation", 
      "name": "activation311", 
      "attr": {"act_type": "tanh"}, 
      "inputs": [[885, 0, 0]]
    }, 
    {
      "op": "_mul", 
      "name": "lstm_l0_t31_out", 
      "inputs": [[879, 0, 0], [886, 0, 0]]
    }, 
    {
      "op": "FullyConnected", 
      "name": "lstm_l1_t31_i2h", 
      "attr": {"num_hidden": "1024"}, 
      "inputs": [[887, 0, 0], [45, 0, 0], [46, 0, 0]]
    }, 
    {
      "op": "FullyConnected", 
      "name": "lstm_l1_t31_h2h", 
      "attr": {"num_hidden": "1024"}, 
      "inputs": [[873, 0, 0], [49, 0, 0], [50, 0, 0]]
    }, 
    {
      "op": "elemwise_add", 
      "name": "_plus371", 
      "inputs": [[888, 0, 0], [889, 0, 0]]
    }, 
    {
      "op": "SliceChannel", 
      "name": "lstm_l1_t31_slice", 
      "attr": {"num_outputs": "4"}, 
      "inputs": [[890, 0, 0]]
    }, 
    {
      "op": "Activation", 
      "name": "lstm_l1_t31_o", 
      "attr": {"act_type": "sigmoid"}, 
      "inputs": [[891, 3, 0]]
    }, 
    {
      "op": "Activation", 
      "name": "lstm_l1_t31_f", 
      "attr": {"act_type": "sigmoid"}, 
      "inputs": [[891, 1, 0]]
    }, 
    {
      "op": "_mul", 
      "name": "_mul742", 
      "inputs": [[893, 0, 0], [871, 0, 0]]
    }, 
    {
      "op": "Activation", 
      "name": "lstm_l1_t31_i", 
      "attr": {"act_type": "sigmoid"}, 
      "inputs": [[891, 0, 0]]
    }, 
    {
      "op": "Activation", 
      "name": "lstm_l1_t31_c", 
      "attr": {"act_type": "tanh"}, 
      "inputs": [[891, 2, 0]]
    }, 
    {
      "op": "_mul", 
      "name": "_mul743", 
      "inputs": [[895, 0, 0], [896, 0, 0]]
    }, 
    {
      "op": "elemwise_add", 
      "name": "lstm_l1_t31_state", 
      "inputs": [[894, 0, 0], [897, 0, 0]]
    }, 
    {
      "op": "Activation", 
      "name": "activation371", 
      "attr": {"act_type": "tanh"}, 
      "inputs": [[898, 0, 0]]
    }, 
    {
      "op": "_mul", 
      "name": "lstm_l1_t31_out", 
      "inputs": [[892, 0, 0], [899, 0, 0]]
    }, 
    {
      "op": "expand_dims", 
      "name": "expand_dims171", 
      "attr": {"axis": "1"}, 
      "inputs": [[900, 0, 0]]
    }, 
    {
      "op": "FullyConnected", 
      "name": "lstm_l0_t32_i2h", 
      "attr": {"num_hidden": "1024"}, 
      "inputs": [[25, 32, 0], [26, 0, 0], [27, 0, 0]]
    }, 
    {
      "op": "FullyConnected", 
      "name": "lstm_l0_t32_h2h", 
      "attr": {"num_hidden": "1024"}, 
      "inputs": [[887, 0, 0], [30, 0, 0], [31, 0, 0]]
    }, 
    {
      "op": "elemwise_add", 
      "name": "_plus312", 
      "inputs": [[902, 0, 0], [903, 0, 0]]
    }, 
    {
      "op": "SliceChannel", 
      "name": "lstm_l0_t32_slice", 
      "attr": {"num_outputs": "4"}, 
      "inputs": [[904, 0, 0]]
    }, 
    {
      "op": "Activation", 
      "name": "lstm_l0_t32_o", 
      "attr": {"act_type": "sigmoid"}, 
      "inputs": [[905, 3, 0]]
    }, 
    {
      "op": "Activation", 
      "name": "lstm_l0_t32_f", 
      "attr": {"act_type": "sigmoid"}, 
      "inputs": [[905, 1, 0]]
    }, 
    {
      "op": "_mul", 
      "name": "_mul624", 
      "inputs": [[907, 0, 0], [885, 0, 0]]
    }, 
    {
      "op": "Activation", 
      "name": "lstm_l0_t32_i", 
      "attr": {"act_type": "sigmoid"}, 
      "inputs": [[905, 0, 0]]
    }, 
    {
      "op": "Activation", 
      "name": "lstm_l0_t32_c", 
      "attr": {"act_type": "tanh"}, 
      "inputs": [[905, 2, 0]]
    }, 
    {
      "op": "_mul", 
      "name": "_mul625", 
      "inputs": [[909, 0, 0], [910, 0, 0]]
    }, 
    {
      "op": "elemwise_add", 
      "name": "lstm_l0_t32_state", 
      "inputs": [[908, 0, 0], [911, 0, 0]]
    }, 
    {
      "op": "Activation", 
      "name": "activation312", 
      "attr": {"act_type": "tanh"}, 
      "inputs": [[912, 0, 0]]
    }, 
    {
      "op": "_mul", 
      "name": "lstm_l0_t32_out", 
      "inputs": [[906, 0, 0], [913, 0, 0]]
    }, 
    {
      "op": "FullyConnected", 
      "name": "lstm_l1_t32_i2h", 
      "attr": {"num_hidden": "1024"}, 
      "inputs": [[914, 0, 0], [45, 0, 0], [46, 0, 0]]
    }, 
    {
      "op": "FullyConnected", 
      "name": "lstm_l1_t32_h2h", 
      "attr": {"num_hidden": "1024"}, 
      "inputs": [[900, 0, 0], [49, 0, 0], [50, 0, 0]]
    }, 
    {
      "op": "elemwise_add", 
      "name": "_plus372", 
      "inputs": [[915, 0, 0], [916, 0, 0]]
    }, 
    {
      "op": "SliceChannel", 
      "name": "lstm_l1_t32_slice", 
      "attr": {"num_outputs": "4"}, 
      "inputs": [[917, 0, 0]]
    }, 
    {
      "op": "Activation", 
      "name": "lstm_l1_t32_o", 
      "attr": {"act_type": "sigmoid"}, 
      "inputs": [[918, 3, 0]]
    }, 
    {
      "op": "Activation", 
      "name": "lstm_l1_t32_f", 
      "attr": {"act_type": "sigmoid"}, 
      "inputs": [[918, 1, 0]]
    }, 
    {
      "op": "_mul", 
      "name": "_mul744", 
      "inputs": [[920, 0, 0], [898, 0, 0]]
    }, 
    {
      "op": "Activation", 
      "name": "lstm_l1_t32_i", 
      "attr": {"act_type": "sigmoid"}, 
      "inputs": [[918, 0, 0]]
    }, 
    {
      "op": "Activation", 
      "name": "lstm_l1_t32_c", 
      "attr": {"act_type": "tanh"}, 
      "inputs": [[918, 2, 0]]
    }, 
    {
      "op": "_mul", 
      "name": "_mul745", 
      "inputs": [[922, 0, 0], [923, 0, 0]]
    }, 
    {
      "op": "elemwise_add", 
      "name": "lstm_l1_t32_state", 
      "inputs": [[921, 0, 0], [924, 0, 0]]
    }, 
    {
      "op": "Activation", 
      "name": "activation372", 
      "attr": {"act_type": "tanh"}, 
      "inputs": [[925, 0, 0]]
    }, 
    {
      "op": "_mul", 
      "name": "lstm_l1_t32_out", 
      "inputs": [[919, 0, 0], [926, 0, 0]]
    }, 
    {
      "op": "expand_dims", 
      "name": "expand_dims172", 
      "attr": {"axis": "1"}, 
      "inputs": [[927, 0, 0]]
    }, 
    {
      "op": "FullyConnected", 
      "name": "lstm_l0_t33_i2h", 
      "attr": {"num_hidden": "1024"}, 
      "inputs": [[25, 33, 0], [26, 0, 0], [27, 0, 0]]
    }, 
    {
      "op": "FullyConnected", 
      "name": "lstm_l0_t33_h2h", 
      "attr": {"num_hidden": "1024"}, 
      "inputs": [[914, 0, 0], [30, 0, 0], [31, 0, 0]]
    }, 
    {
      "op": "elemwise_add", 
      "name": "_plus313", 
      "inputs": [[929, 0, 0], [930, 0, 0]]
    }, 
    {
      "op": "SliceChannel", 
      "name": "lstm_l0_t33_slice", 
      "attr": {"num_outputs": "4"}, 
      "inputs": [[931, 0, 0]]
    }, 
    {
      "op": "Activation", 
      "name": "lstm_l0_t33_o", 
      "attr": {"act_type": "sigmoid"}, 
      "inputs": [[932, 3, 0]]
    }, 
    {
      "op": "Activation", 
      "name": "lstm_l0_t33_f", 
      "attr": {"act_type": "sigmoid"}, 
      "inputs": [[932, 1, 0]]
    }, 
    {
      "op": "_mul", 
      "name": "_mul626", 
      "inputs": [[934, 0, 0], [912, 0, 0]]
    }, 
    {
      "op": "Activation", 
      "name": "lstm_l0_t33_i", 
      "attr": {"act_type": "sigmoid"}, 
      "inputs": [[932, 0, 0]]
    }, 
    {
      "op": "Activation", 
      "name": "lstm_l0_t33_c", 
      "attr": {"act_type": "tanh"}, 
      "inputs": [[932, 2, 0]]
    }, 
    {
      "op": "_mul", 
      "name": "_mul627", 
      "inputs": [[936, 0, 0], [937, 0, 0]]
    }, 
    {
      "op": "elemwise_add", 
      "name": "lstm_l0_t33_state", 
      "inputs": [[935, 0, 0], [938, 0, 0]]
    }, 
    {
      "op": "Activation", 
      "name": "activation313", 
      "attr": {"act_type": "tanh"}, 
      "inputs": [[939, 0, 0]]
    }, 
    {
      "op": "_mul", 
      "name": "lstm_l0_t33_out", 
      "inputs": [[933, 0, 0], [940, 0, 0]]
    }, 
    {
      "op": "FullyConnected", 
      "name": "lstm_l1_t33_i2h", 
      "attr": {"num_hidden": "1024"}, 
      "inputs": [[941, 0, 0], [45, 0, 0], [46, 0, 0]]
    }, 
    {
      "op": "FullyConnected", 
      "name": "lstm_l1_t33_h2h", 
      "attr": {"num_hidden": "1024"}, 
      "inputs": [[927, 0, 0], [49, 0, 0], [50, 0, 0]]
    }, 
    {
      "op": "elemwise_add", 
      "name": "_plus373", 
      "inputs": [[942, 0, 0], [943, 0, 0]]
    }, 
    {
      "op": "SliceChannel", 
      "name": "lstm_l1_t33_slice", 
      "attr": {"num_outputs": "4"}, 
      "inputs": [[944, 0, 0]]
    }, 
    {
      "op": "Activation", 
      "name": "lstm_l1_t33_o", 
      "attr": {"act_type": "sigmoid"}, 
      "inputs": [[945, 3, 0]]
    }, 
    {
      "op": "Activation", 
      "name": "lstm_l1_t33_f", 
      "attr": {"act_type": "sigmoid"}, 
      "inputs": [[945, 1, 0]]
    }, 
    {
      "op": "_mul", 
      "name": "_mul746", 
      "inputs": [[947, 0, 0], [925, 0, 0]]
    }, 
    {
      "op": "Activation", 
      "name": "lstm_l1_t33_i", 
      "attr": {"act_type": "sigmoid"}, 
      "inputs": [[945, 0, 0]]
    }, 
    {
      "op": "Activation", 
      "name": "lstm_l1_t33_c", 
      "attr": {"act_type": "tanh"}, 
      "inputs": [[945, 2, 0]]
    }, 
    {
      "op": "_mul", 
      "name": "_mul747", 
      "inputs": [[949, 0, 0], [950, 0, 0]]
    }, 
    {
      "op": "elemwise_add", 
      "name": "lstm_l1_t33_state", 
      "inputs": [[948, 0, 0], [951, 0, 0]]
    }, 
    {
      "op": "Activation", 
      "name": "activation373", 
      "attr": {"act_type": "tanh"}, 
      "inputs": [[952, 0, 0]]
    }, 
    {
      "op": "_mul", 
      "name": "lstm_l1_t33_out", 
      "inputs": [[946, 0, 0], [953, 0, 0]]
    }, 
    {
      "op": "expand_dims", 
      "name": "expand_dims173", 
      "attr": {"axis": "1"}, 
      "inputs": [[954, 0, 0]]
    }, 
    {
      "op": "FullyConnected", 
      "name": "lstm_l0_t34_i2h", 
      "attr": {"num_hidden": "1024"}, 
      "inputs": [[25, 34, 0], [26, 0, 0], [27, 0, 0]]
    }, 
    {
      "op": "FullyConnected", 
      "name": "lstm_l0_t34_h2h", 
      "attr": {"num_hidden": "1024"}, 
      "inputs": [[941, 0, 0], [30, 0, 0], [31, 0, 0]]
    }, 
    {
      "op": "elemwise_add", 
      "name": "_plus314", 
      "inputs": [[956, 0, 0], [957, 0, 0]]
    }, 
    {
      "op": "SliceChannel", 
      "name": "lstm_l0_t34_slice", 
      "attr": {"num_outputs": "4"}, 
      "inputs": [[958, 0, 0]]
    }, 
    {
      "op": "Activation", 
      "name": "lstm_l0_t34_o", 
      "attr": {"act_type": "sigmoid"}, 
      "inputs": [[959, 3, 0]]
    }, 
    {
      "op": "Activation", 
      "name": "lstm_l0_t34_f", 
      "attr": {"act_type": "sigmoid"}, 
      "inputs": [[959, 1, 0]]
    }, 
    {
      "op": "_mul", 
      "name": "_mul628", 
      "inputs": [[961, 0, 0], [939, 0, 0]]
    }, 
    {
      "op": "Activation", 
      "name": "lstm_l0_t34_i", 
      "attr": {"act_type": "sigmoid"}, 
      "inputs": [[959, 0, 0]]
    }, 
    {
      "op": "Activation", 
      "name": "lstm_l0_t34_c", 
      "attr": {"act_type": "tanh"}, 
      "inputs": [[959, 2, 0]]
    }, 
    {
      "op": "_mul", 
      "name": "_mul629", 
      "inputs": [[963, 0, 0], [964, 0, 0]]
    }, 
    {
      "op": "elemwise_add", 
      "name": "lstm_l0_t34_state", 
      "inputs": [[962, 0, 0], [965, 0, 0]]
    }, 
    {
      "op": "Activation", 
      "name": "activation314", 
      "attr": {"act_type": "tanh"}, 
      "inputs": [[966, 0, 0]]
    }, 
    {
      "op": "_mul", 
      "name": "lstm_l0_t34_out", 
      "inputs": [[960, 0, 0], [967, 0, 0]]
    }, 
    {
      "op": "FullyConnected", 
      "name": "lstm_l1_t34_i2h", 
      "attr": {"num_hidden": "1024"}, 
      "inputs": [[968, 0, 0], [45, 0, 0], [46, 0, 0]]
    }, 
    {
      "op": "FullyConnected", 
      "name": "lstm_l1_t34_h2h", 
      "attr": {"num_hidden": "1024"}, 
      "inputs": [[954, 0, 0], [49, 0, 0], [50, 0, 0]]
    }, 
    {
      "op": "elemwise_add", 
      "name": "_plus374", 
      "inputs": [[969, 0, 0], [970, 0, 0]]
    }, 
    {
      "op": "SliceChannel", 
      "name": "lstm_l1_t34_slice", 
      "attr": {"num_outputs": "4"}, 
      "inputs": [[971, 0, 0]]
    }, 
    {
      "op": "Activation", 
      "name": "lstm_l1_t34_o", 
      "attr": {"act_type": "sigmoid"}, 
      "inputs": [[972, 3, 0]]
    }, 
    {
      "op": "Activation", 
      "name": "lstm_l1_t34_f", 
      "attr": {"act_type": "sigmoid"}, 
      "inputs": [[972, 1, 0]]
    }, 
    {
      "op": "_mul", 
      "name": "_mul748", 
      "inputs": [[974, 0, 0], [952, 0, 0]]
    }, 
    {
      "op": "Activation", 
      "name": "lstm_l1_t34_i", 
      "attr": {"act_type": "sigmoid"}, 
      "inputs": [[972, 0, 0]]
    }, 
    {
      "op": "Activation", 
      "name": "lstm_l1_t34_c", 
      "attr": {"act_type": "tanh"}, 
      "inputs": [[972, 2, 0]]
    }, 
    {
      "op": "_mul", 
      "name": "_mul749", 
      "inputs": [[976, 0, 0], [977, 0, 0]]
    }, 
    {
      "op": "elemwise_add", 
      "name": "lstm_l1_t34_state", 
      "inputs": [[975, 0, 0], [978, 0, 0]]
    }, 
    {
      "op": "Activation", 
      "name": "activation374", 
      "attr": {"act_type": "tanh"}, 
      "inputs": [[979, 0, 0]]
    }, 
    {
      "op": "_mul", 
      "name": "lstm_l1_t34_out", 
      "inputs": [[973, 0, 0], [980, 0, 0]]
    }, 
    {
      "op": "expand_dims", 
      "name": "expand_dims174", 
      "attr": {"axis": "1"}, 
      "inputs": [[981, 0, 0]]
    }, 
    {
      "op": "FullyConnected", 
      "name": "lstm_l0_t35_i2h", 
      "attr": {"num_hidden": "1024"}, 
      "inputs": [[25, 35, 0], [26, 0, 0], [27, 0, 0]]
    }, 
    {
      "op": "FullyConnected", 
      "name": "lstm_l0_t35_h2h", 
      "attr": {"num_hidden": "1024"}, 
      "inputs": [[968, 0, 0], [30, 0, 0], [31, 0, 0]]
    }, 
    {
      "op": "elemwise_add", 
      "name": "_plus315", 
      "inputs": [[983, 0, 0], [984, 0, 0]]
    }, 
    {
      "op": "SliceChannel", 
      "name": "lstm_l0_t35_slice", 
      "attr": {"num_outputs": "4"}, 
      "inputs": [[985, 0, 0]]
    }, 
    {
      "op": "Activation", 
      "name": "lstm_l0_t35_o", 
      "attr": {"act_type": "sigmoid"}, 
      "inputs": [[986, 3, 0]]
    }, 
    {
      "op": "Activation", 
      "name": "lstm_l0_t35_f", 
      "attr": {"act_type": "sigmoid"}, 
      "inputs": [[986, 1, 0]]
    }, 
    {
      "op": "_mul", 
      "name": "_mul630", 
      "inputs": [[988, 0, 0], [966, 0, 0]]
    }, 
    {
      "op": "Activation", 
      "name": "lstm_l0_t35_i", 
      "attr": {"act_type": "sigmoid"}, 
      "inputs": [[986, 0, 0]]
    }, 
    {
      "op": "Activation", 
      "name": "lstm_l0_t35_c", 
      "attr": {"act_type": "tanh"}, 
      "inputs": [[986, 2, 0]]
    }, 
    {
      "op": "_mul", 
      "name": "_mul631", 
      "inputs": [[990, 0, 0], [991, 0, 0]]
    }, 
    {
      "op": "elemwise_add", 
      "name": "lstm_l0_t35_state", 
      "inputs": [[989, 0, 0], [992, 0, 0]]
    }, 
    {
      "op": "Activation", 
      "name": "activation315", 
      "attr": {"act_type": "tanh"}, 
      "inputs": [[993, 0, 0]]
    }, 
    {
      "op": "_mul", 
      "name": "lstm_l0_t35_out", 
      "inputs": [[987, 0, 0], [994, 0, 0]]
    }, 
    {
      "op": "FullyConnected", 
      "name": "lstm_l1_t35_i2h", 
      "attr": {"num_hidden": "1024"}, 
      "inputs": [[995, 0, 0], [45, 0, 0], [46, 0, 0]]
    }, 
    {
      "op": "FullyConnected", 
      "name": "lstm_l1_t35_h2h", 
      "attr": {"num_hidden": "1024"}, 
      "inputs": [[981, 0, 0], [49, 0, 0], [50, 0, 0]]
    }, 
    {
      "op": "elemwise_add", 
      "name": "_plus375", 
      "inputs": [[996, 0, 0], [997, 0, 0]]
    }, 
    {
      "op": "SliceChannel", 
      "name": "lstm_l1_t35_slice", 
      "attr": {"num_outputs": "4"}, 
      "inputs": [[998, 0, 0]]
    }, 
    {
      "op": "Activation", 
      "name": "lstm_l1_t35_o", 
      "attr": {"act_type": "sigmoid"}, 
      "inputs": [[999, 3, 0]]
    }, 
    {
      "op": "Activation", 
      "name": "lstm_l1_t35_f", 
      "attr": {"act_type": "sigmoid"}, 
      "inputs": [[999, 1, 0]]
    }, 
    {
      "op": "_mul", 
      "name": "_mul750", 
      "inputs": [[1001, 0, 0], [979, 0, 0]]
    }, 
    {
      "op": "Activation", 
      "name": "lstm_l1_t35_i", 
      "attr": {"act_type": "sigmoid"}, 
      "inputs": [[999, 0, 0]]
    }, 
    {
      "op": "Activation", 
      "name": "lstm_l1_t35_c", 
      "attr": {"act_type": "tanh"}, 
      "inputs": [[999, 2, 0]]
    }, 
    {
      "op": "_mul", 
      "name": "_mul751", 
      "inputs": [[1003, 0, 0], [1004, 0, 0]]
    }, 
    {
      "op": "elemwise_add", 
      "name": "lstm_l1_t35_state", 
      "inputs": [[1002, 0, 0], [1005, 0, 0]]
    }, 
    {
      "op": "Activation", 
      "name": "activation375", 
      "attr": {"act_type": "tanh"}, 
      "inputs": [[1006, 0, 0]]
    }, 
    {
      "op": "_mul", 
      "name": "lstm_l1_t35_out", 
      "inputs": [[1000, 0, 0], [1007, 0, 0]]
    }, 
    {
      "op": "expand_dims", 
      "name": "expand_dims175", 
      "attr": {"axis": "1"}, 
      "inputs": [[1008, 0, 0]]
    }, 
    {
      "op": "FullyConnected", 
      "name": "lstm_l0_t36_i2h", 
      "attr": {"num_hidden": "1024"}, 
      "inputs": [[25, 36, 0], [26, 0, 0], [27, 0, 0]]
    }, 
    {
      "op": "FullyConnected", 
      "name": "lstm_l0_t36_h2h", 
      "attr": {"num_hidden": "1024"}, 
      "inputs": [[995, 0, 0], [30, 0, 0], [31, 0, 0]]
    }, 
    {
      "op": "elemwise_add", 
      "name": "_plus316", 
      "inputs": [[1010, 0, 0], [1011, 0, 0]]
    }, 
    {
      "op": "SliceChannel", 
      "name": "lstm_l0_t36_slice", 
      "attr": {"num_outputs": "4"}, 
      "inputs": [[1012, 0, 0]]
    }, 
    {
      "op": "Activation", 
      "name": "lstm_l0_t36_o", 
      "attr": {"act_type": "sigmoid"}, 
      "inputs": [[1013, 3, 0]]
    }, 
    {
      "op": "Activation", 
      "name": "lstm_l0_t36_f", 
      "attr": {"act_type": "sigmoid"}, 
      "inputs": [[1013, 1, 0]]
    }, 
    {
      "op": "_mul", 
      "name": "_mul632", 
      "inputs": [[1015, 0, 0], [993, 0, 0]]
    }, 
    {
      "op": "Activation", 
      "name": "lstm_l0_t36_i", 
      "attr": {"act_type": "sigmoid"}, 
      "inputs": [[1013, 0, 0]]
    }, 
    {
      "op": "Activation", 
      "name": "lstm_l0_t36_c", 
      "attr": {"act_type": "tanh"}, 
      "inputs": [[1013, 2, 0]]
    }, 
    {
      "op": "_mul", 
      "name": "_mul633", 
      "inputs": [[1017, 0, 0], [1018, 0, 0]]
    }, 
    {
      "op": "elemwise_add", 
      "name": "lstm_l0_t36_state", 
      "inputs": [[1016, 0, 0], [1019, 0, 0]]
    }, 
    {
      "op": "Activation", 
      "name": "activation316", 
      "attr": {"act_type": "tanh"}, 
      "inputs": [[1020, 0, 0]]
    }, 
    {
      "op": "_mul", 
      "name": "lstm_l0_t36_out", 
      "inputs": [[1014, 0, 0], [1021, 0, 0]]
    }, 
    {
      "op": "FullyConnected", 
      "name": "lstm_l1_t36_i2h", 
      "attr": {"num_hidden": "1024"}, 
      "inputs": [[1022, 0, 0], [45, 0, 0], [46, 0, 0]]
    }, 
    {
      "op": "FullyConnected", 
      "name": "lstm_l1_t36_h2h", 
      "attr": {"num_hidden": "1024"}, 
      "inputs": [[1008, 0, 0], [49, 0, 0], [50, 0, 0]]
    }, 
    {
      "op": "elemwise_add", 
      "name": "_plus376", 
      "inputs": [[1023, 0, 0], [1024, 0, 0]]
    }, 
    {
      "op": "SliceChannel", 
      "name": "lstm_l1_t36_slice", 
      "attr": {"num_outputs": "4"}, 
      "inputs": [[1025, 0, 0]]
    }, 
    {
      "op": "Activation", 
      "name": "lstm_l1_t36_o", 
      "attr": {"act_type": "sigmoid"}, 
      "inputs": [[1026, 3, 0]]
    }, 
    {
      "op": "Activation", 
      "name": "lstm_l1_t36_f", 
      "attr": {"act_type": "sigmoid"}, 
      "inputs": [[1026, 1, 0]]
    }, 
    {
      "op": "_mul", 
      "name": "_mul752", 
      "inputs": [[1028, 0, 0], [1006, 0, 0]]
    }, 
    {
      "op": "Activation", 
      "name": "lstm_l1_t36_i", 
      "attr": {"act_type": "sigmoid"}, 
      "inputs": [[1026, 0, 0]]
    }, 
    {
      "op": "Activation", 
      "name": "lstm_l1_t36_c", 
      "attr": {"act_type": "tanh"}, 
      "inputs": [[1026, 2, 0]]
    }, 
    {
      "op": "_mul", 
      "name": "_mul753", 
      "inputs": [[1030, 0, 0], [1031, 0, 0]]
    }, 
    {
      "op": "elemwise_add", 
      "name": "lstm_l1_t36_state", 
      "inputs": [[1029, 0, 0], [1032, 0, 0]]
    }, 
    {
      "op": "Activation", 
      "name": "activation376", 
      "attr": {"act_type": "tanh"}, 
      "inputs": [[1033, 0, 0]]
    }, 
    {
      "op": "_mul", 
      "name": "lstm_l1_t36_out", 
      "inputs": [[1027, 0, 0], [1034, 0, 0]]
    }, 
    {
      "op": "expand_dims", 
      "name": "expand_dims176", 
      "attr": {"axis": "1"}, 
      "inputs": [[1035, 0, 0]]
    }, 
    {
      "op": "FullyConnected", 
      "name": "lstm_l0_t37_i2h", 
      "attr": {"num_hidden": "1024"}, 
      "inputs": [[25, 37, 0], [26, 0, 0], [27, 0, 0]]
    }, 
    {
      "op": "FullyConnected", 
      "name": "lstm_l0_t37_h2h", 
      "attr": {"num_hidden": "1024"}, 
      "inputs": [[1022, 0, 0], [30, 0, 0], [31, 0, 0]]
    }, 
    {
      "op": "elemwise_add", 
      "name": "_plus317", 
      "inputs": [[1037, 0, 0], [1038, 0, 0]]
    }, 
    {
      "op": "SliceChannel", 
      "name": "lstm_l0_t37_slice", 
      "attr": {"num_outputs": "4"}, 
      "inputs": [[1039, 0, 0]]
    }, 
    {
      "op": "Activation", 
      "name": "lstm_l0_t37_o", 
      "attr": {"act_type": "sigmoid"}, 
      "inputs": [[1040, 3, 0]]
    }, 
    {
      "op": "Activation", 
      "name": "lstm_l0_t37_f", 
      "attr": {"act_type": "sigmoid"}, 
      "inputs": [[1040, 1, 0]]
    }, 
    {
      "op": "_mul", 
      "name": "_mul634", 
      "inputs": [[1042, 0, 0], [1020, 0, 0]]
    }, 
    {
      "op": "Activation", 
      "name": "lstm_l0_t37_i", 
      "attr": {"act_type": "sigmoid"}, 
      "inputs": [[1040, 0, 0]]
    }, 
    {
      "op": "Activation", 
      "name": "lstm_l0_t37_c", 
      "attr": {"act_type": "tanh"}, 
      "inputs": [[1040, 2, 0]]
    }, 
    {
      "op": "_mul", 
      "name": "_mul635", 
      "inputs": [[1044, 0, 0], [1045, 0, 0]]
    }, 
    {
      "op": "elemwise_add", 
      "name": "lstm_l0_t37_state", 
      "inputs": [[1043, 0, 0], [1046, 0, 0]]
    }, 
    {
      "op": "Activation", 
      "name": "activation317", 
      "attr": {"act_type": "tanh"}, 
      "inputs": [[1047, 0, 0]]
    }, 
    {
      "op": "_mul", 
      "name": "lstm_l0_t37_out", 
      "inputs": [[1041, 0, 0], [1048, 0, 0]]
    }, 
    {
      "op": "FullyConnected", 
      "name": "lstm_l1_t37_i2h", 
      "attr": {"num_hidden": "1024"}, 
      "inputs": [[1049, 0, 0], [45, 0, 0], [46, 0, 0]]
    }, 
    {
      "op": "FullyConnected", 
      "name": "lstm_l1_t37_h2h", 
      "attr": {"num_hidden": "1024"}, 
      "inputs": [[1035, 0, 0], [49, 0, 0], [50, 0, 0]]
    }, 
    {
      "op": "elemwise_add", 
      "name": "_plus377", 
      "inputs": [[1050, 0, 0], [1051, 0, 0]]
    }, 
    {
      "op": "SliceChannel", 
      "name": "lstm_l1_t37_slice", 
      "attr": {"num_outputs": "4"}, 
      "inputs": [[1052, 0, 0]]
    }, 
    {
      "op": "Activation", 
      "name": "lstm_l1_t37_o", 
      "attr": {"act_type": "sigmoid"}, 
      "inputs": [[1053, 3, 0]]
    }, 
    {
      "op": "Activation", 
      "name": "lstm_l1_t37_f", 
      "attr": {"act_type": "sigmoid"}, 
      "inputs": [[1053, 1, 0]]
    }, 
    {
      "op": "_mul", 
      "name": "_mul754", 
      "inputs": [[1055, 0, 0], [1033, 0, 0]]
    }, 
    {
      "op": "Activation", 
      "name": "lstm_l1_t37_i", 
      "attr": {"act_type": "sigmoid"}, 
      "inputs": [[1053, 0, 0]]
    }, 
    {
      "op": "Activation", 
      "name": "lstm_l1_t37_c", 
      "attr": {"act_type": "tanh"}, 
      "inputs": [[1053, 2, 0]]
    }, 
    {
      "op": "_mul", 
      "name": "_mul755", 
      "inputs": [[1057, 0, 0], [1058, 0, 0]]
    }, 
    {
      "op": "elemwise_add", 
      "name": "lstm_l1_t37_state", 
      "inputs": [[1056, 0, 0], [1059, 0, 0]]
    }, 
    {
      "op": "Activation", 
      "name": "activation377", 
      "attr": {"act_type": "tanh"}, 
      "inputs": [[1060, 0, 0]]
    }, 
    {
      "op": "_mul", 
      "name": "lstm_l1_t37_out", 
      "inputs": [[1054, 0, 0], [1061, 0, 0]]
    }, 
    {
      "op": "expand_dims", 
      "name": "expand_dims177", 
      "attr": {"axis": "1"}, 
      "inputs": [[1062, 0, 0]]
    }, 
    {
      "op": "FullyConnected", 
      "name": "lstm_l0_t38_i2h", 
      "attr": {"num_hidden": "1024"}, 
      "inputs": [[25, 38, 0], [26, 0, 0], [27, 0, 0]]
    }, 
    {
      "op": "FullyConnected", 
      "name": "lstm_l0_t38_h2h", 
      "attr": {"num_hidden": "1024"}, 
      "inputs": [[1049, 0, 0], [30, 0, 0], [31, 0, 0]]
    }, 
    {
      "op": "elemwise_add", 
      "name": "_plus318", 
      "inputs": [[1064, 0, 0], [1065, 0, 0]]
    }, 
    {
      "op": "SliceChannel", 
      "name": "lstm_l0_t38_slice", 
      "attr": {"num_outputs": "4"}, 
      "inputs": [[1066, 0, 0]]
    }, 
    {
      "op": "Activation", 
      "name": "lstm_l0_t38_o", 
      "attr": {"act_type": "sigmoid"}, 
      "inputs": [[1067, 3, 0]]
    }, 
    {
      "op": "Activation", 
      "name": "lstm_l0_t38_f", 
      "attr": {"act_type": "sigmoid"}, 
      "inputs": [[1067, 1, 0]]
    }, 
    {
      "op": "_mul", 
      "name": "_mul636", 
      "inputs": [[1069, 0, 0], [1047, 0, 0]]
    }, 
    {
      "op": "Activation", 
      "name": "lstm_l0_t38_i", 
      "attr": {"act_type": "sigmoid"}, 
      "inputs": [[1067, 0, 0]]
    }, 
    {
      "op": "Activation", 
      "name": "lstm_l0_t38_c", 
      "attr": {"act_type": "tanh"}, 
      "inputs": [[1067, 2, 0]]
    }, 
    {
      "op": "_mul", 
      "name": "_mul637", 
      "inputs": [[1071, 0, 0], [1072, 0, 0]]
    }, 
    {
      "op": "elemwise_add", 
      "name": "lstm_l0_t38_state", 
      "inputs": [[1070, 0, 0], [1073, 0, 0]]
    }, 
    {
      "op": "Activation", 
      "name": "activation318", 
      "attr": {"act_type": "tanh"}, 
      "inputs": [[1074, 0, 0]]
    }, 
    {
      "op": "_mul", 
      "name": "lstm_l0_t38_out", 
      "inputs": [[1068, 0, 0], [1075, 0, 0]]
    }, 
    {
      "op": "FullyConnected", 
      "name": "lstm_l1_t38_i2h", 
      "attr": {"num_hidden": "1024"}, 
      "inputs": [[1076, 0, 0], [45, 0, 0], [46, 0, 0]]
    }, 
    {
      "op": "FullyConnected", 
      "name": "lstm_l1_t38_h2h", 
      "attr": {"num_hidden": "1024"}, 
      "inputs": [[1062, 0, 0], [49, 0, 0], [50, 0, 0]]
    }, 
    {
      "op": "elemwise_add", 
      "name": "_plus378", 
      "inputs": [[1077, 0, 0], [1078, 0, 0]]
    }, 
    {
      "op": "SliceChannel", 
      "name": "lstm_l1_t38_slice", 
      "attr": {"num_outputs": "4"}, 
      "inputs": [[1079, 0, 0]]
    }, 
    {
      "op": "Activation", 
      "name": "lstm_l1_t38_o", 
      "attr": {"act_type": "sigmoid"}, 
      "inputs": [[1080, 3, 0]]
    }, 
    {
      "op": "Activation", 
      "name": "lstm_l1_t38_f", 
      "attr": {"act_type": "sigmoid"}, 
      "inputs": [[1080, 1, 0]]
    }, 
    {
      "op": "_mul", 
      "name": "_mul756", 
      "inputs": [[1082, 0, 0], [1060, 0, 0]]
    }, 
    {
      "op": "Activation", 
      "name": "lstm_l1_t38_i", 
      "attr": {"act_type": "sigmoid"}, 
      "inputs": [[1080, 0, 0]]
    }, 
    {
      "op": "Activation", 
      "name": "lstm_l1_t38_c", 
      "attr": {"act_type": "tanh"}, 
      "inputs": [[1080, 2, 0]]
    }, 
    {
      "op": "_mul", 
      "name": "_mul757", 
      "inputs": [[1084, 0, 0], [1085, 0, 0]]
    }, 
    {
      "op": "elemwise_add", 
      "name": "lstm_l1_t38_state", 
      "inputs": [[1083, 0, 0], [1086, 0, 0]]
    }, 
    {
      "op": "Activation", 
      "name": "activation378", 
      "attr": {"act_type": "tanh"}, 
      "inputs": [[1087, 0, 0]]
    }, 
    {
      "op": "_mul", 
      "name": "lstm_l1_t38_out", 
      "inputs": [[1081, 0, 0], [1088, 0, 0]]
    }, 
    {
      "op": "expand_dims", 
      "name": "expand_dims178", 
      "attr": {"axis": "1"}, 
      "inputs": [[1089, 0, 0]]
    }, 
    {
      "op": "FullyConnected", 
      "name": "lstm_l0_t39_i2h", 
      "attr": {"num_hidden": "1024"}, 
      "inputs": [[25, 39, 0], [26, 0, 0], [27, 0, 0]]
    }, 
    {
      "op": "FullyConnected", 
      "name": "lstm_l0_t39_h2h", 
      "attr": {"num_hidden": "1024"}, 
      "inputs": [[1076, 0, 0], [30, 0, 0], [31, 0, 0]]
    }, 
    {
      "op": "elemwise_add", 
      "name": "_plus319", 
      "inputs": [[1091, 0, 0], [1092, 0, 0]]
    }, 
    {
      "op": "SliceChannel", 
      "name": "lstm_l0_t39_slice", 
      "attr": {"num_outputs": "4"}, 
      "inputs": [[1093, 0, 0]]
    }, 
    {
      "op": "Activation", 
      "name": "lstm_l0_t39_o", 
      "attr": {"act_type": "sigmoid"}, 
      "inputs": [[1094, 3, 0]]
    }, 
    {
      "op": "Activation", 
      "name": "lstm_l0_t39_f", 
      "attr": {"act_type": "sigmoid"}, 
      "inputs": [[1094, 1, 0]]
    }, 
    {
      "op": "_mul", 
      "name": "_mul638", 
      "inputs": [[1096, 0, 0], [1074, 0, 0]]
    }, 
    {
      "op": "Activation", 
      "name": "lstm_l0_t39_i", 
      "attr": {"act_type": "sigmoid"}, 
      "inputs": [[1094, 0, 0]]
    }, 
    {
      "op": "Activation", 
      "name": "lstm_l0_t39_c", 
      "attr": {"act_type": "tanh"}, 
      "inputs": [[1094, 2, 0]]
    }, 
    {
      "op": "_mul", 
      "name": "_mul639", 
      "inputs": [[1098, 0, 0], [1099, 0, 0]]
    }, 
    {
      "op": "elemwise_add", 
      "name": "lstm_l0_t39_state", 
      "inputs": [[1097, 0, 0], [1100, 0, 0]]
    }, 
    {
      "op": "Activation", 
      "name": "activation319", 
      "attr": {"act_type": "tanh"}, 
      "inputs": [[1101, 0, 0]]
    }, 
    {
      "op": "_mul", 
      "name": "lstm_l0_t39_out", 
      "inputs": [[1095, 0, 0], [1102, 0, 0]]
    }, 
    {
      "op": "FullyConnected", 
      "name": "lstm_l1_t39_i2h", 
      "attr": {"num_hidden": "1024"}, 
      "inputs": [[1103, 0, 0], [45, 0, 0], [46, 0, 0]]
    }, 
    {
      "op": "FullyConnected", 
      "name": "lstm_l1_t39_h2h", 
      "attr": {"num_hidden": "1024"}, 
      "inputs": [[1089, 0, 0], [49, 0, 0], [50, 0, 0]]
    }, 
    {
      "op": "elemwise_add", 
      "name": "_plus379", 
      "inputs": [[1104, 0, 0], [1105, 0, 0]]
    }, 
    {
      "op": "SliceChannel", 
      "name": "lstm_l1_t39_slice", 
      "attr": {"num_outputs": "4"}, 
      "inputs": [[1106, 0, 0]]
    }, 
    {
      "op": "Activation", 
      "name": "lstm_l1_t39_o", 
      "attr": {"act_type": "sigmoid"}, 
      "inputs": [[1107, 3, 0]]
    }, 
    {
      "op": "Activation", 
      "name": "lstm_l1_t39_f", 
      "attr": {"act_type": "sigmoid"}, 
      "inputs": [[1107, 1, 0]]
    }, 
    {
      "op": "_mul", 
      "name": "_mul758", 
…
      "name": "lstm_l0_t53_f", 
      "attr": {"act_type": "sigmoid"}, 
      "inputs": [[1472, 1, 0]]
    }, 
    {
      "op": "_mul", 
      "name": "_mul666", 
      "inputs": [[1474, 0, 0], [1452, 0, 0]]
    }, 
    {
      "op": "Activation", 
      "name": "lstm_l0_t53_i", 
      "attr": {"act_type": "sigmoid"}, 
      "inputs": [[1472, 0, 0]]
    }, 
    {
      "op": "Activation", 
      "name": "lstm_l0_t53_c", 
      "attr": {"act_type": "tanh"}, 
      "inputs": [[1472, 2, 0]]
    }, 
    {
      "op": "_mul", 
      "name": "_mul667", 
      "inputs": [[1476, 0, 0], [1477, 0, 0]]
    }, 
    {
      "op": "elemwise_add", 
      "name": "lstm_l0_t53_state", 
      "inputs": [[1475, 0, 0], [1478, 0, 0]]
    }, 
    {
      "op": "Activation", 
      "name": "activation333", 
      "attr": {"act_type": "tanh"}, 
      "inputs": [[1479, 0, 0]]
    }, 
    {
      "op": "_mul", 
      "name": "lstm_l0_t53_out", 
      "inputs": [[1473, 0, 0], [1480, 0, 0]]
    }, 
    {
      "op": "FullyConnected", 
      "name": "lstm_l1_t53_i2h", 
      "attr": {"num_hidden": "1024"}, 
      "inputs": [[1481, 0, 0], [45, 0, 0], [46, 0, 0]]
    }, 
    {
      "op": "FullyConnected", 
      "name": "lstm_l1_t53_h2h", 
      "attr": {"num_hidden": "1024"}, 
      "inputs": [[1467, 0, 0], [49, 0, 0], [50, 0, 0]]
    }, 
    {
      "op": "elemwise_add", 
      "name": "_plus393", 
      "inputs": [[1482, 0, 0], [1483, 0, 0]]
    }, 
    {
      "op": "SliceChannel", 
      "name": "lstm_l1_t53_slice", 
      "attr": {"num_outputs": "4"}, 
      "inputs": [[1484, 0, 0]]
    }, 
    {
      "op": "Activation", 
      "name": "lstm_l1_t53_o", 
      "attr": {"act_type": "sigmoid"}, 
      "inputs": [[1485, 3, 0]]
    }, 
    {
      "op": "Activation", 
      "name": "lstm_l1_t53_f", 
      "attr": {"act_type": "sigmoid"}, 
      "inputs": [[1485, 1, 0]]
    }, 
    {
      "op": "_mul", 
      "name": "_mul786", 
      "inputs": [[1487, 0, 0], [1465, 0, 0]]
    }, 
    {
      "op": "Activation", 
      "name": "lstm_l1_t53_i", 
      "attr": {"act_type": "sigmoid"}, 
      "inputs": [[1485, 0, 0]]
    }, 
    {
      "op": "Activation", 
      "name": "lstm_l1_t53_c", 
      "attr": {"act_type": "tanh"}, 
      "inputs": [[1485, 2, 0]]
    }, 
    {
      "op": "_mul", 
      "name": "_mul787", 
      "inputs": [[1489, 0, 0], [1490, 0, 0]]
    }, 
    {
      "op": "elemwise_add", 
      "name": "lstm_l1_t53_state", 
      "inputs": [[1488, 0, 0], [1491, 0, 0]]
    }, 
    {
      "op": "Activation", 
      "name": "activation393", 
      "attr": {"act_type": "tanh"}, 
      "inputs": [[1492, 0, 0]]
    }, 
    {
      "op": "_mul", 
      "name": "lstm_l1_t53_out", 
      "inputs": [[1486, 0, 0], [1493, 0, 0]]
    }, 
    {
      "op": "expand_dims", 
      "name": "expand_dims193", 
      "attr": {"axis": "1"}, 
      "inputs": [[1494, 0, 0]]
    }, 
    {
      "op": "FullyConnected", 
      "name": "lstm_l0_t54_i2h", 
      "attr": {"num_hidden": "1024"}, 
      "inputs": [[25, 54, 0], [26, 0, 0], [27, 0, 0]]
    }, 
    {
      "op": "FullyConnected", 
      "name": "lstm_l0_t54_h2h", 
      "attr": {"num_hidden": "1024"}, 
      "inputs": [[1481, 0, 0], [30, 0, 0], [31, 0, 0]]
    }, 
    {
      "op": "elemwise_add", 
      "name": "_plus334", 
      "inputs": [[1496, 0, 0], [1497, 0, 0]]
    }, 
    {
      "op": "SliceChannel", 
      "name": "lstm_l0_t54_slice", 
      "attr": {"num_outputs": "4"}, 
      "inputs": [[1498, 0, 0]]
    }, 
    {
      "op": "Activation", 
      "name": "lstm_l0_t54_o", 
      "attr": {"act_type": "sigmoid"}, 
      "inputs": [[1499, 3, 0]]
    }, 
    {
      "op": "Activation", 
      "name": "lstm_l0_t54_f", 
      "attr": {"act_type": "sigmoid"}, 
      "inputs": [[1499, 1, 0]]
    }, 
    {
      "op": "_mul", 
      "name": "_mul668", 
      "inputs": [[1501, 0, 0], [1479, 0, 0]]
    }, 
    {
      "op": "Activation", 
      "name": "lstm_l0_t54_i", 
      "attr": {"act_type": "sigmoid"}, 
      "inputs": [[1499, 0, 0]]
    }, 
    {
      "op": "Activation", 
      "name": "lstm_l0_t54_c", 
      "attr": {"act_type": "tanh"}, 
      "inputs": [[1499, 2, 0]]
    }, 
    {
      "op": "_mul", 
      "name": "_mul669", 
      "inputs": [[1503, 0, 0], [1504, 0, 0]]
    }, 
    {
      "op": "elemwise_add", 
      "name": "lstm_l0_t54_state", 
      "inputs": [[1502, 0, 0], [1505, 0, 0]]
    }, 
    {
      "op": "Activation", 
      "name": "activation334", 
      "attr": {"act_type": "tanh"}, 
      "inputs": [[1506, 0, 0]]
    }, 
    {
      "op": "_mul", 
      "name": "lstm_l0_t54_out", 
      "inputs": [[1500, 0, 0], [1507, 0, 0]]
    }, 
    {
      "op": "FullyConnected", 
      "name": "lstm_l1_t54_i2h", 
      "attr": {"num_hidden": "1024"}, 
      "inputs": [[1508, 0, 0], [45, 0, 0], [46, 0, 0]]
    }, 
    {
      "op": "FullyConnected", 
      "name": "lstm_l1_t54_h2h", 
      "attr": {"num_hidden": "1024"}, 
      "inputs": [[1494, 0, 0], [49, 0, 0], [50, 0, 0]]
    }, 
    {
      "op": "elemwise_add", 
      "name": "_plus394", 
      "inputs": [[1509, 0, 0], [1510, 0, 0]]
    }, 
    {
      "op": "SliceChannel", 
      "name": "lstm_l1_t54_slice", 
      "attr": {"num_outputs": "4"}, 
      "inputs": [[1511, 0, 0]]
    }, 
    {
      "op": "Activation", 
      "name": "lstm_l1_t54_o", 
      "attr": {"act_type": "sigmoid"}, 
      "inputs": [[1512, 3, 0]]
    }, 
    {
      "op": "Activation", 
      "name": "lstm_l1_t54_f", 
      "attr": {"act_type": "sigmoid"}, 
      "inputs": [[1512, 1, 0]]
    }, 
    {
      "op": "_mul", 
      "name": "_mul788", 
      "inputs": [[1514, 0, 0], [1492, 0, 0]]
    }, 
    {
      "op": "Activation", 
      "name": "lstm_l1_t54_i", 
      "attr": {"act_type": "sigmoid"}, 
      "inputs": [[1512, 0, 0]]
    }, 
    {
      "op": "Activation", 
      "name": "lstm_l1_t54_c", 
      "attr": {"act_type": "tanh"}, 
      "inputs": [[1512, 2, 0]]
    }, 
    {
      "op": "_mul", 
      "name": "_mul789", 
      "inputs": [[1516, 0, 0], [1517, 0, 0]]
    }, 
    {
      "op": "elemwise_add", 
      "name": "lstm_l1_t54_state", 
      "inputs": [[1515, 0, 0], [1518, 0, 0]]
    }, 
    {
      "op": "Activation", 
      "name": "activation394", 
      "attr": {"act_type": "tanh"}, 
      "inputs": [[1519, 0, 0]]
    }, 
    {
      "op": "_mul", 
      "name": "lstm_l1_t54_out", 
      "inputs": [[1513, 0, 0], [1520, 0, 0]]
    }, 
    {
      "op": "expand_dims", 
      "name": "expand_dims194", 
      "attr": {"axis": "1"}, 
      "inputs": [[1521, 0, 0]]
    }, 
    {
      "op": "FullyConnected", 
      "name": "lstm_l0_t55_i2h", 
      "attr": {"num_hidden": "1024"}, 
      "inputs": [[25, 55, 0], [26, 0, 0], [27, 0, 0]]
    }, 
    {
      "op": "FullyConnected", 
      "name": "lstm_l0_t55_h2h", 
      "attr": {"num_hidden": "1024"}, 
      "inputs": [[1508, 0, 0], [30, 0, 0], [31, 0, 0]]
    }, 
    {
      "op": "elemwise_add", 
      "name": "_plus335", 
      "inputs": [[1523, 0, 0], [1524, 0, 0]]
    }, 
    {
      "op": "SliceChannel", 
      "name": "lstm_l0_t55_slice", 
      "attr": {"num_outputs": "4"}, 
      "inputs": [[1525, 0, 0]]
    }, 
    {
      "op": "Activation", 
      "name": "lstm_l0_t55_o", 
      "attr": {"act_type": "sigmoid"}, 
      "inputs": [[1526, 3, 0]]
    }, 
    {
      "op": "Activation", 
      "name": "lstm_l0_t55_f", 
      "attr": {"act_type": "sigmoid"}, 
      "inputs": [[1526, 1, 0]]
    }, 
    {
      "op": "_mul", 
      "name": "_mul670", 
      "inputs": [[1528, 0, 0], [1506, 0, 0]]
    }, 
    {
      "op": "Activation", 
      "name": "lstm_l0_t55_i", 
      "attr": {"act_type": "sigmoid"}, 
      "inputs": [[1526, 0, 0]]
    }, 
    {
      "op": "Activation", 
      "name": "lstm_l0_t55_c", 
      "attr": {"act_type": "tanh"}, 
      "inputs": [[1526, 2, 0]]
    }, 
    {
      "op": "_mul", 
      "name": "_mul671", 
      "inputs": [[1530, 0, 0], [1531, 0, 0]]
    }, 
    {
      "op": "elemwise_add", 
      "name": "lstm_l0_t55_state", 
      "inputs": [[1529, 0, 0], [1532, 0, 0]]
    }, 
    {
      "op": "Activation", 
      "name": "activation335", 
      "attr": {"act_type": "tanh"}, 
      "inputs": [[1533, 0, 0]]
    }, 
    {
      "op": "_mul", 
      "name": "lstm_l0_t55_out", 
      "inputs": [[1527, 0, 0], [1534, 0, 0]]
    }, 
    {
      "op": "FullyConnected", 
      "name": "lstm_l1_t55_i2h", 
      "attr": {"num_hidden": "1024"}, 
      "inputs": [[1535, 0, 0], [45, 0, 0], [46, 0, 0]]
    }, 
    {
      "op": "FullyConnected", 
      "name": "lstm_l1_t55_h2h", 
      "attr": {"num_hidden": "1024"}, 
      "inputs": [[1521, 0, 0], [49, 0, 0], [50, 0, 0]]
    }, 
    {
      "op": "elemwise_add", 
      "name": "_plus395", 
      "inputs": [[1536, 0, 0], [1537, 0, 0]]
    }, 
    {
      "op": "SliceChannel", 
      "name": "lstm_l1_t55_slice", 
      "attr": {"num_outputs": "4"}, 
      "inputs": [[1538, 0, 0]]
    }, 
    {
      "op": "Activation", 
      "name": "lstm_l1_t55_o", 
      "attr": {"act_type": "sigmoid"}, 
      "inputs": [[1539, 3, 0]]
    }, 
    {
      "op": "Activation", 
      "name": "lstm_l1_t55_f", 
      "attr": {"act_type": "sigmoid"}, 
      "inputs": [[1539, 1, 0]]
    }, 
    {
      "op": "_mul", 
      "name": "_mul790", 
      "inputs": [[1541, 0, 0], [1519, 0, 0]]
    }, 
    {
      "op": "Activation", 
      "name": "lstm_l1_t55_i", 
      "attr": {"act_type": "sigmoid"}, 
      "inputs": [[1539, 0, 0]]
    }, 
    {
      "op": "Activation", 
      "name": "lstm_l1_t55_c", 
      "attr": {"act_type": "tanh"}, 
      "inputs": [[1539, 2, 0]]
    }, 
    {
      "op": "_mul", 
      "name": "_mul791", 
      "inputs": [[1543, 0, 0], [1544, 0, 0]]
    }, 
    {
      "op": "elemwise_add", 
      "name": "lstm_l1_t55_state", 
      "inputs": [[1542, 0, 0], [1545, 0, 0]]
    }, 
    {
      "op": "Activation", 
      "name": "activation395", 
      "attr": {"act_type": "tanh"}, 
      "inputs": [[1546, 0, 0]]
    }, 
    {
      "op": "_mul", 
      "name": "lstm_l1_t55_out", 
      "inputs": [[1540, 0, 0], [1547, 0, 0]]
    }, 
    {
      "op": "expand_dims", 
      "name": "expand_dims195", 
      "attr": {"axis": "1"}, 
      "inputs": [[1548, 0, 0]]
    }, 
    {
      "op": "FullyConnected", 
      "name": "lstm_l0_t56_i2h", 
      "attr": {"num_hidden": "1024"}, 
      "inputs": [[25, 56, 0], [26, 0, 0], [27, 0, 0]]
    }, 
    {
      "op": "FullyConnected", 
      "name": "lstm_l0_t56_h2h", 
      "attr": {"num_hidden": "1024"}, 
      "inputs": [[1535, 0, 0], [30, 0, 0], [31, 0, 0]]
    }, 
    {
      "op": "elemwise_add", 
      "name": "_plus336", 
      "inputs": [[1550, 0, 0], [1551, 0, 0]]
    }, 
    {
      "op": "SliceChannel", 
      "name": "lstm_l0_t56_slice", 
      "attr": {"num_outputs": "4"}, 
      "inputs": [[1552, 0, 0]]
    }, 
    {
      "op": "Activation", 
      "name": "lstm_l0_t56_o", 
      "attr": {"act_type": "sigmoid"}, 
      "inputs": [[1553, 3, 0]]
    }, 
    {
      "op": "Activation", 
      "name": "lstm_l0_t56_f", 
      "attr": {"act_type": "sigmoid"}, 
      "inputs": [[1553, 1, 0]]
    }, 
    {
      "op": "_mul", 
      "name": "_mul672", 
      "inputs": [[1555, 0, 0], [1533, 0, 0]]
    }, 
    {
      "op": "Activation", 
      "name": "lstm_l0_t56_i", 
      "attr": {"act_type": "sigmoid"}, 
      "inputs": [[1553, 0, 0]]
    }, 
    {
      "op": "Activation", 
      "name": "lstm_l0_t56_c", 
      "attr": {"act_type": "tanh"}, 
      "inputs": [[1553, 2, 0]]
    }, 
    {
      "op": "_mul", 
      "name": "_mul673", 
      "inputs": [[1557, 0, 0], [1558, 0, 0]]
    }, 
    {
      "op": "elemwise_add", 
      "name": "lstm_l0_t56_state", 
      "inputs": [[1556, 0, 0], [1559, 0, 0]]
    }, 
    {
      "op": "Activation", 
      "name": "activation336", 
      "attr": {"act_type": "tanh"}, 
      "inputs": [[1560, 0, 0]]
    }, 
    {
      "op": "_mul", 
      "name": "lstm_l0_t56_out", 
      "inputs": [[1554, 0, 0], [1561, 0, 0]]
    }, 
    {
      "op": "FullyConnected", 
      "name": "lstm_l1_t56_i2h", 
      "attr": {"num_hidden": "1024"}, 
      "inputs": [[1562, 0, 0], [45, 0, 0], [46, 0, 0]]
    }, 
    {
      "op": "FullyConnected", 
      "name": "lstm_l1_t56_h2h", 
      "attr": {"num_hidden": "1024"}, 
      "inputs": [[1548, 0, 0], [49, 0, 0], [50, 0, 0]]
    }, 
    {
      "op": "elemwise_add", 
      "name": "_plus396", 
      "inputs": [[1563, 0, 0], [1564, 0, 0]]
    }, 
    {
      "op": "SliceChannel", 
      "name": "lstm_l1_t56_slice", 
      "attr": {"num_outputs": "4"}, 
      "inputs": [[1565, 0, 0]]
    }, 
    {
      "op": "Activation", 
      "name": "lstm_l1_t56_o", 
      "attr": {"act_type": "sigmoid"}, 
      "inputs": [[1566, 3, 0]]
    }, 
    {
      "op": "Activation", 
      "name": "lstm_l1_t56_f", 
      "attr": {"act_type": "sigmoid"}, 
      "inputs": [[1566, 1, 0]]
    }, 
    {
      "op": "_mul", 
      "name": "_mul792", 
      "inputs": [[1568, 0, 0], [1546, 0, 0]]
    }, 
    {
      "op": "Activation", 
      "name": "lstm_l1_t56_i", 
      "attr": {"act_type": "sigmoid"}, 
      "inputs": [[1566, 0, 0]]
    }, 
    {
      "op": "Activation", 
      "name": "lstm_l1_t56_c", 
      "attr": {"act_type": "tanh"}, 
      "inputs": [[1566, 2, 0]]
    }, 
    {
      "op": "_mul", 
      "name": "_mul793", 
      "inputs": [[1570, 0, 0], [1571, 0, 0]]
    }, 
    {
      "op": "elemwise_add", 
      "name": "lstm_l1_t56_state", 
      "inputs": [[1569, 0, 0], [1572, 0, 0]]
    }, 
    {
      "op": "Activation", 
      "name": "activation396", 
      "attr": {"act_type": "tanh"}, 
      "inputs": [[1573, 0, 0]]
    }, 
    {
      "op": "_mul", 
      "name": "lstm_l1_t56_out", 
      "inputs": [[1567, 0, 0], [1574, 0, 0]]
    }, 
    {
      "op": "expand_dims", 
      "name": "expand_dims196", 
      "attr": {"axis": "1"}, 
      "inputs": [[1575, 0, 0]]
    }, 
    {
      "op": "FullyConnected", 
      "name": "lstm_l0_t57_i2h", 
      "attr": {"num_hidden": "1024"}, 
      "inputs": [[25, 57, 0], [26, 0, 0], [27, 0, 0]]
    }, 
    {
      "op": "FullyConnected", 
      "name": "lstm_l0_t57_h2h", 
      "attr": {"num_hidden": "1024"}, 
      "inputs": [[1562, 0, 0], [30, 0, 0], [31, 0, 0]]
    }, 
    {
      "op": "elemwise_add", 
      "name": "_plus337", 
      "inputs": [[1577, 0, 0], [1578, 0, 0]]
    }, 
    {
      "op": "SliceChannel", 
      "name": "lstm_l0_t57_slice", 
      "attr": {"num_outputs": "4"}, 
      "inputs": [[1579, 0, 0]]
    }, 
    {
      "op": "Activation", 
      "name": "lstm_l0_t57_o", 
      "attr": {"act_type": "sigmoid"}, 
      "inputs": [[1580, 3, 0]]
    }, 
    {
      "op": "Activation", 
      "name": "lstm_l0_t57_f", 
      "attr": {"act_type": "sigmoid"}, 
      "inputs": [[1580, 1, 0]]
    }, 
    {
      "op": "_mul", 
      "name": "_mul674", 
      "inputs": [[1582, 0, 0], [1560, 0, 0]]
    }, 
    {
      "op": "Activation", 
      "name": "lstm_l0_t57_i", 
      "attr": {"act_type": "sigmoid"}, 
      "inputs": [[1580, 0, 0]]
    }, 
    {
      "op": "Activation", 
      "name": "lstm_l0_t57_c", 
      "attr": {"act_type": "tanh"}, 
      "inputs": [[1580, 2, 0]]
    }, 
    {
      "op": "_mul", 
      "name": "_mul675", 
      "inputs": [[1584, 0, 0], [1585, 0, 0]]
    }, 
    {
      "op": "elemwise_add", 
      "name": "lstm_l0_t57_state", 
      "inputs": [[1583, 0, 0], [1586, 0, 0]]
    }, 
    {
      "op": "Activation", 
      "name": "activation337", 
      "attr": {"act_type": "tanh"}, 
      "inputs": [[1587, 0, 0]]
    }, 
    {
      "op": "_mul", 
      "name": "lstm_l0_t57_out", 
      "inputs": [[1581, 0, 0], [1588, 0, 0]]
    }, 
    {
      "op": "FullyConnected", 
      "name": "lstm_l1_t57_i2h", 
      "attr": {"num_hidden": "1024"}, 
      "inputs": [[1589, 0, 0], [45, 0, 0], [46, 0, 0]]
    }, 
    {
      "op": "FullyConnected", 
      "name": "lstm_l1_t57_h2h", 
      "attr": {"num_hidden": "1024"}, 
      "inputs": [[1575, 0, 0], [49, 0, 0], [50, 0, 0]]
    }, 
    {
      "op": "elemwise_add", 
      "name": "_plus397", 
      "inputs": [[1590, 0, 0], [1591, 0, 0]]
    }, 
    {
      "op": "SliceChannel", 
      "name": "lstm_l1_t57_slice", 
      "attr": {"num_outputs": "4"}, 
      "inputs": [[1592, 0, 0]]
    }, 
    {
      "op": "Activation", 
      "name": "lstm_l1_t57_o", 
      "attr": {"act_type": "sigmoid"}, 
      "inputs": [[1593, 3, 0]]
    }, 
    {
      "op": "Activation", 
      "name": "lstm_l1_t57_f", 
      "attr": {"act_type": "sigmoid"}, 
      "inputs": [[1593, 1, 0]]
    }, 
    {
      "op": "_mul", 
      "name": "_mul794", 
      "inputs": [[1595, 0, 0], [1573, 0, 0]]
    }, 
    {
      "op": "Activation", 
      "name": "lstm_l1_t57_i", 
      "attr": {"act_type": "sigmoid"}, 
      "inputs": [[1593, 0, 0]]
    }, 
    {
      "op": "Activation", 
      "name": "lstm_l1_t57_c", 
      "attr": {"act_type": "tanh"}, 
      "inputs": [[1593, 2, 0]]
    }, 
    {
      "op": "_mul", 
      "name": "_mul795", 
      "inputs": [[1597, 0, 0], [1598, 0, 0]]
    }, 
    {
      "op": "elemwise_add", 
      "name": "lstm_l1_t57_state", 
      "inputs": [[1596, 0, 0], [1599, 0, 0]]
    }, 
    {
      "op": "Activation", 
      "name": "activation397", 
      "attr": {"act_type": "tanh"}, 
      "inputs": [[1600, 0, 0]]
    }, 
    {
      "op": "_mul", 
      "name": "lstm_l1_t57_out", 
      "inputs": [[1594, 0, 0], [1601, 0, 0]]
    }, 
    {
      "op": "expand_dims", 
      "name": "expand_dims197", 
      "attr": {"axis": "1"}, 
      "inputs": [[1602, 0, 0]]
    }, 
    {
      "op": "FullyConnected", 
      "name": "lstm_l0_t58_i2h", 
      "attr": {"num_hidden": "1024"}, 
      "inputs": [[25, 58, 0], [26, 0, 0], [27, 0, 0]]
    }, 
    {
      "op": "FullyConnected", 
      "name": "lstm_l0_t58_h2h", 
      "attr": {"num_hidden": "1024"}, 
      "inputs": [[1589, 0, 0], [30, 0, 0], [31, 0, 0]]
    }, 
    {
      "op": "elemwise_add", 
      "name": "_plus338", 
      "inputs": [[1604, 0, 0], [1605, 0, 0]]
    }, 
    {
      "op": "SliceChannel", 
      "name": "lstm_l0_t58_slice", 
      "attr": {"num_outputs": "4"}, 
      "inputs": [[1606, 0, 0]]
    }, 
    {
      "op": "Activation", 
      "name": "lstm_l0_t58_o", 
      "attr": {"act_type": "sigmoid"}, 
      "inputs": [[1607, 3, 0]]
    }, 
    {
      "op": "Activation", 
      "name": "lstm_l0_t58_f", 
      "attr": {"act_type": "sigmoid"}, 
      "inputs": [[1607, 1, 0]]
    }, 
    {
      "op": "_mul", 
      "name": "_mul676", 
      "inputs": [[1609, 0, 0], [1587, 0, 0]]
    }, 
    {
      "op": "Activation", 
      "name": "lstm_l0_t58_i", 
      "attr": {"act_type": "sigmoid"}, 
      "inputs": [[1607, 0, 0]]
    }, 
    {
      "op": "Activation", 
      "name": "lstm_l0_t58_c", 
      "attr": {"act_type": "tanh"}, 
      "inputs": [[1607, 2, 0]]
    }, 
    {
      "op": "_mul", 
      "name": "_mul677", 
      "inputs": [[1611, 0, 0], [1612, 0, 0]]
    }, 
    {
      "op": "elemwise_add", 
      "name": "lstm_l0_t58_state", 
      "inputs": [[1610, 0, 0], [1613, 0, 0]]
    }, 
    {
      "op": "Activation", 
      "name": "activation338", 
      "attr": {"act_type": "tanh"}, 
      "inputs": [[1614, 0, 0]]
    }, 
    {
      "op": "_mul", 
      "name": "lstm_l0_t58_out", 
      "inputs": [[1608, 0, 0], [1615, 0, 0]]
    }, 
    {
      "op": "FullyConnected", 
      "name": "lstm_l1_t58_i2h", 
      "attr": {"num_hidden": "1024"}, 
      "inputs": [[1616, 0, 0], [45, 0, 0], [46, 0, 0]]
    }, 
    {
      "op": "FullyConnected", 
      "name": "lstm_l1_t58_h2h", 
      "attr": {"num_hidden": "1024"}, 
      "inputs": [[1602, 0, 0], [49, 0, 0], [50, 0, 0]]
    }, 
    {
      "op": "elemwise_add", 
      "name": "_plus398", 
      "inputs": [[1617, 0, 0], [1618, 0, 0]]
    }, 
    {
      "op": "SliceChannel", 
      "name": "lstm_l1_t58_slice", 
      "attr": {"num_outputs": "4"}, 
      "inputs": [[1619, 0, 0]]
    }, 
    {
      "op": "Activation", 
      "name": "lstm_l1_t58_o", 
      "attr": {"act_type": "sigmoid"}, 
      "inputs": [[1620, 3, 0]]
    }, 
    {
      "op": "Activation", 
      "name": "lstm_l1_t58_f", 
      "attr": {"act_type": "sigmoid"}, 
      "inputs": [[1620, 1, 0]]
    }, 
    {
      "op": "_mul", 
      "name": "_mul796", 
      "inputs": [[1622, 0, 0], [1600, 0, 0]]
    }, 
    {
      "op": "Activation", 
      "name": "lstm_l1_t58_i", 
      "attr": {"act_type": "sigmoid"}, 
      "inputs": [[1620, 0, 0]]
    }, 
    {
      "op": "Activation", 
      "name": "lstm_l1_t58_c", 
      "attr": {"act_type": "tanh"}, 
      "inputs": [[1620, 2, 0]]
    }, 
    {
      "op": "_mul", 
      "name": "_mul797", 
      "inputs": [[1624, 0, 0], [1625, 0, 0]]
    }, 
    {
      "op": "elemwise_add", 
      "name": "lstm_l1_t58_state", 
      "inputs": [[1623, 0, 0], [1626, 0, 0]]
    }, 
    {
      "op": "Activation", 
      "name": "activation398", 
      "attr": {"act_type": "tanh"}, 
      "inputs": [[1627, 0, 0]]
    }, 
    {
      "op": "_mul", 
      "name": "lstm_l1_t58_out", 
      "inputs": [[1621, 0, 0], [1628, 0, 0]]
    }, 
    {
      "op": "expand_dims", 
      "name": "expand_dims198", 
      "attr": {"axis": "1"}, 
      "inputs": [[1629, 0, 0]]
    }, 
    {
      "op": "FullyConnected", 
      "name": "lstm_l0_t59_i2h", 
      "attr": {"num_hidden": "1024"}, 
      "inputs": [[25, 59, 0], [26, 0, 0], [27, 0, 0]]
    }, 
    {
      "op": "FullyConnected", 
      "name": "lstm_l0_t59_h2h", 
      "attr": {"num_hidden": "1024"}, 
      "inputs": [[1616, 0, 0], [30, 0, 0], [31, 0, 0]]
    }, 
    {
      "op": "elemwise_add", 
      "name": "_plus339", 
      "inputs": [[1631, 0, 0], [1632, 0, 0]]
    }, 
    {
      "op": "SliceChannel", 
      "name": "lstm_l0_t59_slice", 
      "attr": {"num_outputs": "4"}, 
      "inputs": [[1633, 0, 0]]
    }, 
    {
      "op": "Activation", 
      "name": "lstm_l0_t59_o", 
      "attr": {"act_type": "sigmoid"}, 
      "inputs": [[1634, 3, 0]]
    }, 
    {
      "op": "Activation", 
      "name": "lstm_l0_t59_f", 
      "attr": {"act_type": "sigmoid"}, 
      "inputs": [[1634, 1, 0]]
    }, 
    {
      "op": "_mul", 
      "name": "_mul678", 
      "inputs": [[1636, 0, 0], [1614, 0, 0]]
    }, 
    {
      "op": "Activation", 
      "name": "lstm_l0_t59_i", 
      "attr": {"act_type": "sigmoid"}, 
      "inputs": [[1634, 0, 0]]
    }, 
    {
      "op": "Activation", 
      "name": "lstm_l0_t59_c", 
      "attr": {"act_type": "tanh"}, 
      "inputs": [[1634, 2, 0]]
    }, 
    {
      "op": "_mul", 
      "name": "_mul679", 
      "inputs": [[1638, 0, 0], [1639, 0, 0]]
    }, 
    {
      "op": "elemwise_add", 
      "name": "lstm_l0_t59_state", 
      "inputs": [[1637, 0, 0], [1640, 0, 0]]
    }, 
    {
      "op": "Activation", 
      "name": "activation339", 
      "attr": {"act_type": "tanh"}, 
      "inputs": [[1641, 0, 0]]
    }, 
    {
      "op": "_mul", 
      "name": "lstm_l0_t59_out", 
      "inputs": [[1635, 0, 0], [1642, 0, 0]]
    }, 
    {
      "op": "FullyConnected", 
      "name": "lstm_l1_t59_i2h", 
      "attr": {"num_hidden": "1024"}, 
      "inputs": [[1643, 0, 0], [45, 0, 0], [46, 0, 0]]
    }, 
    {
      "op": "FullyConnected", 
      "name": "lstm_l1_t59_h2h", 
      "attr": {"num_hidden": "1024"}, 
      "inputs": [[1629, 0, 0], [49, 0, 0], [50, 0, 0]]
    }, 
    {
      "op": "elemwise_add", 
      "name": "_plus399", 
      "inputs": [[1644, 0, 0], [1645, 0, 0]]
    }, 
    {
      "op": "SliceChannel", 
      "name": "lstm_l1_t59_slice", 
      "attr": {"num_outputs": "4"}, 
      "inputs": [[1646, 0, 0]]
    }, 
    {
      "op": "Activation", 
      "name": "lstm_l1_t59_o", 
      "attr": {"act_type": "sigmoid"}, 
      "inputs": [[1647, 3, 0]]
    }, 
    {
      "op": "Activation", 
      "name": "lstm_l1_t59_f", 
      "attr": {"act_type": "sigmoid"}, 
      "inputs": [[1647, 1, 0]]
    }, 
    {
      "op": "_mul", 
      "name": "_mul798", 
      "inputs": [[1649, 0, 0], [1627, 0, 0]]
    }, 
    {
      "op": "Activation", 
      "name": "lstm_l1_t59_i", 
      "attr": {"act_type": "sigmoid"}, 
      "inputs": [[1647, 0, 0]]
    }, 
    {
      "op": "Activation", 
      "name": "lstm_l1_t59_c", 
      "attr": {"act_type": "tanh"}, 
      "inputs": [[1647, 2, 0]]
    }, 
    {
      "op": "_mul", 
      "name": "_mul799", 
      "inputs": [[1651, 0, 0], [1652, 0, 0]]
    }, 
    {
      "op": "elemwise_add", 
      "name": "lstm_l1_t59_state", 
      "inputs": [[1650, 0, 0], [1653, 0, 0]]
    }, 
    {
      "op": "Activation", 
      "name": "activation399", 
      "attr": {"act_type": "tanh"}, 
      "inputs": [[1654, 0, 0]]
    }, 
    {
      "op": "_mul", 
      "name": "lstm_l1_t59_out", 
      "inputs": [[1648, 0, 0], [1655, 0, 0]]
    }, 
    {
      "op": "expand_dims", 
      "name": "expand_dims199", 
      "attr": {"axis": "1"}, 
      "inputs": [[1656, 0, 0]]
    }, 
    {
      "op": "Concat", 
      "name": "concat2", 
      "attr": {
        "dim": "1", 
        "num_args": "60"
      }, 
      "inputs": [
        [64, 0, 0], 
        [91, 0, 0], 
        [118, 0, 0], 
        [145, 0, 0], 
        [172, 0, 0], 
        [199, 0, 0], 
        [226, 0, 0], 
        [253, 0, 0], 
        [280, 0, 0], 
        [307, 0, 0], 
        [334, 0, 0], 
        [361, 0, 0], 
        [388, 0, 0], 
        [415, 0, 0], 
        [442, 0, 0], 
        [469, 0, 0], 
        [496, 0, 0], 
        [523, 0, 0], 
        [550, 0, 0], 
        [577, 0, 0], 
        [604, 0, 0], 
        [631, 0, 0], 
        [658, 0, 0], 
        [685, 0, 0], 
        [712, 0, 0], 
        [739, 0, 0], 
        [766, 0, 0], 
        [793, 0, 0], 
        [820, 0, 0], 
        [847, 0, 0], 
        [874, 0, 0], 
        [901, 0, 0], 
        [928, 0, 0], 
        [955, 0, 0], 
        [982, 0, 0], 
        [1009, 0, 0], 
        [1036, 0, 0], 
        [1063, 0, 0], 
        [1090, 0, 0], 
        [1117, 0, 0], 
        [1144, 0, 0], 
        [1171, 0, 0], 
        [1198, 0, 0], 
        [1225, 0, 0], 
        [1252, 0, 0], 
        [1279, 0, 0], 
        [1306, 0, 0], 
        [1333, 0, 0], 
        [1360, 0, 0], 
        [1387, 0, 0], 
        [1414, 0, 0], 
        [1441, 0, 0], 
        [1468, 0, 0], 
        [1495, 0, 0], 
        [1522, 0, 0], 
        [1549, 0, 0], 
        [1576, 0, 0], 
        [1603, 0, 0], 
        [1630, 0, 0], 
        [1657, 0, 0]
      ]
    }, 
    {
      "op": "Reshape", 
      "name": "reshape26", 
      "attr": {"shape": "(-1, 256)"}, 
      "inputs": [[1658, 0, 0]]
    }, 
    {
      "op": "null", 
      "name": "f_end_fc1_weight", 
      "attr": {"num_hidden": "2"}, 
      "inputs": []
    }, 
    {
      "op": "null", 
      "name": "f_end_fc1_bias", 
      "attr": {"num_hidden": "2"}, 
      "inputs": []
    }, 
    {
      "op": "FullyConnected", 
      "name": "f_end_fc1", 
      "attr": {"num_hidden": "2"}, 
      "inputs": [[1659, 0, 0], [1660, 0, 0], [1661, 0, 0]]
    }, 
    {
      "op": "null", 
      "name": "next_end", 
      "inputs": []
    }, 
    {
      "op": "Reshape", 
      "name": "reshape27", 
      "attr": {"shape": "(-1,)"}, 
      "inputs": [[1663, 0, 0]]
    }, 
    {
      "op": "SoftmaxOutput", 
      "name": "f_end", 
      "inputs": [[1662, 0, 0], [1664, 0, 0]]
    }, 
    {
      "op": "null", 
      "name": "f_prog_fc1_weight", 
      "attr": {"num_hidden": "8"}, 
      "inputs": []
    }, 
    {
      "op": "null", 
      "name": "f_prog_fc1_bias", 
      "attr": {"num_hidden": "8"}, 
      "inputs": []
    }, 
    {
      "op": "FullyConnected", 
      "name": "f_prog_fc1", 
      "attr": {"num_hidden": "8"}, 
      "inputs": [[1659, 0, 0], [1666, 0, 0], [1667, 0, 0]]
    }, 
    {
      "op": "_arange", 
      "name": "prog_memory", 
      "attr": {
        "dtype": "float32", 
        "repeat": "1", 
        "start": "0", 
        "step": "1.0", 
        "stop": "10"
      }, 
      "inputs": []
    }, 
    {
      "op": "null", 
      "name": "key_memory_weight", 
      "attr": {"num_hidden": "8"}, 
      "inputs": []
    }, 
    {
      "op": "null", 
      "name": "key_memory_bias", 
      "attr": {"num_hidden": "8"}, 
      "inputs": []
    }, 
    {
      "op": "FullyConnected", 
      "name": "key_memory", 
      "attr": {"num_hidden": "8"}, 
      "inputs": [[1669, 0, 0], [1670, 0, 0], [1671, 0, 0]]
    }, 
    {
      "op": "dot", 
      "name": "f_prog_dot", 
      "attr": {"transpose_b": "True"}, 
      "inputs": [[1668, 0, 0], [1672, 0, 0]]
    }, 
    {
      "op": "null", 
      "name": "next_prog", 
      "inputs": []
    }, 
    {
      "op": "Reshape", 
      "name": "reshape28", 
      "attr": {"shape": "(-1,)"}, 
      "inputs": [[1674, 0, 0]]
    }, 
    {
      "op": "SoftmaxOutput", 
      "name": "f_prog", 
      "inputs": [[1673, 0, 0], [1675, 0, 0]]
    }, 
    {
      "op": "null", 
      "name": "f_arg0_fc1_weight", 
      "attr": {"num_hidden": "10"}, 
      "inputs": []
    }, 
    {
      "op": "null", 
      "name": "f_arg0_fc1_bias", 
      "attr": {"num_hidden": "10"}, 
      "inputs": []
    }, 
    {
      "op": "FullyConnected", 
      "name": "f_arg0_fc1", 
      "attr": {"num_hidden": "10"}, 
      "inputs": [[1659, 0, 0], [1677, 0, 0], [1678, 0, 0]]
    }, 
    {
      "op": "null", 
      "name": "next_args", 
      "inputs": []
    }, 
    {
      "op": "Reshape", 
      "name": "next_args_reshaped", 
      "attr": {"shape": "(-1, 3, 10)"}, 
      "inputs": [[1680, 0, 0]]
    }, 
    {
      "op": "argmax", 
      "name": "next_args_numeric", 
      "attr": {"axis": "2"}, 
      "inputs": [[1681, 0, 0]]
    }, 
    {
      "op": "SliceChannel", 
      "name": "slicechannel2", 
      "attr": {
        "axis": "1", 
        "num_outputs": "3"
      }, 
      "inputs": [[1682, 0, 0]]
    }, 
    {
      "op": "Reshape", 
      "name": "reshape29", 
      "attr": {"shape": "(-1,)"}, 
      "inputs": [[1683, 0, 0]]
    }, 
    {
      "op": "SoftmaxOutput", 
      "name": "f_arg0_softmax", 
      "inputs": [[1679, 0, 0], [1684, 0, 0]]
    }, 
    {
      "op": "null", 
      "name": "f_arg1_fc1_weight", 
      "attr": {"num_hidden": "10"}, 
      "inputs": []
    }, 
    {
      "op": "null", 
      "name": "f_arg1_fc1_bias", 
      "attr": {"num_hidden": "10"}, 
      "inputs": []
    }, 
    {
      "op": "FullyConnected", 
      "name": "f_arg1_fc1", 
      "attr": {"num_hidden": "10"}, 
      "inputs": [[1659, 0, 0], [1686, 0, 0], [1687, 0, 0]]
    }, 
    {
      "op": "Reshape", 
      "name": "reshape31", 
      "attr": {"shape": "(-1,)"}, 
      "inputs": [[1683, 2, 0]]
    }, 
    {
      "op": "SoftmaxOutput", 
      "name": "f_arg1_softmax", 
      "inputs": [[1688, 0, 0], [1689, 0, 0]]
    }, 
    {
      "op": "null", 
      "name": "f_arg2_fc1_weight", 
      "attr": {"num_hidden": "10"}, 
      "inputs": []
    }, 
    {
      "op": "null", 
      "name": "f_arg2_fc1_bias", 
      "attr": {"num_hidden": "10"}, 
      "inputs": []
    }, 
    {
      "op": "FullyConnected", 
      "name": "f_arg2_fc1", 
      "attr": {"num_hidden": "10"}, 
      "inputs": [[1659, 0, 0], [1691, 0, 0], [1692, 0, 0]]
    }, 
    {
      "op": "SoftmaxOutput", 
      "name": "f_arg2_softmax", 
      "inputs": [[1693, 0, 0], [1689, 0, 0]]
    }, 
    {
      "op": "Concat", 
      "name": "f_args_concat", 
      "attr": {
        "dim": "1", 
        "num_args": "3"
      }, 
      "inputs": [[1685, 0, 0], [1690, 0, 0], [1694, 0, 0]]
    }, 
    {
      "op": "Reshape", 
      "name": "reshape32", 
      "attr": {"shape": "(100, 60, 3, 10)"}, 
      "inputs": [[1695, 0, 0]]
    }
  ], 
  "arg_nodes": [
    0, 
    2, 
    5, 
    6, 
    9, 
    10, 
    12, 
    13, 
    17, 
    18, 
    21, 
    22, 
    26, 
    27, 
    30, 
    31, 
    45, 
    46, 
    49, 
    50, 
    1660, 
    1661, 
    1663, 
    1666, 
    1667, 
    1670, 
    1671, 
    1674, 
    1677, 
    1678, 
    1680, 
    1686, 
    1687, 
    1691, 
    1692
  ], 
  "node_row_ptr": [
    0, 
    1, 
    2, 
    3, 
    4, 
    5, 
    6, 
    7, 
    8, 
    9, 
    10, 
    11, 
    12, 
    13, 
    14, 
    15, 
    16, 
    17, 
    18, 
    19, 
    20, 
    21, 
    22, 
    23, 
    24, 
    25, 
    85, 
    86, 
    87, 
    88, 
    89, 
    90, 
    91, 
    92, 
    93, 
    97, 
    98, 
    99, 
    100, 
    101, 
    102, 
    103, 
    104, 
    105, 
    106, 
    107, 
    108, 
    109, 
    110, 
    111, 
    112, 
    113, 
    114, 
    115, 
    119, 
    120, 
    121, 
    122, 
    123, 
    124, 
    125, 
    126, 
    127, 
    128, 
    129, 
    130, 
    131, 
    132, 
    133, 
    137, 
    138, 
    139, 
    140, 
    141, 
    142, 
    143, 
    144, 
    145, 
    146, 
    147, 
    148, 
    149, 
    153, 
    154, 
    155, 
    156, 
    157, 
    158, 
    159, 
    160, 
    161, 
    162, 
    163, 
    164, 
    165, 
    166, 
    170, 
    171, 
    172, 
    173, 
    174, 
    175, 
    176, 
    177, 
    178, 
    179, 
    180, 
    181, 
    182, 
    186, 
    187, 
    188, 
    189, 
    190, 
    191, 
    192, 
    193, 
    194, 
    195, 
    196, 
    197, 
    198, 
    199, 
    203, 
    204, 
    205, 
    206, 
    207, 
    208, 
    209, 
    210, 
    211, 
    212, 
    213, 
    214, 
    215, 
    219, 
    220, 
    221, 
    222, 
    223, 
    224, 
    225, 
    226, 
    227, 
    228, 
    229, 
    230, 
    231, 
    232, 
    236, 
    237, 
    238, 
    239, 
    240, 
    241, 
    242, 
    243, 
    244, 
    245, 
    246, 
    247, 
    248, 
    252, 
    253, 
    254, 
    255, 
    256, 
    257, 
    258, 
    259, 
    260, 
    261, 
    262, 
    263, 
    264, 
    265, 
    269, 
    270, 
    271, 
    272, 
    273, 
    274, 
    275, 
    276, 
    277, 
    278, 
    279, 
    280, 
    281, 
    285, 
    286, 
    287, 
    288, 
    289, 
    290, 
    291, 
    292, 
    293, 
    294, 
    295, 
    296, 
    297, 
    298, 
    302, 
    303, 
    304, 
    305, 
    306, 
    307, 
    308, 
    309, 
    310, 
    311, 
    312, 
    313, 
    314, 
    318, 
    319, 
    320, 
    321, 
    322, 
    323, 
    324, 
    325, 
    326, 
    327, 
    328, 
    329, 
    330, 
    331, 
    335, 
    336, 
    337, 
    338, 
    339, 
    340, 
    341, 
    342, 
    343, 
    344, 
    345, 
    346, 
    347, 
    351, 
    352, 
    353, 
    354, 
    355, 
    356, 
    357, 
    358, 
    359, 
    360, 
    361, 
    362, 
    363, 
    364, 
    368, 
    369, 
    370, 
    371, 
    372, 
    373, 
    374, 
    375, 
    376, 
    377, 
    378, 
    379, 
    380, 
    384, 
    385, 
    386, 
    387, 
    388, 
    389, 
    390, 
    391, 
    392, 
    393, 
    394, 
    395, 
    396, 
    397, 
    401, 
    402, 
    403, 
    404, 
    405, 
    406, 
    407, 
    408, 
    409, 
    410, 
    411, 
    412, 
    413, 
    417, 
    418, 
    419, 
    420, 
    421, 
    422, 
    423, 
    424, 
    425, 
    426, 
    427, 
    428, 
    429, 
    430, 
    434, 
    435, 
    436, 
    437, 
    438, 
    439, 
    440, 
    441, 
    442, 
    443, 
    444, 
    445, 
    446, 
    450, 
    451, 
    452, 
    453, 
    454, 
    455, 
    456, 
    457, 
    458, 
    459, 
    460, 
    461, 
    462, 
    463, 
    467, 
    468, 
    469, 
    470, 
    471, 
    472, 
    473, 
    474, 
    475, 
    476, 
    477, 
    478, 
    479, 
    483, 
    484, 
    485, 
    486, 
    487, 
    488, 
    489, 
    490, 
    491, 
    492, 
    493, 
    494, 
    495, 
    496, 
    500, 
    501, 
    502, 
    503, 
    504, 
    505, 
    506, 
    507, 
    508, 
    509, 
    510, 
    511, 
    512, 
    516, 
    517, 
    518, 
    519, 
    520, 
    521, 
    522, 
    523, 
    524, 
    525, 
    526, 
    527, 
    528, 
    529, 
    533, 
    534, 
    535, 
    536, 
    537, 
    538, 
    539, 
    540, 
    541, 
    542, 
    543, 
    544, 
    545, 
    549, 
    550, 
    551, 
    552, 
    553, 
    554, 
    555, 
    556, 
    557, 
    558, 
    559, 
    560, 
    561, 
    562, 
    566, 
    567, 
    568, 
    569, 
    570, 
    571, 
    572, 
    573, 
    574, 
    575, 
    576, 
    577, 
    578, 
    582, 
    583, 
    584, 
    585, 
    586, 
    587, 
    588, 
    589, 
    590, 
    591, 
    592, 
    593, 
    594, 
    595, 
    599, 
    600, 
    601, 
    602, 
    603, 
    604, 
    605, 
    606, 
    607, 
    608, 
    609, 
    610, 
    611, 
    615, 
    616, 
    617, 
    618, 
    619, 
    620, 
    621, 
    622, 
    623, 
    624, 
    625, 
    626, 
    627, 
    628, 
    632, 
    633, 
    634, 
    635, 
    636, 
    637, 
    638, 
    639, 
    640, 
    641, 
    642, 
    643, 
    644, 
    648, 
    649, 
    650, 
    651, 
    652, 
    653, 
    654, 
    655, 
    656, 
    657, 
    658, 
    659, 
    660, 
    661, 
    665, 
    666, 
    667, 
    668, 
    669, 
    670, 
    671, 
    672, 
    673, 
    674, 
    675, 
    676, 
    677, 
    681, 
    682, 
    683, 
    684, 
    685, 
    686, 
    687, 
    688, 
    689, 
    690, 
    691, 
    692, 
    693, 
    694, 
    698, 
    699, 
    700, 
    701, 
    702, 
    703, 
    704, 
    705, 
    706, 
    707, 
    708, 
    709, 
    710, 
    714, 
    715, 
    716, 
    717, 
    718, 
    719, 
    720, 
    721, 
    722, 
    723, 
    724, 
    725, 
    726, 
    727, 
    731, 
    732, 
    733, 
    734, 
    735, 
    736, 
    737, 
    738, 
    739, 
    740, 
    741, 
    742, 
    743, 
    747, 
    748, 
    749, 
    750, 
    751, 
    752, 
    753, 
    754, 
    755, 
    756, 
    757, 
    758, 
    759, 
    760, 
    764, 
    765, 
    766, 
    767, 
    768, 
    769, 
    770, 
    771, 
    772, 
    773, 
    774, 
    775, 
    776, 
    780, 
    781, 
    782, 
    783, 
    784, 
    785, 
    786, 
    787, 
    788, 
    789, 
    790, 
    791, 
    792, 
    793, 
    797, 
    798, 
    799, 
    800, 
    801, 
    802, 
    803, 
    804, 
    805, 
    806, 
    807, 
    808, 
    809, 
    813, 
    814, 
    815, 
    816, 
    817, 
    818, 
    819, 
    820, 
    821, 
    822, 
    823, 
    824, 
    825, 
    826, 
    830, 
    831, 
    832, 
    833, 
    834, 
    835, 
    836, 
    837, 
    838, 
    839, 
    840, 
    841, 
    842, 
    846, 
    847, 
    848, 
    849, 
    850, 
    851, 
    852, 
    853, 
    854, 
    855, 
    856, 
    857, 
    858, 
    859, 
    863, 
    864, 
    865, 
    866, 
    867, 
    868, 
    869, 
    870, 
    871, 
    872, 
    873, 
    874, 
    875, 
    879, 
    880, 
    881, 
    882, 
    883, 
    884, 
    885, 
    886, 
    887, 
    888, 
    889, 
    890, 
    891, 
    892, 
    896, 
    897, 
    898, 
    899, 
    900, 
    901, 
    902, 
    903, 
    904, 
    905, 
    906, 
    907, 
    908, 
    912, 
    913, 
    914, 
    915, 
    916, 
    917, 
    918, 
    919, 
    920, 
    921, 
    922, 
    923, 
    924, 
    925, 
    929, 
    930, 
    931, 
    932, 
    933, 
    934, 
    935, 
    936, 
    937, 
    938, 
    939, 
    940, 
    941, 
    945, 
    946, 
    947, 
    948, 
    949, 
    950, 
    951, 
    952, 
    953, 
    954, 
    955, 
    956, 
    957, 
    958, 
    962, 
    963, 
    964, 
    965, 
    966, 
    967, 
    968, 
    969, 
    970, 
    971, 
    972, 
    973, 
    974, 
    978, 
    979, 
    980, 
    981, 
    982, 
    983, 
    984, 
    985, 
    986, 
    987, 
    988, 
    989, 
    990, 
    991, 
    995, 
    996, 
    997, 
    998, 
    999, 
    1000, 
    1001, 
    1002, 
    1003, 
    1004, 
    1005, 
    1006, 
    1007, 
    1011, 
    1012, 
    1013, 
    1014, 
    1015, 
    1016, 
    1017, 
    1018, 
    1019, 
    1020, 
    1021, 
    1022, 
    1023, 
    1024, 
    1028, 
    1029, 
    1030, 
    1031, 
    1032, 
    1033, 
    1034, 
    1035, 
    1036, 
    1037, 
    1038, 
    1039, 
    1040, 
    1044, 
    1045, 
    1046, 
    1047, 
    1048, 
    1049, 
    1050, 
    1051, 
    1052, 
    1053, 
    1054, 
    1055, 
    1056, 
    1057, 
    1061, 
    1062, 
    1063, 
    1064, 
    1065, 
    1066, 
    1067, 
    1068, 
    1069, 
    1070, 
    1071, 
    1072, 
    1073, 
    1077, 
    1078, 
    1079, 
    1080, 
    1081, 
    1082, 
    1083, 
    1084, 
    1085, 
    1086, 
    1087, 
    1088, 
    1089, 
    1090, 
    1094, 
    1095, 
    1096, 
    1097, 
    1098, 
    1099, 
    1100, 
    1101, 
    1102, 
    1103, 
    1104, 
    1105, 
    1106, 
    1110, 
    1111, 
    1112, 
    1113, 
    1114, 
    1115, 
    1116, 
    1117, 
    1118, 
    1119, 
    1120, 
    1121, 
    1122, 
    1123, 
    1127, 
    1128, 
    1129, 
    1130, 
    1131, 
    1132, 
    1133, 
    1134, 
    1135, 
    1136, 
    1137, 
    1138, 
    1139, 
    1143, 
    1144, 
    1145, 
    1146, 
    1147, 
    1148, 
    1149, 
    1150, 
    1151, 
    1152, 
    1153, 
    1154, 
    1155, 
    1156, 
    1160, 
    1161, 
    1162, 
    1163, 
    1164, 
    1165, 
    1166, 
    1167, 
    1168, 
    1169, 
    1170, 
    1171, 
    1172, 
    1176, 
    1177, 
    1178, 
    1179, 
    1180, 
    1181, 
    1182, 
    1183, 
    1184, 
    1185, 
    1186, 
    1187, 
    1188, 
    1189, 
    1193, 
    1194, 
    1195, 
    1196, 
    1197, 
    1198, 
    1199, 
    1200, 
    1201, 
    1202, 
    1203, 
    1204, 
    1205, 
    1209, 
    1210, 
    1211, 
    1212, 
    1213, 
    1214, 
    1215, 
    1216, 
    1217, 
    1218, 
    1219, 
    1220, 
    1221, 
    1222, 
    1226, 
    1227, 
    1228, 
    1229, 
    1230, 
    1231, 
    1232, 
    1233, 
    1234, 
    1235, 
    1236, 
    1237, 
    1238, 
    1242, 
    1243, 
    1244, 
    1245, 
    1246, 
    1247, 
    1248, 
    1249, 
    1250, 
    1251, 
    1252, 
    1253, 
    1254, 
    1255, 
    1259, 
    1260, 
    1261, 
    1262, 
    1263, 
    1264, 
    1265, 
    1266, 
    1267, 
    1268, 
    1269, 
    1270, 
    1271, 
    1275, 
    1276, 
    1277, 
    1278, 
    1279, 
    1280, 
    1281, 
    1282, 
    1283, 
    1284, 
    1285, 
    1286, 
    1287, 
    1288, 
    1292, 
    1293, 
    1294, 
    1295, 
    1296, 
    1297, 
    1298, 
    1299, 
    1300, 
    1301, 
    1302, 
    1303, 
    1304, 
    1308, 
    1309, 
    1310, 
    1311, 
    1312, 
    1313, 
    1314, 
    1315, 
    1316, 
    1317, 
    1318, 
    1319, 
    1320, 
    1321, 
    1325, 
    1326, 
    1327, 
    1328, 
    1329, 
    1330, 
    1331, 
    1332, 
    1333, 
    1334, 
    1335, 
    1336, 
    1337, 
    1341, 
    1342, 
    1343, 
    1344, 
    1345, 
    1346, 
    1347, 
    1348, 
    1349, 
    1350, 
    1351, 
    1352, 
    1353, 
    1354, 
    1358, 
    1359, 
    1360, 
    1361, 
    1362, 
    1363, 
    1364, 
    1365, 
    1366, 
    1367, 
    1368, 
    1369, 
    1370, 
    1374, 
    1375, 
    1376, 
    1377, 
    1378, 
    1379, 
    1380, 
    1381, 
    1382, 
    1383, 
    1384, 
    1385, 
    1386, 
    1387, 
    1391, 
    1392, 
    1393, 
    1394, 
    1395, 
    1396, 
    1397, 
    1398, 
    1399, 
    1400, 
    1401, 
    1402, 
    1403, 
    1407, 
    1408, 
    1409, 
    1410, 
    1411, 
    1412, 
    1413, 
    1414, 
    1415, 
    1416, 
    1417, 
    1418, 
    1419, 
    1420, 
    1424, 
    1425, 
    1426, 
    1427, 
    1428, 
    1429, 
    1430, 
    1431, 
    1432, 
    1433, 
    1434, 
    1435, 
    1436, 
    1440, 
    1441, 
    1442, 
    1443, 
    1444, 
    1445, 
    1446, 
    1447, 
    1448, 
    1449, 
    1450, 
    1451, 
    1452, 
    1453, 
    1457, 
    1458, 
    1459, 
    1460, 
    1461, 
    1462, 
    1463, 
    1464, 
    1465, 
    1466, 
    1467, 
    1468, 
    1469, 
    1473, 
    1474, 
    1475, 
    1476, 
    1477, 
    1478, 
    1479, 
    1480, 
    1481, 
    1482, 
    1483, 
    1484, 
    1485, 
    1486, 
    1490, 
    1491, 
    1492, 
    1493, 
    1494, 
    1495, 
    1496, 
    1497, 
    1498, 
    1499, 
    1500, 
    1501, 
    1502, 
    1506, 
    1507, 
    1508, 
    1509, 
    1510, 
    1511, 
    1512, 
    1513, 
    1514, 
    1515, 
    1516, 
    1517, 
    1518, 
    1519, 
    1523, 
    1524, 
    1525, 
    1526, 
    1527, 
    1528, 
    1529, 
    1530, 
    1531, 
    1532, 
    1533, 
    1534, 
    1535, 
    1539, 
    1540, 
    1541, 
    1542, 
    1543, 
    1544, 
    1545, 
    1546, 
    1547, 
    1548, 
    1549, 
    1550, 
    1551, 
    1552, 
    1556, 
    1557, 
    1558, 
    1559, 
    1560, 
    1561, 
    1562, 
    1563, 
    1564, 
    1565, 
    1566, 
    1567, 
    1568, 
    1572, 
    1573, 
    1574, 
    1575, 
    1576, 
    1577, 
    1578, 
    1579, 
    1580, 
    1581, 
    1582, 
    1583, 
    1584, 
    1585, 
    1589, 
    1590, 
    1591, 
    1592, 
    1593, 
    1594, 
    1595, 
    1596, 
    1597, 
    1598, 
    1599, 
    1600, 
    1601, 
    1605, 
    1606, 
    1607, 
    1608, 
    1609, 
    1610, 
    1611, 
    1612, 
    1613, 
    1614, 
    1615, 
    1616, 
    1617, 
    1618, 
    1622, 
    1623, 
    1624, 
    1625, 
    1626, 
    1627, 
    1628, 
    1629, 
    1630, 
    1631, 
    1632, 
    1633, 
    1634, 
    1638, 
    1639, 
    1640, 
    1641, 
    1642, 
    1643, 
    1644, 
    1645, 
    1646, 
    1647, 
    1648, 
    1649, 
    1650, 
    1651, 
    1655, 
    1656, 
    1657, 
    1658, 
    1659, 
    1660, 
    1661, 
    1662, 
    1663, 
    1664, 
    1665, 
    1666, 
    1667, 
    1671, 
    1672, 
    1673, 
    1674, 
    1675, 
    1676, 
    1677, 
    1678, 
    1679, 
    1680, 
    1681, 
    1682, 
    1683, 
    1684, 
    1688, 
    1689, 
    1690, 
    1691, 
    1692, 
    1693, 
    1694, 
    1695, 
    1696, 
    1697, 
    1698, 
    1699, 
    1700, 
    1704, 
    1705, 
    1706, 
    1707, 
    1708, 
    1709, 
    1710, 
    1711, 
    1712, 
    1713, 
    1714, 
    1715, 
    1716, 
    1717, 
    1721, 
    1722, 
    1723, 
    1724, 
    1725, 
    1726, 
    1727, 
    1728, 
    1729, 
    1730, 
    1731, 
    1732, 
    1733, 
    1737, 
    1738, 
    1739, 
    1740, 
    1741, 
    1742, 
    1743, 
    1744, 
    1745, 
    1746, 
    1747, 
    1748, 
    1749, 
    1750, 
    1754, 
    1755, 
    1756, 
    1757, 
    1758, 
    1759, 
    1760, 
    1761, 
    1762, 
    1763, 
    1764, 
    1765, 
    1766, 
    1770, 
    1771, 
    1772, 
    1773, 
    1774, 
    1775, 
    1776, 
    1777, 
    1778, 
    1779, 
    1780, 
    1781, 
    1782, 
    1783, 
    1787, 
    1788, 
    1789, 
    1790, 
    1791, 
    1792, 
    1793, 
    1794, 
    1795, 
    1796, 
    1797, 
    1798, 
    1799, 
    1803, 
    1804, 
    1805, 
    1806, 
    1807, 
    1808, 
    1809, 
    1810, 
    1811, 
    1812, 
    1813, 
    1814, 
    1815, 
    1816, 
    1820, 
    1821, 
    1822, 
    1823, 
    1824, 
    1825, 
    1826, 
    1827, 
    1828, 
    1829, 
    1830, 
    1831, 
    1832, 
    1836, 
    1837, 
    1838, 
    1839, 
    1840, 
    1841, 
    1842, 
    1843, 
    1844, 
    1845, 
    1846, 
    1847, 
    1848, 
    1849, 
    1853, 
    1854, 
    1855, 
    1856, 
    1857, 
    1858, 
    1859, 
    1860, 
    1861, 
    1862, 
    1863, 
    1864, 
    1865, 
    1869, 
    1870, 
    1871, 
    1872, 
    1873, 
    1874, 
    1875, 
    1876, 
    1877, 
    1878, 
    1879, 
    1880, 
    1881, 
    1882, 
    1886, 
    1887, 
    1888, 
    1889, 
    1890, 
    1891, 
    1892, 
    1893, 
    1894, 
    1895, 
    1896, 
    1897, 
    1898, 
    1902, 
    1903, 
    1904, 
    1905, 
    1906, 
    1907, 
    1908, 
    1909, 
    1910, 
    1911, 
    1912, 
    1913, 
    1914, 
    1915, 
    1919, 
    1920, 
    1921, 
    1922, 
    1923, 
    1924, 
    1925, 
    1926, 
    1927, 
    1928, 
    1929, 
    1930, 
    1931, 
    1935, 
    1936, 
    1937, 
    1938, 
    1939, 
    1940, 
    1941, 
    1942, 
    1943, 
    1944, 
    1945, 
    1946, 
    1947, 
    1948, 
    1952, 
    1953, 
    1954, 
    1955, 
    1956, 
    1957, 
    1958, 
    1959, 
    1960, 
    1961, 
    1962, 
    1963, 
    1964, 
    1968, 
    1969, 
    1970, 
    1971, 
    1972, 
    1973, 
    1974, 
    1975, 
    1976, 
    1977, 
    1978, 
    1979, 
    1980, 
    1981, 
    1985, 
    1986, 
    1987, 
    1988, 
    1989, 
    1990, 
    1991, 
    1992, 
    1993, 
    1994, 
    1995, 
    1996, 
    1997, 
    2001, 
    2002, 
    2003, 
    2004, 
    2005, 
    2006, 
    2007, 
    2008, 
    2009, 
    2010, 
    2011, 
    2012, 
    2013, 
    2014, 
    2018, 
    2019, 
    2020, 
    2021, 
    2022, 
    2023, 
    2024, 
    2025, 
    2026, 
    2027, 
    2028, 
    2029, 
    2030, 
    2034, 
    2035, 
    2036, 
    2037, 
    2038, 
    2039, 
    2040, 
    2041, 
    2042, 
    2043, 
    2044, 
    2045, 
    2046, 
    2047, 
    2051, 
    2052, 
    2053, 
    2054, 
    2055, 
    2056, 
    2057, 
    2058, 
    2059, 
    2060, 
    2061, 
    2062, 
    2063, 
    2067, 
    2068, 
    2069, 
    2070, 
    2071, 
    2072, 
    2073, 
    2074, 
    2075, 
    2076, 
    2077, 
    2078, 
    2079, 
    2080, 
    2081, 
    2082, 
    2083, 
    2084, 
    2085, 
    2086, 
    2087, 
    2088, 
    2089, 
    2090, 
    2091, 
    2092, 
    2093, 
    2094, 
    2095, 
    2096, 
    2097, 
    2098, 
    2099, 
    2100, 
    2101, 
    2102, 
    2105, 
    2106, 
    2107, 
    2108, 
    2109, 
    2110, 
    2111, 
    2112, 
    2113, 
    2114, 
    2115, 
    2116, 
    2117, 
    2118
  ], 
  "heads": [[1665, 0, 0], [1676, 0, 0], [1696, 0, 0]], 
  "attrs": {"mxnet_version": ["int", 905]}
}