{
  "nodes": [
    {
      "op": "null", 
      "name": "curr_env", 
      "inputs": []
    }, 
    {
      "op": "Reshape", 
      "name": "reshape11", 
      "attr": {"shape": "(7000, -1)"}, 
      "inputs": [[0, 0, 0]]
    }, 
    {
      "op": "null", 
      "name": "curr_args", 
      "inputs": []
    }, 
    {
      "op": "Reshape", 
      "name": "reshape12", 
      "attr": {"shape": "(7000, -1)"}, 
      "inputs": [[2, 0, 0]]
    }, 
    {
      "op": "Concat", 
      "name": "s_t", 
      "attr": {
        "dim": "1", 
        "num_args": "2"
      }, 
      "inputs": [[1, 0, 0], [3, 0, 0]]
    }, 
    {
      "op": "null", 
      "name": "f_enc_fc1_weight", 
      "attr": {"num_hidden": "256"}, 
      "inputs": []
    }, 
    {
      "op": "null", 
      "name": "f_enc_fc1_bias", 
      "attr": {"num_hidden": "256"}, 
      "inputs": []
    }, 
    {
      "op": "FullyConnected", 
      "name": "f_enc_fc1", 
      "attr": {"num_hidden": "256"}, 
      "inputs": [[4, 0, 0], [5, 0, 0], [6, 0, 0]]
    }, 
    {
      "op": "Activation", 
      "name": "f_enc_act1", 
      "attr": {"act_type": "relu"}, 
      "inputs": [[7, 0, 0]]
    }, 
    {
      "op": "null", 
      "name": "f_enc_weight", 
      "attr": {"num_hidden": "128"}, 
      "inputs": []
    }, 
    {
      "op": "null", 
      "name": "f_enc_bias", 
      "attr": {"num_hidden": "128"}, 
      "inputs": []
    }, 
    {
      "op": "FullyConnected", 
      "name": "f_enc", 
      "attr": {"num_hidden": "128"}, 
      "inputs": [[8, 0, 0], [9, 0, 0], [10, 0, 0]]
    }, 
    {
      "op": "null", 
      "name": "curr_prog", 
      "inputs": []
    }, 
    {
      "op": "null", 
      "name": "prog_embedding_weight", 
      "attr": {
        "input_dim": "10", 
        "output_dim": "16"
      }, 
      "inputs": []
    }, 
    {
      "op": "Embedding", 
      "name": "prog_embedding", 
      "attr": {
        "input_dim": "10", 
        "output_dim": "16"
      }, 
      "inputs": [[12, 0, 0], [13, 0, 0]]
    }, 
    {
      "op": "Reshape", 
      "name": "reshape13", 
      "attr": {"shape": "(7000, -1)"}, 
      "inputs": [[14, 0, 0]]
    }, 
    {
      "op": "Concat", 
      "name": "curr_inputs", 
      "attr": {
        "dim": "1", 
        "num_args": "2"
      }, 
      "inputs": [[11, 0, 0], [15, 0, 0]]
    }, 
    {
      "op": "null", 
      "name": "curr_inputs_fc1_weight", 
      "attr": {"num_hidden": "128"}, 
      "inputs": []
    }, 
    {
      "op": "null", 
      "name": "curr_inputs_fc1_bias", 
      "attr": {"num_hidden": "128"}, 
      "inputs": []
    }, 
    {
      "op": "FullyConnected", 
      "name": "curr_inputs_fc1", 
      "attr": {"num_hidden": "128"}, 
      "inputs": [[16, 0, 0], [17, 0, 0], [18, 0, 0]]
    }, 
    {
      "op": "Activation", 
      "name": "curr_inputs_act1", 
      "attr": {"act_type": "relu"}, 
      "inputs": [[19, 0, 0]]
    }, 
    {
      "op": "null", 
      "name": "enc_inputs_weight", 
      "attr": {"num_hidden": "32"}, 
      "inputs": []
    }, 
    {
      "op": "null", 
      "name": "enc_inputs_bias", 
      "attr": {"num_hidden": "32"}, 
      "inputs": []
    }, 
    {
      "op": "FullyConnected", 
      "name": "enc_inputs", 
      "attr": {"num_hidden": "32"}, 
      "inputs": [[20, 0, 0], [21, 0, 0], [22, 0, 0]]
    }, 
    {
      "op": "Reshape", 
      "name": "reshape14", 
      "attr": {"shape": "(100, 70, -1)"}, 
      "inputs": [[23, 0, 0]]
    }, 
    {
      "op": "SliceChannel", 
      "name": "split1", 
      "attr": {
        "axis": "1", 
        "num_outputs": "70", 
        "squeeze_axis": "1"
      }, 
      "inputs": [[24, 0, 0]]
    }, 
    {
      "op": "null", 
      "name": "lstm_l0_i2h_weight", 
      "inputs": []
    }, 
    {
      "op": "null", 
      "name": "lstm_l0_i2h_bias", 
      "attr": {"__init__": "[\"lstmbias\", {\"forget_bias\": 1.0}]"}, 
      "inputs": []
    }, 
    {
      "op": "FullyConnected", 
      "name": "lstm_l0_t0_i2h", 
      "attr": {"num_hidden": "1024"}, 
      "inputs": [[25, 0, 0], [26, 0, 0], [27, 0, 0]]
    }, 
    {
      "op": "_zeros", 
      "name": "lstm_l0_begin_state_0", 
      "attr": {
        "__layout__": "NC", 
        "dtype": "float32", 
        "shape": "(0, 256)"
      }, 
      "inputs": []
    }, 
    {
      "op": "null", 
      "name": "lstm_l0_h2h_weight", 
      "inputs": []
    }, 
    {
      "op": "null", 
      "name": "lstm_l0_h2h_bias", 
      "inputs": []
    }, 
    {
      "op": "FullyConnected", 
      "name": "lstm_l0_t0_h2h", 
      "attr": {"num_hidden": "1024"}, 
      "inputs": [[29, 0, 0], [30, 0, 0], [31, 0, 0]]
    }, 
    {
      "op": "elemwise_add", 
      "name": "_plus140", 
      "inputs": [[28, 0, 0], [32, 0, 0]]
    }, 
    {
      "op": "SliceChannel", 
      "name": "lstm_l0_t0_slice", 
      "attr": {"num_outputs": "4"}, 
      "inputs": [[33, 0, 0]]
    }, 
    {
      "op": "Activation", 
      "name": "lstm_l0_t0_o", 
      "attr": {"act_type": "sigmoid"}, 
      "inputs": [[34, 3, 0]]
    }, 
    {
      "op": "Activation", 
      "name": "lstm_l0_t0_f", 
      "attr": {"act_type": "sigmoid"}, 
      "inputs": [[34, 1, 0]]
    }, 
    {
      "op": "_zeros", 
      "name": "lstm_l0_begin_state_1", 
      "attr": {
        "__layout__": "NC", 
        "dtype": "float32", 
        "shape": "(0, 256)"
      }, 
      "inputs": []
    }, 
    {
      "op": "_mul", 
      "name": "_mul280", 
      "inputs": [[36, 0, 0], [37, 0, 0]]
    }, 
    {
      "op": "Activation", 
      "name": "lstm_l0_t0_i", 
      "attr": {"act_type": "sigmoid"}, 
      "inputs": [[34, 0, 0]]
    }, 
    {
      "op": "Activation", 
      "name": "lstm_l0_t0_c", 
      "attr": {"act_type": "tanh"}, 
      "inputs": [[34, 2, 0]]
    }, 
    {
      "op": "_mul", 
      "name": "_mul281", 
      "inputs": [[39, 0, 0], [40, 0, 0]]
    }, 
    {
      "op": "elemwise_add", 
      "name": "lstm_l0_t0_state", 
      "inputs": [[38, 0, 0], [41, 0, 0]]
    }, 
    {
      "op": "Activation", 
      "name": "activation140", 
      "attr": {"act_type": "tanh"}, 
      "inputs": [[42, 0, 0]]
    }, 
    {
      "op": "_mul", 
      "name": "lstm_l0_t0_out", 
      "inputs": [[35, 0, 0], [43, 0, 0]]
    }, 
    {
      "op": "null", 
      "name": "lstm_l1_i2h_weight", 
      "inputs": []
    }, 
    {
      "op": "null", 
      "name": "lstm_l1_i2h_bias", 
      "attr": {"__init__": "[\"lstmbias\", {\"forget_bias\": 1.0}]"}, 
      "inputs": []
    }, 
    {
      "op": "FullyConnected", 
      "name": "lstm_l1_t0_i2h", 
      "attr": {"num_hidden": "1024"}, 
      "inputs": [[44, 0, 0], [45, 0, 0], [46, 0, 0]]
    }, 
    {
      "op": "_zeros", 
      "name": "lstm_l1_begin_state_0", 
      "attr": {
        "__layout__": "NC", 
        "dtype": "float32", 
        "shape": "(0, 256)"
      }, 
      "inputs": []
    }, 
    {
      "op": "null", 
      "name": "lstm_l1_h2h_weight", 
      "inputs": []
    }, 
    {
      "op": "null", 
      "name": "lstm_l1_h2h_bias", 
      "inputs": []
    }, 
    {
      "op": "FullyConnected", 
      "name": "lstm_l1_t0_h2h", 
      "attr": {"num_hidden": "1024"}, 
      "inputs": [[48, 0, 0], [49, 0, 0], [50, 0, 0]]
    }, 
    {
      "op": "elemwise_add", 
      "name": "_plus210", 
      "inputs": [[47, 0, 0], [51, 0, 0]]
    }, 
    {
      "op": "SliceChannel", 
      "name": "lstm_l1_t0_slice", 
      "attr": {"num_outputs": "4"}, 
      "inputs": [[52, 0, 0]]
    }, 
    {
      "op": "Activation", 
      "name": "lstm_l1_t0_o", 
      "attr": {"act_type": "sigmoid"}, 
      "inputs": [[53, 3, 0]]
    }, 
    {
      "op": "Activation", 
      "name": "lstm_l1_t0_f", 
      "attr": {"act_type": "sigmoid"}, 
      "inputs": [[53, 1, 0]]
    }, 
    {
      "op": "_zeros", 
      "name": "lstm_l1_begin_state_1", 
      "attr": {
        "__layout__": "NC", 
        "dtype": "float32", 
        "shape": "(0, 256)"
      }, 
      "inputs": []
    }, 
    {
      "op": "_mul", 
      "name": "_mul420", 
      "inputs": [[55, 0, 0], [56, 0, 0]]
    }, 
    {
      "op": "Activation", 
      "name": "lstm_l1_t0_i", 
      "attr": {"act_type": "sigmoid"}, 
      "inputs": [[53, 0, 0]]
    }, 
    {
      "op": "Activation", 
      "name": "lstm_l1_t0_c", 
      "attr": {"act_type": "tanh"}, 
      "inputs": [[53, 2, 0]]
    }, 
    {
      "op": "_mul", 
      "name": "_mul421", 
      "inputs": [[58, 0, 0], [59, 0, 0]]
    }, 
    {
      "op": "elemwise_add", 
      "name": "lstm_l1_t0_state", 
      "inputs": [[57, 0, 0], [60, 0, 0]]
    }, 
    {
      "op": "Activation", 
      "name": "activation210", 
      "attr": {"act_type": "tanh"}, 
      "inputs": [[61, 0, 0]]
    }, 
    {
      "op": "_mul", 
      "name": "lstm_l1_t0_out", 
      "inputs": [[54, 0, 0], [62, 0, 0]]
    }, 
    {
      "op": "expand_dims", 
      "name": "expand_dims70", 
      "attr": {"axis": "1"}, 
      "inputs": [[63, 0, 0]]
    }, 
    {
      "op": "FullyConnected", 
      "name": "lstm_l0_t1_i2h", 
      "attr": {"num_hidden": "1024"}, 
      "inputs": [[25, 1, 0], [26, 0, 0], [27, 0, 0]]
    }, 
    {
      "op": "FullyConnected", 
      "name": "lstm_l0_t1_h2h", 
      "attr": {"num_hidden": "1024"}, 
      "inputs": [[44, 0, 0], [30, 0, 0], [31, 0, 0]]
    }, 
    {
      "op": "elemwise_add", 
      "name": "_plus141", 
      "inputs": [[65, 0, 0], [66, 0, 0]]
    }, 
    {
      "op": "SliceChannel", 
      "name": "lstm_l0_t1_slice", 
      "attr": {"num_outputs": "4"}, 
      "inputs": [[67, 0, 0]]
    }, 
    {
      "op": "Activation", 
      "name": "lstm_l0_t1_o", 
      "attr": {"act_type": "sigmoid"}, 
      "inputs": [[68, 3, 0]]
    }, 
    {
      "op": "Activation", 
      "name": "lstm_l0_t1_f", 
      "attr": {"act_type": "sigmoid"}, 
      "inputs": [[68, 1, 0]]
    }, 
    {
      "op": "_mul", 
      "name": "_mul282", 
      "inputs": [[70, 0, 0], [42, 0, 0]]
    }, 
    {
      "op": "Activation", 
      "name": "lstm_l0_t1_i", 
      "attr": {"act_type": "sigmoid"}, 
      "inputs": [[68, 0, 0]]
    }, 
    {
      "op": "Activation", 
      "name": "lstm_l0_t1_c", 
      "attr": {"act_type": "tanh"}, 
      "inputs": [[68, 2, 0]]
    }, 
    {
      "op": "_mul", 
      "name": "_mul283", 
      "inputs": [[72, 0, 0], [73, 0, 0]]
    }, 
    {
      "op": "elemwise_add", 
      "name": "lstm_l0_t1_state", 
      "inputs": [[71, 0, 0], [74, 0, 0]]
    }, 
    {
      "op": "Activation", 
      "name": "activation141", 
      "attr": {"act_type": "tanh"}, 
      "inputs": [[75, 0, 0]]
    }, 
    {
      "op": "_mul", 
      "name": "lstm_l0_t1_out", 
      "inputs": [[69, 0, 0], [76, 0, 0]]
    }, 
    {
      "op": "FullyConnected", 
      "name": "lstm_l1_t1_i2h", 
      "attr": {"num_hidden": "1024"}, 
      "inputs": [[77, 0, 0], [45, 0, 0], [46, 0, 0]]
    }, 
    {
      "op": "FullyConnected", 
      "name": "lstm_l1_t1_h2h", 
      "attr": {"num_hidden": "1024"}, 
      "inputs": [[63, 0, 0], [49, 0, 0], [50, 0, 0]]
    }, 
    {
      "op": "elemwise_add", 
      "name": "_plus211", 
      "inputs": [[78, 0, 0], [79, 0, 0]]
    }, 
    {
      "op": "SliceChannel", 
      "name": "lstm_l1_t1_slice", 
      "attr": {"num_outputs": "4"}, 
      "inputs": [[80, 0, 0]]
    }, 
    {
      "op": "Activation", 
      "name": "lstm_l1_t1_o", 
      "attr": {"act_type": "sigmoid"}, 
      "inputs": [[81, 3, 0]]
    }, 
    {
      "op": "Activation", 
      "name": "lstm_l1_t1_f", 
      "attr": {"act_type": "sigmoid"}, 
      "inputs": [[81, 1, 0]]
    }, 
    {
      "op": "_mul", 
      "name": "_mul422", 
      "inputs": [[83, 0, 0], [61, 0, 0]]
    }, 
    {
      "op": "Activation", 
      "name": "lstm_l1_t1_i", 
      "attr": {"act_type": "sigmoid"}, 
      "inputs": [[81, 0, 0]]
    }, 
    {
      "op": "Activation", 
      "name": "lstm_l1_t1_c", 
      "attr": {"act_type": "tanh"}, 
      "inputs": [[81, 2, 0]]
    }, 
    {
      "op": "_mul", 
      "name": "_mul423", 
      "inputs": [[85, 0, 0], [86, 0, 0]]
    }, 
    {
      "op": "elemwise_add", 
      "name": "lstm_l1_t1_state", 
      "inputs": [[84, 0, 0], [87, 0, 0]]
    }, 
    {
      "op": "Activation", 
      "name": "activation211", 
      "attr": {"act_type": "tanh"}, 
      "inputs": [[88, 0, 0]]
    }, 
    {
      "op": "_mul", 
      "name": "lstm_l1_t1_out", 
      "inputs": [[82, 0, 0], [89, 0, 0]]
    }, 
    {
      "op": "expand_dims", 
      "name": "expand_dims71", 
      "attr": {"axis": "1"}, 
      "inputs": [[90, 0, 0]]
    }, 
    {
      "op": "FullyConnected", 
      "name": "lstm_l0_t2_i2h", 
      "attr": {"num_hidden": "1024"}, 
      "inputs": [[25, 2, 0], [26, 0, 0], [27, 0, 0]]
    }, 
    {
      "op": "FullyConnected", 
      "name": "lstm_l0_t2_h2h", 
      "attr": {"num_hidden": "1024"}, 
      "inputs": [[77, 0, 0], [30, 0, 0], [31, 0, 0]]
    }, 
    {
      "op": "elemwise_add", 
      "name": "_plus142", 
      "inputs": [[92, 0, 0], [93, 0, 0]]
    }, 
    {
      "op": "SliceChannel", 
      "name": "lstm_l0_t2_slice", 
      "attr": {"num_outputs": "4"}, 
      "inputs": [[94, 0, 0]]
    }, 
    {
      "op": "Activation", 
      "name": "lstm_l0_t2_o", 
      "attr": {"act_type": "sigmoid"}, 
      "inputs": [[95, 3, 0]]
    }, 
    {
      "op": "Activation", 
      "name": "lstm_l0_t2_f", 
      "attr": {"act_type": "sigmoid"}, 
      "inputs": [[95, 1, 0]]
    }, 
    {
      "op": "_mul", 
      "name": "_mul284", 
      "inputs": [[97, 0, 0], [75, 0, 0]]
    }, 
    {
      "op": "Activation", 
      "name": "lstm_l0_t2_i", 
      "attr": {"act_type": "sigmoid"}, 
      "inputs": [[95, 0, 0]]
    }, 
    {
      "op": "Activation", 
      "name": "lstm_l0_t2_c", 
      "attr": {"act_type": "tanh"}, 
      "inputs": [[95, 2, 0]]
    }, 
    {
      "op": "_mul", 
      "name": "_mul285", 
      "inputs": [[99, 0, 0], [100, 0, 0]]
    }, 
    {
      "op": "elemwise_add", 
      "name": "lstm_l0_t2_state", 
      "inputs": [[98, 0, 0], [101, 0, 0]]
    }, 
    {
      "op": "Activation", 
      "name": "activation142", 
      "attr": {"act_type": "tanh"}, 
      "inputs": [[102, 0, 0]]
    }, 
    {
      "op": "_mul", 
      "name": "lstm_l0_t2_out", 
      "inputs": [[96, 0, 0], [103, 0, 0]]
    }, 
    {
      "op": "FullyConnected", 
      "name": "lstm_l1_t2_i2h", 
      "attr": {"num_hidden": "1024"}, 
      "inputs": [[104, 0, 0], [45, 0, 0], [46, 0, 0]]
    }, 
    {
      "op": "FullyConnected", 
      "name": "lstm_l1_t2_h2h", 
      "attr": {"num_hidden": "1024"}, 
      "inputs": [[90, 0, 0], [49, 0, 0], [50, 0, 0]]
    }, 
    {
      "op": "elemwise_add", 
      "name": "_plus212", 
      "inputs": [[105, 0, 0], [106, 0, 0]]
    }, 
    {
      "op": "SliceChannel", 
      "name": "lstm_l1_t2_slice", 
      "attr": {"num_outputs": "4"}, 
      "inputs": [[107, 0, 0]]
    }, 
    {
      "op": "Activation", 
      "name": "lstm_l1_t2_o", 
      "attr": {"act_type": "sigmoid"}, 
      "inputs": [[108, 3, 0]]
    }, 
    {
      "op": "Activation", 
      "name": "lstm_l1_t2_f", 
      "attr": {"act_type": "sigmoid"}, 
      "inputs": [[108, 1, 0]]
    }, 
    {
      "op": "_mul", 
      "name": "_mul424", 
      "inputs": [[110, 0, 0], [88, 0, 0]]
    }, 
    {
      "op": "Activation", 
      "name": "lstm_l1_t2_i", 
      "attr": {"act_type": "sigmoid"}, 
      "inputs": [[108, 0, 0]]
    }, 
    {
      "op": "Activation", 
      "name": "lstm_l1_t2_c", 
      "attr": {"act_type": "tanh"}, 
      "inputs": [[108, 2, 0]]
    }, 
    {
      "op": "_mul", 
      "name": "_mul425", 
      "inputs": [[112, 0, 0], [113, 0, 0]]
    }, 
    {
      "op": "elemwise_add", 
      "name": "lstm_l1_t2_state", 
      "inputs": [[111, 0, 0], [114, 0, 0]]
    }, 
    {
      "op": "Activation", 
      "name": "activation212", 
      "attr": {"act_type": "tanh"}, 
      "inputs": [[115, 0, 0]]
    }, 
    {
      "op": "_mul", 
      "name": "lstm_l1_t2_out", 
      "inputs": [[109, 0, 0], [116, 0, 0]]
    }, 
    {
      "op": "expand_dims", 
      "name": "expand_dims72", 
      "attr": {"axis": "1"}, 
      "inputs": [[117, 0, 0]]
    }, 
    {
      "op": "FullyConnected", 
      "name": "lstm_l0_t3_i2h", 
      "attr": {"num_hidden": "1024"}, 
      "inputs": [[25, 3, 0], [26, 0, 0], [27, 0, 0]]
    }, 
    {
      "op": "FullyConnected", 
      "name": "lstm_l0_t3_h2h", 
      "attr": {"num_hidden": "1024"}, 
      "inputs": [[104, 0, 0], [30, 0, 0], [31, 0, 0]]
    }, 
    {
      "op": "elemwise_add", 
      "name": "_plus143", 
      "inputs": [[119, 0, 0], [120, 0, 0]]
    }, 
    {
      "op": "SliceChannel", 
      "name": "lstm_l0_t3_slice", 
      "attr": {"num_outputs": "4"}, 
      "inputs": [[121, 0, 0]]
    }, 
    {
      "op": "Activation", 
      "name": "lstm_l0_t3_o", 
      "attr": {"act_type": "sigmoid"}, 
      "inputs": [[122, 3, 0]]
    }, 
    {
      "op": "Activation", 
      "name": "lstm_l0_t3_f", 
      "attr": {"act_type": "sigmoid"}, 
      "inputs": [[122, 1, 0]]
    }, 
    {
      "op": "_mul", 
      "name": "_mul286", 
      "inputs": [[124, 0, 0], [102, 0, 0]]
    }, 
    {
      "op": "Activation", 
      "name": "lstm_l0_t3_i", 
      "attr": {"act_type": "sigmoid"}, 
      "inputs": [[122, 0, 0]]
    }, 
    {
      "op": "Activation", 
      "name": "lstm_l0_t3_c", 
      "attr": {"act_type": "tanh"}, 
      "inputs": [[122, 2, 0]]
    }, 
    {
      "op": "_mul", 
      "name": "_mul287", 
      "inputs": [[126, 0, 0], [127, 0, 0]]
    }, 
    {
      "op": "elemwise_add", 
      "name": "lstm_l0_t3_state", 
      "inputs": [[125, 0, 0], [128, 0, 0]]
    }, 
    {
      "op": "Activation", 
      "name": "activation143", 
      "attr": {"act_type": "tanh"}, 
      "inputs": [[129, 0, 0]]
    }, 
    {
      "op": "_mul", 
      "name": "lstm_l0_t3_out", 
      "inputs": [[123, 0, 0], [130, 0, 0]]
    }, 
    {
      "op": "FullyConnected", 
      "name": "lstm_l1_t3_i2h", 
      "attr": {"num_hidden": "1024"}, 
      "inputs": [[131, 0, 0], [45, 0, 0], [46, 0, 0]]
    }, 
    {
      "op": "FullyConnected", 
      "name": "lstm_l1_t3_h2h", 
      "attr": {"num_hidden": "1024"}, 
      "inputs": [[117, 0, 0], [49, 0, 0], [50, 0, 0]]
    }, 
    {
      "op": "elemwise_add", 
      "name": "_plus213", 
      "inputs": [[132, 0, 0], [133, 0, 0]]
    }, 
    {
      "op": "SliceChannel", 
      "name": "lstm_l1_t3_slice", 
      "attr": {"num_outputs": "4"}, 
      "inputs": [[134, 0, 0]]
    }, 
    {
      "op": "Activation", 
      "name": "lstm_l1_t3_o", 
      "attr": {"act_type": "sigmoid"}, 
      "inputs": [[135, 3, 0]]
    }, 
    {
      "op": "Activation", 
      "name": "lstm_l1_t3_f", 
      "attr": {"act_type": "sigmoid"}, 
      "inputs": [[135, 1, 0]]
    }, 
    {
      "op": "_mul", 
      "name": "_mul426", 
      "inputs": [[137, 0, 0], [115, 0, 0]]
    }, 
    {
      "op": "Activation", 
      "name": "lstm_l1_t3_i", 
      "attr": {"act_type": "sigmoid"}, 
      "inputs": [[135, 0, 0]]
    }, 
    {
      "op": "Activation", 
      "name": "lstm_l1_t3_c", 
      "attr": {"act_type": "tanh"}, 
      "inputs": [[135, 2, 0]]
    }, 
    {
      "op": "_mul", 
      "name": "_mul427", 
      "inputs": [[139, 0, 0], [140, 0, 0]]
    }, 
    {
      "op": "elemwise_add", 
      "name": "lstm_l1_t3_state", 
      "inputs": [[138, 0, 0], [141, 0, 0]]
    }, 
    {
      "op": "Activation", 
      "name": "activation213", 
      "attr": {"act_type": "tanh"}, 
      "inputs": [[142, 0, 0]]
    }, 
    {
      "op": "_mul", 
      "name": "lstm_l1_t3_out", 
      "inputs": [[136, 0, 0], [143, 0, 0]]
    }, 
    {
      "op": "expand_dims", 
      "name": "expand_dims73", 
      "attr": {"axis": "1"}, 
      "inputs": [[144, 0, 0]]
    }, 
    {
      "op": "FullyConnected", 
      "name": "lstm_l0_t4_i2h", 
      "attr": {"num_hidden": "1024"}, 
      "inputs": [[25, 4, 0], [26, 0, 0], [27, 0, 0]]
    }, 
    {
      "op": "FullyConnected", 
      "name": "lstm_l0_t4_h2h", 
      "attr": {"num_hidden": "1024"}, 
      "inputs": [[131, 0, 0], [30, 0, 0], [31, 0, 0]]
    }, 
    {
      "op": "elemwise_add", 
      "name": "_plus144", 
      "inputs": [[146, 0, 0], [147, 0, 0]]
    }, 
    {
      "op": "SliceChannel", 
      "name": "lstm_l0_t4_slice", 
      "attr": {"num_outputs": "4"}, 
      "inputs": [[148, 0, 0]]
    }, 
    {
      "op": "Activation", 
      "name": "lstm_l0_t4_o", 
      "attr": {"act_type": "sigmoid"}, 
      "inputs": [[149, 3, 0]]
    }, 
    {
      "op": "Activation", 
      "name": "lstm_l0_t4_f", 
      "attr": {"act_type": "sigmoid"}, 
      "inputs": [[149, 1, 0]]
    }, 
    {
      "op": "_mul", 
      "name": "_mul288", 
      "inputs": [[151, 0, 0], [129, 0, 0]]
    }, 
    {
      "op": "Activation", 
      "name": "lstm_l0_t4_i", 
      "attr": {"act_type": "sigmoid"}, 
      "inputs": [[149, 0, 0]]
    }, 
    {
      "op": "Activation", 
      "name": "lstm_l0_t4_c", 
      "attr": {"act_type": "tanh"}, 
      "inputs": [[149, 2, 0]]
    }, 
    {
      "op": "_mul", 
      "name": "_mul289", 
      "inputs": [[153, 0, 0], [154, 0, 0]]
    }, 
    {
      "op": "elemwise_add", 
      "name": "lstm_l0_t4_state", 
      "inputs": [[152, 0, 0], [155, 0, 0]]
    }, 
    {
      "op": "Activation", 
      "name": "activation144", 
      "attr": {"act_type": "tanh"}, 
      "inputs": [[156, 0, 0]]
    }, 
    {
      "op": "_mul", 
      "name": "lstm_l0_t4_out", 
      "inputs": [[150, 0, 0], [157, 0, 0]]
    }, 
    {
      "op": "FullyConnected", 
      "name": "lstm_l1_t4_i2h", 
      "attr": {"num_hidden": "1024"}, 
      "inputs": [[158, 0, 0], [45, 0, 0], [46, 0, 0]]
    }, 
    {
      "op": "FullyConnected", 
      "name": "lstm_l1_t4_h2h", 
      "attr": {"num_hidden": "1024"}, 
      "inputs": [[144, 0, 0], [49, 0, 0], [50, 0, 0]]
    }, 
    {
      "op": "elemwise_add", 
      "name": "_plus214", 
      "inputs": [[159, 0, 0], [160, 0, 0]]
    }, 
    {
      "op": "SliceChannel", 
      "name": "lstm_l1_t4_slice", 
      "attr": {"num_outputs": "4"}, 
      "inputs": [[161, 0, 0]]
    }, 
    {
      "op": "Activation", 
      "name": "lstm_l1_t4_o", 
      "attr": {"act_type": "sigmoid"}, 
      "inputs": [[162, 3, 0]]
    }, 
    {
      "op": "Activation", 
      "name": "lstm_l1_t4_f", 
      "attr": {"act_type": "sigmoid"}, 
      "inputs": [[162, 1, 0]]
    }, 
    {
      "op": "_mul", 
      "name": "_mul428", 
      "inputs": [[164, 0, 0], [142, 0, 0]]
    }, 
    {
      "op": "Activation", 
      "name": "lstm_l1_t4_i", 
      "attr": {"act_type": "sigmoid"}, 
      "inputs": [[162, 0, 0]]
    }, 
    {
      "op": "Activation", 
      "name": "lstm_l1_t4_c", 
      "attr": {"act_type": "tanh"}, 
      "inputs": [[162, 2, 0]]
    }, 
    {
      "op": "_mul", 
      "name": "_mul429", 
      "inputs": [[166, 0, 0], [167, 0, 0]]
    }, 
    {
      "op": "elemwise_add", 
      "name": "lstm_l1_t4_state", 
      "inputs": [[165, 0, 0], [168, 0, 0]]
    }, 
    {
      "op": "Activation", 
      "name": "activation214", 
      "attr": {"act_type": "tanh"}, 
      "inputs": [[169, 0, 0]]
    }, 
    {
      "op": "_mul", 
      "name": "lstm_l1_t4_out", 
      "inputs": [[163, 0, 0], [170, 0, 0]]
    }, 
    {
      "op": "expand_dims", 
      "name": "expand_dims74", 
      "attr": {"axis": "1"}, 
      "inputs": [[171, 0, 0]]
    }, 
    {
      "op": "FullyConnected", 
      "name": "lstm_l0_t5_i2h", 
      "attr": {"num_hidden": "1024"}, 
      "inputs": [[25, 5, 0], [26, 0, 0], [27, 0, 0]]
    }, 
    {
      "op": "FullyConnected", 
      "name": "lstm_l0_t5_h2h", 
      "attr": {"num_hidden": "1024"}, 
      "inputs": [[158, 0, 0], [30, 0, 0], [31, 0, 0]]
    }, 
    {
      "op": "elemwise_add", 
      "name": "_plus145", 
      "inputs": [[173, 0, 0], [174, 0, 0]]
    }, 
    {
      "op": "SliceChannel", 
      "name": "lstm_l0_t5_slice", 
      "attr": {"num_outputs": "4"}, 
      "inputs": [[175, 0, 0]]
    }, 
    {
      "op": "Activation", 
      "name": "lstm_l0_t5_o", 
      "attr": {"act_type": "sigmoid"}, 
      "inputs": [[176, 3, 0]]
    }, 
    {
      "op": "Activation", 
      "name": "lstm_l0_t5_f", 
      "attr": {"act_type": "sigmoid"}, 
      "inputs": [[176, 1, 0]]
    }, 
    {
      "op": "_mul", 
      "name": "_mul290", 
      "inputs": [[178, 0, 0], [156, 0, 0]]
    }, 
    {
      "op": "Activation", 
      "name": "lstm_l0_t5_i", 
      "attr": {"act_type": "sigmoid"}, 
      "inputs": [[176, 0, 0]]
    }, 
    {
      "op": "Activation", 
      "name": "lstm_l0_t5_c", 
      "attr": {"act_type": "tanh"}, 
      "inputs": [[176, 2, 0]]
    }, 
    {
      "op": "_mul", 
      "name": "_mul291", 
      "inputs": [[180, 0, 0], [181, 0, 0]]
    }, 
    {
      "op": "elemwise_add", 
      "name": "lstm_l0_t5_state", 
      "inputs": [[179, 0, 0], [182, 0, 0]]
    }, 
    {
      "op": "Activation", 
      "name": "activation145", 
      "attr": {"act_type": "tanh"}, 
      "inputs": [[183, 0, 0]]
    }, 
    {
      "op": "_mul", 
      "name": "lstm_l0_t5_out", 
      "inputs": [[177, 0, 0], [184, 0, 0]]
    }, 
    {
      "op": "FullyConnected", 
      "name": "lstm_l1_t5_i2h", 
      "attr": {"num_hidden": "1024"}, 
      "inputs": [[185, 0, 0], [45, 0, 0], [46, 0, 0]]
    }, 
    {
      "op": "FullyConnected", 
      "name": "lstm_l1_t5_h2h", 
      "attr": {"num_hidden": "1024"}, 
      "inputs": [[171, 0, 0], [49, 0, 0], [50, 0, 0]]
    }, 
    {
      "op": "elemwise_add", 
      "name": "_plus215", 
      "inputs": [[186, 0, 0], [187, 0, 0]]
    }, 
    {
      "op": "SliceChannel", 
      "name": "lstm_l1_t5_slice", 
      "attr": {"num_outputs": "4"}, 
      "inputs": [[188, 0, 0]]
    }, 
    {
      "op": "Activation", 
      "name": "lstm_l1_t5_o", 
      "attr": {"act_type": "sigmoid"}, 
      "inputs": [[189, 3, 0]]
    }, 
    {
      "op": "Activation", 
      "name": "lstm_l1_t5_f", 
      "attr": {"act_type": "sigmoid"}, 
      "inputs": [[189, 1, 0]]
    }, 
    {
      "op": "_mul", 
      "name": "_mul430", 
      "inputs": [[191, 0, 0], [169, 0, 0]]
    }, 
    {
      "op": "Activation", 
      "name": "lstm_l1_t5_i", 
      "attr": {"act_type": "sigmoid"}, 
      "inputs": [[189, 0, 0]]
    }, 
    {
      "op": "Activation", 
      "name": "lstm_l1_t5_c", 
      "attr": {"act_type": "tanh"}, 
      "inputs": [[189, 2, 0]]
    }, 
    {
      "op": "_mul", 
      "name": "_mul431", 
      "inputs": [[193, 0, 0], [194, 0, 0]]
    }, 
    {
      "op": "elemwise_add", 
      "name": "lstm_l1_t5_state", 
      "inputs": [[192, 0, 0], [195, 0, 0]]
    }, 
    {
      "op": "Activation", 
      "name": "activation215", 
      "attr": {"act_type": "tanh"}, 
      "inputs": [[196, 0, 0]]
    }, 
    {
      "op": "_mul", 
      "name": "lstm_l1_t5_out", 
      "inputs": [[190, 0, 0], [197, 0, 0]]
    }, 
    {
      "op": "expand_dims", 
      "name": "expand_dims75", 
      "attr": {"axis": "1"}, 
      "inputs": [[198, 0, 0]]
    }, 
    {
      "op": "FullyConnected", 
      "name": "lstm_l0_t6_i2h", 
      "attr": {"num_hidden": "1024"}, 
      "inputs": [[25, 6, 0], [26, 0, 0], [27, 0, 0]]
    }, 
    {
      "op": "FullyConnected", 
      "name": "lstm_l0_t6_h2h", 
      "attr": {"num_hidden": "1024"}, 
      "inputs": [[185, 0, 0], [30, 0, 0], [31, 0, 0]]
    }, 
    {
      "op": "elemwise_add", 
      "name": "_plus146", 
      "inputs": [[200, 0, 0], [201, 0, 0]]
    }, 
    {
      "op": "SliceChannel", 
      "name": "lstm_l0_t6_slice", 
      "attr": {"num_outputs": "4"}, 
      "inputs": [[202, 0, 0]]
    }, 
    {
      "op": "Activation", 
      "name": "lstm_l0_t6_o", 
      "attr": {"act_type": "sigmoid"}, 
      "inputs": [[203, 3, 0]]
    }, 
    {
      "op": "Activation", 
      "name": "lstm_l0_t6_f", 
      "attr": {"act_type": "sigmoid"}, 
      "inputs": [[203, 1, 0]]
    }, 
    {
      "op": "_mul", 
      "name": "_mul292", 
      "inputs": [[205, 0, 0], [183, 0, 0]]
    }, 
    {
      "op": "Activation", 
      "name": "lstm_l0_t6_i", 
      "attr": {"act_type": "sigmoid"}, 
      "inputs": [[203, 0, 0]]
    }, 
    {
      "op": "Activation", 
      "name": "lstm_l0_t6_c", 
      "attr": {"act_type": "tanh"}, 
      "inputs": [[203, 2, 0]]
    }, 
    {
      "op": "_mul", 
      "name": "_mul293", 
      "inputs": [[207, 0, 0], [208, 0, 0]]
    }, 
    {
      "op": "elemwise_add", 
      "name": "lstm_l0_t6_state", 
      "inputs": [[206, 0, 0], [209, 0, 0]]
    }, 
    {
      "op": "Activation", 
      "name": "activation146", 
      "attr": {"act_type": "tanh"}, 
      "inputs": [[210, 0, 0]]
    }, 
    {
      "op": "_mul", 
      "name": "lstm_l0_t6_out", 
      "inputs": [[204, 0, 0], [211, 0, 0]]
    }, 
    {
      "op": "FullyConnected", 
      "name": "lstm_l1_t6_i2h", 
      "attr": {"num_hidden": "1024"}, 
      "inputs": [[212, 0, 0], [45, 0, 0], [46, 0, 0]]
    }, 
    {
      "op": "FullyConnected", 
      "name": "lstm_l1_t6_h2h", 
      "attr": {"num_hidden": "1024"}, 
      "inputs": [[198, 0, 0], [49, 0, 0], [50, 0, 0]]
    }, 
    {
      "op": "elemwise_add", 
      "name": "_plus216", 
      "inputs": [[213, 0, 0], [214, 0, 0]]
    }, 
    {
      "op": "SliceChannel", 
      "name": "lstm_l1_t6_slice", 
      "attr": {"num_outputs": "4"}, 
      "inputs": [[215, 0, 0]]
    }, 
    {
      "op": "Activation", 
      "name": "lstm_l1_t6_o", 
      "attr": {"act_type": "sigmoid"}, 
      "inputs": [[216, 3, 0]]
    }, 
    {
      "op": "Activation", 
      "name": "lstm_l1_t6_f", 
      "attr": {"act_type": "sigmoid"}, 
      "inputs": [[216, 1, 0]]
    }, 
    {
      "op": "_mul", 
      "name": "_mul432", 
      "inputs": [[218, 0, 0], [196, 0, 0]]
    }, 
    {
      "op": "Activation", 
      "name": "lstm_l1_t6_i", 
      "attr": {"act_type": "sigmoid"}, 
      "inputs": [[216, 0, 0]]
    }, 
    {
      "op": "Activation", 
      "name": "lstm_l1_t6_c", 
      "attr": {"act_type": "tanh"}, 
      "inputs": [[216, 2, 0]]
    }, 
    {
      "op": "_mul", 
      "name": "_mul433", 
      "inputs": [[220, 0, 0], [221, 0, 0]]
    }, 
    {
      "op": "elemwise_add", 
      "name": "lstm_l1_t6_state", 
      "inputs": [[219, 0, 0], [222, 0, 0]]
    }, 
    {
      "op": "Activation", 
      "name": "activation216", 
      "attr": {"act_type": "tanh"}, 
      "inputs": [[223, 0, 0]]
    }, 
    {
      "op": "_mul", 
      "name": "lstm_l1_t6_out", 
      "inputs": [[217, 0, 0], [224, 0, 0]]
    }, 
    {
      "op": "expand_dims", 
      "name": "expand_dims76", 
      "attr": {"axis": "1"}, 
      "inputs": [[225, 0, 0]]
    }, 
    {
      "op": "FullyConnected", 
      "name": "lstm_l0_t7_i2h", 
      "attr": {"num_hidden": "1024"}, 
      "inputs": [[25, 7, 0], [26, 0, 0], [27, 0, 0]]
    }, 
    {
      "op": "FullyConnected", 
      "name": "lstm_l0_t7_h2h", 
      "attr": {"num_hidden": "1024"}, 
      "inputs": [[212, 0, 0], [30, 0, 0], [31, 0, 0]]
    }, 
    {
      "op": "elemwise_add", 
      "name": "_plus147", 
      "inputs": [[227, 0, 0], [228, 0, 0]]
    }, 
    {
      "op": "SliceChannel", 
      "name": "lstm_l0_t7_slice", 
      "attr": {"num_outputs": "4"}, 
      "inputs": [[229, 0, 0]]
    }, 
    {
      "op": "Activation", 
      "name": "lstm_l0_t7_o", 
      "attr": {"act_type": "sigmoid"}, 
      "inputs": [[230, 3, 0]]
    }, 
    {
      "op": "Activation", 
      "name": "lstm_l0_t7_f", 
      "attr": {"act_type": "sigmoid"}, 
      "inputs": [[230, 1, 0]]
    }, 
    {
      "op": "_mul", 
      "name": "_mul294", 
      "inputs": [[232, 0, 0], [210, 0, 0]]
    }, 
    {
      "op": "Activation", 
      "name": "lstm_l0_t7_i", 
      "attr": {"act_type": "sigmoid"}, 
      "inputs": [[230, 0, 0]]
    }, 
    {
      "op": "Activation", 
      "name": "lstm_l0_t7_c", 
      "attr": {"act_type": "tanh"}, 
      "inputs": [[230, 2, 0]]
    }, 
    {
      "op": "_mul", 
      "name": "_mul295", 
      "inputs": [[234, 0, 0], [235, 0, 0]]
    }, 
    {
      "op": "elemwise_add", 
      "name": "lstm_l0_t7_state", 
      "inputs": [[233, 0, 0], [236, 0, 0]]
    }, 
    {
      "op": "Activation", 
      "name": "activation147", 
      "attr": {"act_type": "tanh"}, 
      "inputs": [[237, 0, 0]]
    }, 
    {
      "op": "_mul", 
      "name": "lstm_l0_t7_out", 
      "inputs": [[231, 0, 0], [238, 0, 0]]
    }, 
    {
      "op": "FullyConnected", 
      "name": "lstm_l1_t7_i2h", 
      "attr": {"num_hidden": "1024"}, 
      "inputs": [[239, 0, 0], [45, 0, 0], [46, 0, 0]]
    }, 
    {
      "op": "FullyConnected", 
      "name": "lstm_l1_t7_h2h", 
      "attr": {"num_hidden": "1024"}, 
      "inputs": [[225, 0, 0], [49, 0, 0], [50, 0, 0]]
    }, 
    {
      "op": "elemwise_add", 
      "name": "_plus217", 
      "inputs": [[240, 0, 0], [241, 0, 0]]
    }, 
    {
      "op": "SliceChannel", 
      "name": "lstm_l1_t7_slice", 
      "attr": {"num_outputs": "4"}, 
      "inputs": [[242, 0, 0]]
    }, 
    {
      "op": "Activation", 
      "name": "lstm_l1_t7_o", 
      "attr": {"act_type": "sigmoid"}, 
      "inputs": [[243, 3, 0]]
    }, 
    {
      "op": "Activation", 
      "name": "lstm_l1_t7_f", 
      "attr": {"act_type": "sigmoid"}, 
      "inputs": [[243, 1, 0]]
    }, 
    {
      "op": "_mul", 
      "name": "_mul434", 
      "inputs": [[245, 0, 0], [223, 0, 0]]
    }, 
    {
      "op": "Activation", 
      "name": "lstm_l1_t7_i", 
      "attr": {"act_type": "sigmoid"}, 
      "inputs": [[243, 0, 0]]
    }, 
    {
      "op": "Activation", 
      "name": "lstm_l1_t7_c", 
      "attr": {"act_type": "tanh"}, 
      "inputs": [[243, 2, 0]]
    }, 
    {
      "op": "_mul", 
      "name": "_mul435", 
      "inputs": [[247, 0, 0], [248, 0, 0]]
    }, 
    {
      "op": "elemwise_add", 
      "name": "lstm_l1_t7_state", 
      "inputs": [[246, 0, 0], [249, 0, 0]]
    }, 
    {
      "op": "Activation", 
      "name": "activation217", 
      "attr": {"act_type": "tanh"}, 
      "inputs": [[250, 0, 0]]
    }, 
    {
      "op": "_mul", 
      "name": "lstm_l1_t7_out", 
      "inputs": [[244, 0, 0], [251, 0, 0]]
    }, 
    {
      "op": "expand_dims", 
      "name": "expand_dims77", 
      "attr": {"axis": "1"}, 
      "inputs": [[252, 0, 0]]
    }, 
    {
      "op": "FullyConnected", 
      "name": "lstm_l0_t8_i2h", 
      "attr": {"num_hidden": "1024"}, 
      "inputs": [[25, 8, 0], [26, 0, 0], [27, 0, 0]]
    }, 
    {
      "op": "FullyConnected", 
      "name": "lstm_l0_t8_h2h", 
      "attr": {"num_hidden": "1024"}, 
      "inputs": [[239, 0, 0], [30, 0, 0], [31, 0, 0]]
    }, 
    {
      "op": "elemwise_add", 
      "name": "_plus148", 
      "inputs": [[254, 0, 0], [255, 0, 0]]
    }, 
    {
      "op": "SliceChannel", 
      "name": "lstm_l0_t8_slice", 
      "attr": {"num_outputs": "4"}, 
      "inputs": [[256, 0, 0]]
    }, 
    {
      "op": "Activation", 
      "name": "lstm_l0_t8_o", 
      "attr": {"act_type": "sigmoid"}, 
      "inputs": [[257, 3, 0]]
    }, 
    {
      "op": "Activation", 
      "name": "lstm_l0_t8_f", 
      "attr": {"act_type": "sigmoid"}, 
      "inputs": [[257, 1, 0]]
    }, 
    {
      "op": "_mul", 
      "name": "_mul296", 
      "inputs": [[259, 0, 0], [237, 0, 0]]
    }, 
    {
      "op": "Activation", 
      "name": "lstm_l0_t8_i", 
      "attr": {"act_type": "sigmoid"}, 
      "inputs": [[257, 0, 0]]
    }, 
    {
      "op": "Activation", 
      "name": "lstm_l0_t8_c", 
      "attr": {"act_type": "tanh"}, 
      "inputs": [[257, 2, 0]]
    }, 
    {
      "op": "_mul", 
      "name": "_mul297", 
      "inputs": [[261, 0, 0], [262, 0, 0]]
    }, 
    {
      "op": "elemwise_add", 
      "name": "lstm_l0_t8_state", 
      "inputs": [[260, 0, 0], [263, 0, 0]]
    }, 
    {
      "op": "Activation", 
      "name": "activation148", 
      "attr": {"act_type": "tanh"}, 
      "inputs": [[264, 0, 0]]
    }, 
    {
      "op": "_mul", 
      "name": "lstm_l0_t8_out", 
      "inputs": [[258, 0, 0], [265, 0, 0]]
    }, 
    {
      "op": "FullyConnected", 
      "name": "lstm_l1_t8_i2h", 
      "attr": {"num_hidden": "1024"}, 
      "inputs": [[266, 0, 0], [45, 0, 0], [46, 0, 0]]
    }, 
    {
      "op": "FullyConnected", 
      "name": "lstm_l1_t8_h2h", 
      "attr": {"num_hidden": "1024"}, 
      "inputs": [[252, 0, 0], [49, 0, 0], [50, 0, 0]]
    }, 
    {
      "op": "elemwise_add", 
      "name": "_plus218", 
      "inputs": [[267, 0, 0], [268, 0, 0]]
    }, 
    {
      "op": "SliceChannel", 
      "name": "lstm_l1_t8_slice", 
      "attr": {"num_outputs": "4"}, 
      "inputs": [[269, 0, 0]]
    }, 
    {
      "op": "Activation", 
      "name": "lstm_l1_t8_o", 
      "attr": {"act_type": "sigmoid"}, 
      "inputs": [[270, 3, 0]]
    }, 
    {
      "op": "Activation", 
      "name": "lstm_l1_t8_f", 
      "attr": {"act_type": "sigmoid"}, 
      "inputs": [[270, 1, 0]]
    }, 
    {
      "op": "_mul", 
      "name": "_mul436", 
      "inputs": [[272, 0, 0], [250, 0, 0]]
    }, 
    {
      "op": "Activation", 
      "name": "lstm_l1_t8_i", 
      "attr": {"act_type": "sigmoid"}, 
      "inputs": [[270, 0, 0]]
    }, 
    {
      "op": "Activation", 
      "name": "lstm_l1_t8_c", 
      "attr": {"act_type": "tanh"}, 
      "inputs": [[270, 2, 0]]
    }, 
    {
      "op": "_mul", 
      "name": "_mul437", 
      "inputs": [[274, 0, 0], [275, 0, 0]]
    }, 
    {
      "op": "elemwise_add", 
      "name": "lstm_l1_t8_state", 
      "inputs": [[273, 0, 0], [276, 0, 0]]
    }, 
    {
      "op": "Activation", 
      "name": "activation218", 
      "attr": {"act_type": "tanh"}, 
      "inputs": [[277, 0, 0]]
    }, 
    {
      "op": "_mul", 
      "name": "lstm_l1_t8_out", 
      "inputs": [[271, 0, 0], [278, 0, 0]]
    }, 
    {
      "op": "expand_dims", 
      "name": "expand_dims78", 
      "attr": {"axis": "1"}, 
      "inputs": [[279, 0, 0]]
    }, 
    {
      "op": "FullyConnected", 
      "name": "lstm_l0_t9_i2h", 
      "attr": {"num_hidden": "1024"}, 
      "inputs": [[25, 9, 0], [26, 0, 0], [27, 0, 0]]
    }, 
    {
      "op": "FullyConnected", 
      "name": "lstm_l0_t9_h2h", 
      "attr": {"num_hidden": "1024"}, 
      "inputs": [[266, 0, 0], [30, 0, 0], [31, 0, 0]]
    }, 
    {
      "op": "elemwise_add", 
      "name": "_plus149", 
      "inputs": [[281, 0, 0], [282, 0, 0]]
    }, 
    {
      "op": "SliceChannel", 
      "name": "lstm_l0_t9_slice", 
      "attr": {"num_outputs": "4"}, 
      "inputs": [[283, 0, 0]]
    }, 
    {
      "op": "Activation", 
      "name": "lstm_l0_t9_o", 
      "attr": {"act_type": "sigmoid"}, 
      "inputs": [[284, 3, 0]]
    }, 
    {
      "op": "Activation", 
      "name": "lstm_l0_t9_f", 
      "attr": {"act_type": "sigmoid"}, 
      "inputs": [[284, 1, 0]]
    }, 
    {
      "op": "_mul", 
      "name": "_mul298", 
      "inputs": [[286, 0, 0], [264, 0, 0]]
    }, 
    {
      "op": "Activation", 
      "name": "lstm_l0_t9_i", 
      "attr": {"act_type": "sigmoid"}, 
      "inputs": [[284, 0, 0]]
    }, 
    {
      "op": "Activation", 
      "name": "lstm_l0_t9_c", 
      "attr": {"act_type": "tanh"}, 
      "inputs": [[284, 2, 0]]
    }, 
    {
      "op": "_mul", 
      "name": "_mul299", 
      "inputs": [[288, 0, 0], [289, 0, 0]]
    }, 
    {
      "op": "elemwise_add", 
      "name": "lstm_l0_t9_state", 
      "inputs": [[287, 0, 0], [290, 0, 0]]
    }, 
    {
      "op": "Activation", 
      "name": "activation149", 
      "attr": {"act_type": "tanh"}, 
      "inputs": [[291, 0, 0]]
    }, 
    {
      "op": "_mul", 
      "name": "lstm_l0_t9_out", 
      "inputs": [[285, 0, 0], [292, 0, 0]]
    }, 
    {
      "op": "FullyConnected", 
      "name": "lstm_l1_t9_i2h", 
      "attr": {"num_hidden": "1024"}, 
      "inputs": [[293, 0, 0], [45, 0, 0], [46, 0, 0]]
    }, 
    {
      "op": "FullyConnected", 
      "name": "lstm_l1_t9_h2h", 
      "attr": {"num_hidden": "1024"}, 
      "inputs": [[279, 0, 0], [49, 0, 0], [50, 0, 0]]
    }, 
    {
      "op": "elemwise_add", 
      "name": "_plus219", 
      "inputs": [[294, 0, 0], [295, 0, 0]]
    }, 
    {
      "op": "SliceChannel", 
      "name": "lstm_l1_t9_slice", 
      "attr": {"num_outputs": "4"}, 
      "inputs": [[296, 0, 0]]
    }, 
    {
      "op": "Activation", 
      "name": "lstm_l1_t9_o", 
      "attr": {"act_type": "sigmoid"}, 
      "inputs": [[297, 3, 0]]
    }, 
    {
      "op": "Activation", 
      "name": "lstm_l1_t9_f", 
      "attr": {"act_type": "sigmoid"}, 
      "inputs": [[297, 1, 0]]
    }, 
    {
      "op": "_mul", 
      "name": "_mul438", 
      "inputs": [[299, 0, 0], [277, 0, 0]]
    }, 
    {
      "op": "Activation", 
      "name": "lstm_l1_t9_i", 
      "attr": {"act_type": "sigmoid"}, 
      "inputs": [[297, 0, 0]]
    }, 
    {
      "op": "Activation", 
      "name": "lstm_l1_t9_c", 
      "attr": {"act_type": "tanh"}, 
      "inputs": [[297, 2, 0]]
    }, 
    {
      "op": "_mul", 
      "name": "_mul439", 
      "inputs": [[301, 0, 0], [302, 0, 0]]
    }, 
    {
      "op": "elemwise_add", 
      "name": "lstm_l1_t9_state", 
      "inputs": [[300, 0, 0], [303, 0, 0]]
    }, 
    {
      "op": "Activation", 
      "name": "activation219", 
      "attr": {"act_type": "tanh"}, 
      "inputs": [[304, 0, 0]]
    }, 
    {
      "op": "_mul", 
      "name": "lstm_l1_t9_out", 
      "inputs": [[298, 0, 0], [305, 0, 0]]
    }, 
    {
      "op": "expand_dims", 
      "name": "expand_dims79", 
      "attr": {"axis": "1"}, 
      "inputs": [[306, 0, 0]]
    }, 
    {
      "op": "FullyConnected", 
      "name": "lstm_l0_t10_i2h", 
      "attr": {"num_hidden": "1024"}, 
      "inputs": [[25, 10, 0], [26, 0, 0], [27, 0, 0]]
    }, 
    {
      "op": "FullyConnected", 
      "name": "lstm_l0_t10_h2h", 
      "attr": {"num_hidden": "1024"}, 
      "inputs": [[293, 0, 0], [30, 0, 0], [31, 0, 0]]
    }, 
    {
      "op": "elemwise_add", 
      "name": "_plus150", 
      "inputs": [[308, 0, 0], [309, 0, 0]]
    }, 
    {
      "op": "SliceChannel", 
      "name": "lstm_l0_t10_slice", 
      "attr": {"num_outputs": "4"}, 
      "inputs": [[310, 0, 0]]
    }, 
    {
      "op": "Activation", 
      "name": "lstm_l0_t10_o", 
      "attr": {"act_type": "sigmoid"}, 
      "inputs": [[311, 3, 0]]
    }, 
    {
      "op": "Activation", 
      "name": "lstm_l0_t10_f", 
      "attr": {"act_type": "sigmoid"}, 
      "inputs": [[311, 1, 0]]
    }, 
    {
      "op": "_mul", 
      "name": "_mul300", 
      "inputs": [[313, 0, 0], [291, 0, 0]]
    }, 
    {
      "op": "Activation", 
      "name": "lstm_l0_t10_i", 
      "attr": {"act_type": "sigmoid"}, 
      "inputs": [[311, 0, 0]]
    }, 
    {
      "op": "Activation", 
      "name": "lstm_l0_t10_c", 
      "attr": {"act_type": "tanh"}, 
      "inputs": [[311, 2, 0]]
    }, 
    {
      "op": "_mul", 
      "name": "_mul301", 
      "inputs": [[315, 0, 0], [316, 0, 0]]
    }, 
    {
      "op": "elemwise_add", 
      "name": "lstm_l0_t10_state", 
      "inputs": [[314, 0, 0], [317, 0, 0]]
    }, 
    {
      "op": "Activation", 
      "name": "activation150", 
      "attr": {"act_type": "tanh"}, 
      "inputs": [[318, 0, 0]]
    }, 
    {
      "op": "_mul", 
      "name": "lstm_l0_t10_out", 
      "inputs": [[312, 0, 0], [319, 0, 0]]
    }, 
    {
      "op": "FullyConnected", 
      "name": "lstm_l1_t10_i2h", 
      "attr": {"num_hidden": "1024"}, 
      "inputs": [[320, 0, 0], [45, 0, 0], [46, 0, 0]]
    }, 
    {
      "op": "FullyConnected", 
      "name": "lstm_l1_t10_h2h", 
      "attr": {"num_hidden": "1024"}, 
      "inputs": [[306, 0, 0], [49, 0, 0], [50, 0, 0]]
    }, 
    {
      "op": "elemwise_add", 
      "name": "_plus220", 
      "inputs": [[321, 0, 0], [322, 0, 0]]
    }, 
    {
      "op": "SliceChannel", 
      "name": "lstm_l1_t10_slice", 
      "attr": {"num_outputs": "4"}, 
      "inputs": [[323, 0, 0]]
    }, 
    {
      "op": "Activation", 
      "name": "lstm_l1_t10_o", 
      "attr": {"act_type": "sigmoid"}, 
      "inputs": [[324, 3, 0]]
    }, 
    {
      "op": "Activation", 
      "name": "lstm_l1_t10_f", 
      "attr": {"act_type": "sigmoid"}, 
      "inputs": [[324, 1, 0]]
    }, 
    {
      "op": "_mul", 
      "name": "_mul440", 
      "inputs": [[326, 0, 0], [304, 0, 0]]
    }, 
    {
      "op": "Activation", 
      "name": "lstm_l1_t10_i", 
      "attr": {"act_type": "sigmoid"}, 
      "inputs": [[324, 0, 0]]
    }, 
    {
      "op": "Activation", 
      "name": "lstm_l1_t10_c", 
      "attr": {"act_type": "tanh"}, 
      "inputs": [[324, 2, 0]]
    }, 
    {
      "op": "_mul", 
      "name": "_mul441", 
      "inputs": [[328, 0, 0], [329, 0, 0]]
    }, 
    {
      "op": "elemwise_add", 
      "name": "lstm_l1_t10_state", 
      "inputs": [[327, 0, 0], [330, 0, 0]]
    }, 
    {
      "op": "Activation", 
      "name": "activation220", 
      "attr": {"act_type": "tanh"}, 
      "inputs": [[331, 0, 0]]
    }, 
    {
      "op": "_mul", 
      "name": "lstm_l1_t10_out", 
      "inputs": [[325, 0, 0], [332, 0, 0]]
    }, 
    {
      "op": "expand_dims", 
      "name": "expand_dims80", 
      "attr": {"axis": "1"}, 
      "inputs": [[333, 0, 0]]
    }, 
    {
      "op": "FullyConnected", 
      "name": "lstm_l0_t11_i2h", 
      "attr": {"num_hidden": "1024"}, 
      "inputs": [[25, 11, 0], [26, 0, 0], [27, 0, 0]]
    }, 
    {
      "op": "FullyConnected", 
      "name": "lstm_l0_t11_h2h", 
      "attr": {"num_hidden": "1024"}, 
      "inputs": [[320, 0, 0], [30, 0, 0], [31, 0, 0]]
    }, 
    {
      "op": "elemwise_add", 
      "name": "_plus151", 
      "inputs": [[335, 0, 0], [336, 0, 0]]
    }, 
    {
      "op": "SliceChannel", 
      "name": "lstm_l0_t11_slice", 
      "attr": {"num_outputs": "4"}, 
      "inputs": [[337, 0, 0]]
    }, 
    {
      "op": "Activation", 
      "name": "lstm_l0_t11_o", 
      "attr": {"act_type": "sigmoid"}, 
      "inputs": [[338, 3, 0]]
    }, 
    {
      "op": "Activation", 
      "name": "lstm_l0_t11_f", 
      "attr": {"act_type": "sigmoid"}, 
      "inputs": [[338, 1, 0]]
    }, 
    {
      "op": "_mul", 
      "name": "_mul302", 
      "inputs": [[340, 0, 0], [318, 0, 0]]
    }, 
    {
      "op": "Activation", 
      "name": "lstm_l0_t11_i", 
      "attr": {"act_type": "sigmoid"}, 
      "inputs": [[338, 0, 0]]
    }, 
    {
      "op": "Activation", 
      "name": "lstm_l0_t11_c", 
      "attr": {"act_type": "tanh"}, 
      "inputs": [[338, 2, 0]]
    }, 
    {
      "op": "_mul", 
      "name": "_mul303", 
      "inputs": [[342, 0, 0], [343, 0, 0]]
    }, 
    {
      "op": "elemwise_add", 
      "name": "lstm_l0_t11_state", 
      "inputs": [[341, 0, 0], [344, 0, 0]]
    }, 
    {
      "op": "Activation", 
      "name": "activation151", 
      "attr": {"act_type": "tanh"}, 
      "inputs": [[345, 0, 0]]
    }, 
    {
      "op": "_mul", 
      "name": "lstm_l0_t11_out", 
      "inputs": [[339, 0, 0], [346, 0, 0]]
    }, 
    {
      "op": "FullyConnected", 
      "name": "lstm_l1_t11_i2h", 
      "attr": {"num_hidden": "1024"}, 
      "inputs": [[347, 0, 0], [45, 0, 0], [46, 0, 0]]
    }, 
    {
      "op": "FullyConnected", 
      "name": "lstm_l1_t11_h2h", 
      "attr": {"num_hidden": "1024"}, 
      "inputs": [[333, 0, 0], [49, 0, 0], [50, 0, 0]]
    }, 
    {
      "op": "elemwise_add", 
      "name": "_plus221", 
      "inputs": [[348, 0, 0], [349, 0, 0]]
    }, 
    {
      "op": "SliceChannel", 
      "name": "lstm_l1_t11_slice", 
      "attr": {"num_outputs": "4"}, 
      "inputs": [[350, 0, 0]]
    }, 
    {
      "op": "Activation", 
      "name": "lstm_l1_t11_o", 
      "attr": {"act_type": "sigmoid"}, 
      "inputs": [[351, 3, 0]]
    }, 
    {
      "op": "Activation", 
      "name": "lstm_l1_t11_f", 
      "attr": {"act_type": "sigmoid"}, 
      "inputs": [[351, 1, 0]]
    }, 
    {
      "op": "_mul", 
      "name": "_mul442", 
      "inputs": [[353, 0, 0], [331, 0, 0]]
    }, 
    {
      "op": "Activation", 
      "name": "lstm_l1_t11_i", 
      "attr": {"act_type": "sigmoid"}, 
      "inputs": [[351, 0, 0]]
    }, 
    {
      "op": "Activation", 
      "name": "lstm_l1_t11_c", 
      "attr": {"act_type": "tanh"}, 
      "inputs": [[351, 2, 0]]
    }, 
    {
      "op": "_mul", 
      "name": "_mul443", 
      "inputs": [[355, 0, 0], [356, 0, 0]]
    }, 
    {
      "op": "elemwise_add", 
      "name": "lstm_l1_t11_state", 
      "inputs": [[354, 0, 0], [357, 0, 0]]
    }, 
    {
      "op": "Activation", 
      "name": "activation221", 
      "attr": {"act_type": "tanh"}, 
      "inputs": [[358, 0, 0]]
    }, 
    {
      "op": "_mul", 
      "name": "lstm_l1_t11_out", 
      "inputs": [[352, 0, 0], [359, 0, 0]]
    }, 
    {
      "op": "expand_dims", 
      "name": "expand_dims81", 
      "attr": {"axis": "1"}, 
      "inputs": [[360, 0, 0]]
    }, 
    {
      "op": "FullyConnected", 
      "name": "lstm_l0_t12_i2h", 
      "attr": {"num_hidden": "1024"}, 
      "inputs": [[25, 12, 0], [26, 0, 0], [27, 0, 0]]
    }, 
    {
      "op": "FullyConnected", 
      "name": "lstm_l0_t12_h2h", 
      "attr": {"num_hidden": "1024"}, 
      "inputs": [[347, 0, 0], [30, 0, 0], [31, 0, 0]]
    }, 
    {
      "op": "elemwise_add", 
      "name": "_plus152", 
      "inputs": [[362, 0, 0], [363, 0, 0]]
    }, 
    {
      "op": "SliceChannel", 
      "name": "lstm_l0_t12_slice", 
      "attr": {"num_outputs": "4"}, 
      "inputs": [[364, 0, 0]]
    }, 
    {
      "op": "Activation", 
      "name": "lstm_l0_t12_o", 
      "attr": {"act_type": "sigmoid"}, 
      "inputs": [[365, 3, 0]]
    }, 
    {
      "op": "Activation", 
      "name": "lstm_l0_t12_f", 
      "attr": {"act_type": "sigmoid"}, 
      "inputs": [[365, 1, 0]]
    }, 
    {
      "op": "_mul", 
      "name": "_mul304", 
      "inputs": [[367, 0, 0], [345, 0, 0]]
    }, 
    {
      "op": "Activation", 
      "name": "lstm_l0_t12_i", 
      "attr": {"act_type": "sigmoid"}, 
      "inputs": [[365, 0, 0]]
    }, 
    {
      "op": "Activation", 
      "name": "lstm_l0_t12_c", 
      "attr": {"act_type": "tanh"}, 
      "inputs": [[365, 2, 0]]
    }, 
    {
      "op": "_mul", 
      "name": "_mul305", 
      "inputs": [[369, 0, 0], [370, 0, 0]]
    }, 
    {
      "op": "elemwise_add", 
      "name": "lstm_l0_t12_state", 
      "inputs": [[368, 0, 0], [371, 0, 0]]
    }, 
    {
      "op": "Activation", 
      "name": "activation152", 
      "attr": {"act_type": "tanh"}, 
      "inputs": [[372, 0, 0]]
    }, 
    {
      "op": "_mul", 
      "name": "lstm_l0_t12_out", 
      "inputs": [[366, 0, 0], [373, 0, 0]]
    }, 
    {
      "op": "FullyConnected", 
      "name": "lstm_l1_t12_i2h", 
      "attr": {"num_hidden": "1024"}, 
      "inputs": [[374, 0, 0], [45, 0, 0], [46, 0, 0]]
    }, 
    {
      "op": "FullyConnected", 
      "name": "lstm_l1_t12_h2h", 
      "attr": {"num_hidden": "1024"}, 
      "inputs": [[360, 0, 0], [49, 0, 0], [50, 0, 0]]
    }, 
    {
      "op": "elemwise_add", 
      "name": "_plus222", 
      "inputs": [[375, 0, 0], [376, 0, 0]]
    }, 
    {
      "op": "SliceChannel", 
      "name": "lstm_l1_t12_slice", 
      "attr": {"num_outputs": "4"}, 
      "inputs": [[377, 0, 0]]
    }, 
    {
      "op": "Activation", 
      "name": "lstm_l1_t12_o", 
      "attr": {"act_type": "sigmoid"}, 
      "inputs": [[378, 3, 0]]
    }, 
    {
      "op": "Activation", 
      "name": "lstm_l1_t12_f", 
      "attr": {"act_type": "sigmoid"}, 
      "inputs": [[378, 1, 0]]
    }, 
    {
      "op": "_mul", 
      "name": "_mul444", 
      "inputs": [[380, 0, 0], [358, 0, 0]]
    }, 
    {
      "op": "Activation", 
      "name": "lstm_l1_t12_i", 
      "attr": {"act_type": "sigmoid"}, 
      "inputs": [[378, 0, 0]]
    }, 
    {
      "op": "Activation", 
      "name": "lstm_l1_t12_c", 
      "attr": {"act_type": "tanh"}, 
      "inputs": [[378, 2, 0]]
    }, 
    {
      "op": "_mul", 
      "name": "_mul445", 
      "inputs": [[382, 0, 0], [383, 0, 0]]
    }, 
    {
      "op": "elemwise_add", 
      "name": "lstm_l1_t12_state", 
      "inputs": [[381, 0, 0], [384, 0, 0]]
    }, 
    {
      "op": "Activation", 
      "name": "activation222", 
      "attr": {"act_type": "tanh"}, 
      "inputs": [[385, 0, 0]]
    }, 
    {
      "op": "_mul", 
      "name": "lstm_l1_t12_out", 
      "inputs": [[379, 0, 0], [386, 0, 0]]
    }, 
    {
      "op": "expand_dims", 
      "name": "expand_dims82", 
      "attr": {"axis": "1"}, 
      "inputs": [[387, 0, 0]]
    }, 
    {
      "op": "FullyConnected", 
      "name": "lstm_l0_t13_i2h", 
      "attr": {"num_hidden": "1024"}, 
      "inputs": [[25, 13, 0], [26, 0, 0], [27, 0, 0]]
    }, 
    {
      "op": "FullyConnected", 
      "name": "lstm_l0_t13_h2h", 
      "attr": {"num_hidden": "1024"}, 
      "inputs": [[374, 0, 0], [30, 0, 0], [31, 0, 0]]
    }, 
    {
      "op": "elemwise_add", 
      "name": "_plus153", 
      "inputs": [[389, 0, 0], [390, 0, 0]]
    }, 
    {
      "op": "SliceChannel", 
      "name": "lstm_l0_t13_slice", 
      "attr": {"num_outputs": "4"}, 
      "inputs": [[391, 0, 0]]
    }, 
    {
      "op": "Activation", 
      "name": "lstm_l0_t13_o", 
      "attr": {"act_type": "sigmoid"}, 
      "inputs": [[392, 3, 0]]
    }, 
    {
      "op": "Activation", 
      "name": "lstm_l0_t13_f", 
      "attr": {"act_type": "sigmoid"}, 
      "inputs": [[392, 1, 0]]
    }, 
    {
      "op": "_mul", 
      "name": "_mul306", 
      "inputs": [[394, 0, 0], [372, 0, 0]]
    }, 
    {
      "op": "Activation", 
      "name": "lstm_l0_t13_i", 
      "attr": {"act_type": "sigmoid"}, 
      "inputs": [[392, 0, 0]]
    }, 
    {
      "op": "Activation", 
      "name": "lstm_l0_t13_c", 
      "attr": {"act_type": "tanh"}, 
      "inputs": [[392, 2, 0]]
    }, 
    {
      "op": "_mul", 
      "name": "_mul307", 
      "inputs": [[396, 0, 0], [397, 0, 0]]
    }, 
    {
      "op": "elemwise_add", 
      "name": "lstm_l0_t13_state", 
      "inputs": [[395, 0, 0], [398, 0, 0]]
    }, 
    {
      "op": "Activation", 
      "name": "activation153", 
      "attr": {"act_type": "tanh"}, 
      "inputs": [[399, 0, 0]]
    }, 
    {
      "op": "_mul", 
      "name": "lstm_l0_t13_out", 
      "inputs": [[393, 0, 0], [400, 0, 0]]
    }, 
    {
      "op": "FullyConnected", 
      "name": "lstm_l1_t13_i2h", 
      "attr": {"num_hidden": "1024"}, 
      "inputs": [[401, 0, 0], [45, 0, 0], [46, 0, 0]]
    }, 
    {
      "op": "FullyConnected", 
      "name": "lstm_l1_t13_h2h", 
      "attr": {"num_hidden": "1024"}, 
      "inputs": [[387, 0, 0], [49, 0, 0], [50, 0, 0]]
    }, 
    {
      "op": "elemwise_add", 
      "name": "_plus223", 
      "inputs": [[402, 0, 0], [403, 0, 0]]
    }, 
    {
      "op": "SliceChannel", 
      "name": "lstm_l1_t13_slice", 
      "attr": {"num_outputs": "4"}, 
      "inputs": [[404, 0, 0]]
    }, 
    {
      "op": "Activation", 
      "name": "lstm_l1_t13_o", 
      "attr": {"act_type": "sigmoid"}, 
      "inputs": [[405, 3, 0]]
    }, 
    {
      "op": "Activation", 
      "name": "lstm_l1_t13_f", 
      "attr": {"act_type": "sigmoid"}, 
      "inputs": [[405, 1, 0]]
    }, 
    {
      "op": "_mul", 
      "name": "_mul446", 
      "inputs": [[407, 0, 0], [385, 0, 0]]
    }, 
    {
      "op": "Activation", 
      "name": "lstm_l1_t13_i", 
      "attr": {"act_type": "sigmoid"}, 
      "inputs": [[405, 0, 0]]
    }, 
    {
      "op": "Activation", 
      "name": "lstm_l1_t13_c", 
      "attr": {"act_type": "tanh"}, 
      "inputs": [[405, 2, 0]]
    }, 
    {
      "op": "_mul", 
      "name": "_mul447", 
      "inputs": [[409, 0, 0], [410, 0, 0]]
    }, 
    {
      "op": "elemwise_add", 
      "name": "lstm_l1_t13_state", 
      "inputs": [[408, 0, 0], [411, 0, 0]]
    }, 
    {
      "op": "Activation", 
      "name": "activation223", 
      "attr": {"act_type": "tanh"}, 
      "inputs": [[412, 0, 0]]
    }, 
    {
      "op": "_mul", 
      "name": "lstm_l1_t13_out", 
      "inputs": [[406, 0, 0], [413, 0, 0]]
    }, 
    {
      "op": "expand_dims", 
      "name": "expand_dims83", 
      "attr": {"axis": "1"}, 
      "inputs": [[414, 0, 0]]
    }, 
    {
      "op": "FullyConnected", 
      "name": "lstm_l0_t14_i2h", 
      "attr": {"num_hidden": "1024"}, 
      "inputs": [[25, 14, 0], [26, 0, 0], [27, 0, 0]]
    }, 
    {
      "op": "FullyConnected", 
      "name": "lstm_l0_t14_h2h", 
      "attr": {"num_hidden": "1024"}, 
      "inputs": [[401, 0, 0], [30, 0, 0], [31, 0, 0]]
    }, 
    {
      "op": "elemwise_add", 
      "name": "_plus154", 
      "inputs": [[416, 0, 0], [417, 0, 0]]
    }, 
    {
      "op": "SliceChannel", 
      "name": "lstm_l0_t14_slice", 
      "attr": {"num_outputs": "4"}, 
      "inputs": [[418, 0, 0]]
    }, 
    {
      "op": "Activation", 
      "name": "lstm_l0_t14_o", 
      "attr": {"act_type": "sigmoid"}, 
      "inputs": [[419, 3, 0]]
    }, 
    {
      "op": "Activation", 
      "name": "lstm_l0_t14_f", 
      "attr": {"act_type": "sigmoid"}, 
      "inputs": [[419, 1, 0]]
    }, 
    {
      "op": "_mul", 
      "name": "_mul308", 
      "inputs": [[421, 0, 0], [399, 0, 0]]
    }, 
    {
      "op": "Activation", 
      "name": "lstm_l0_t14_i", 
      "attr": {"act_type": "sigmoid"}, 
      "inputs": [[419, 0, 0]]
    }, 
    {
      "op": "Activation", 
      "name": "lstm_l0_t14_c", 
      "attr": {"act_type": "tanh"}, 
      "inputs": [[419, 2, 0]]
    }, 
    {
      "op": "_mul", 
      "name": "_mul309", 
      "inputs": [[423, 0, 0], [424, 0, 0]]
    }, 
    {
      "op": "elemwise_add", 
      "name": "lstm_l0_t14_state", 
      "inputs": [[422, 0, 0], [425, 0, 0]]
    }, 
    {
      "op": "Activation", 
      "name": "activation154", 
      "attr": {"act_type": "tanh"}, 
      "inputs": [[426, 0, 0]]
    }, 
    {
      "op": "_mul", 
      "name": "lstm_l0_t14_out", 
      "inputs": [[420, 0, 0], [427, 0, 0]]
    }, 
    {
      "op": "FullyConnected", 
      "name": "lstm_l1_t14_i2h", 
      "attr": {"num_hidden": "1024"}, 
      "inputs": [[428, 0, 0], [45, 0, 0], [46, 0, 0]]
    }, 
    {
      "op": "FullyConnected", 
      "name": "lstm_l1_t14_h2h", 
      "attr": {"num_hidden": "1024"}, 
      "inputs": [[414, 0, 0], [49, 0, 0], [50, 0, 0]]
    }, 
    {
      "op": "elemwise_add", 
      "name": "_plus224", 
      "inputs": [[429, 0, 0], [430, 0, 0]]
    }, 
    {
      "op": "SliceChannel", 
      "name": "lstm_l1_t14_slice", 
      "attr": {"num_outputs": "4"}, 
      "inputs": [[431, 0, 0]]
    }, 
    {
      "op": "Activation", 
      "name": "lstm_l1_t14_o", 
      "attr": {"act_type": "sigmoid"}, 
      "inputs": [[432, 3, 0]]
    }, 
    {
      "op": "Activation", 
      "name": "lstm_l1_t14_f", 
      "attr": {"act_type": "sigmoid"}, 
      "inputs": [[432, 1, 0]]
    }, 
    {
      "op": "_mul", 
      "name": "_mul448", 
      "inputs": [[434, 0, 0], [412, 0, 0]]
    }, 
    {
      "op": "Activation", 
      "name": "lstm_l1_t14_i", 
      "attr": {"act_type": "sigmoid"}, 
      "inputs": [[432, 0, 0]]
    }, 
    {
      "op": "Activation", 
      "name": "lstm_l1_t14_c", 
      "attr": {"act_type": "tanh"}, 
      "inputs": [[432, 2, 0]]
    }, 
    {
      "op": "_mul", 
      "name": "_mul449", 
      "inputs": [[436, 0, 0], [437, 0, 0]]
    }, 
    {
      "op": "elemwise_add", 
      "name": "lstm_l1_t14_state", 
      "inputs": [[435, 0, 0], [438, 0, 0]]
    }, 
    {
      "op": "Activation", 
      "name": "activation224", 
      "attr": {"act_type": "tanh"}, 
      "inputs": [[439, 0, 0]]
    }, 
    {
      "op": "_mul", 
      "name": "lstm_l1_t14_out", 
      "inputs": [[433, 0, 0], [440, 0, 0]]
    }, 
    {
      "op": "expand_dims", 
      "name": "expand_dims84", 
      "attr": {"axis": "1"}, 
      "inputs": [[441, 0, 0]]
    }, 
    {
      "op": "FullyConnected", 
      "name": "lstm_l0_t15_i2h", 
      "attr": {"num_hidden": "1024"}, 
      "inputs": [[25, 15, 0], [26, 0, 0], [27, 0, 0]]
    }, 
    {
      "op": "FullyConnected", 
      "name": "lstm_l0_t15_h2h", 
      "attr": {"num_hidden": "1024"}, 
      "inputs": [[428, 0, 0], [30, 0, 0], [31, 0, 0]]
    }, 
    {
      "op": "elemwise_add", 
      "name": "_plus155", 
      "inputs": [[443, 0, 0], [444, 0, 0]]
    }, 
    {
      "op": "SliceChannel", 
      "name": "lstm_l0_t15_slice", 
      "attr": {"num_outputs": "4"}, 
      "inputs": [[445, 0, 0]]
    }, 
    {
      "op": "Activation", 
      "name": "lstm_l0_t15_o", 
      "attr": {"act_type": "sigmoid"}, 
      "inputs": [[446, 3, 0]]
    }, 
    {
      "op": "Activation", 
      "name": "lstm_l0_t15_f", 
      "attr": {"act_type": "sigmoid"}, 
      "inputs": [[446, 1, 0]]
    }, 
    {
      "op": "_mul", 
      "name": "_mul310", 
      "inputs": [[448, 0, 0], [426, 0, 0]]
    }, 
    {
      "op": "Activation", 
      "name": "lstm_l0_t15_i", 
      "attr": {"act_type": "sigmoid"}, 
      "inputs": [[446, 0, 0]]
    }, 
    {
      "op": "Activation", 
      "name": "lstm_l0_t15_c", 
      "attr": {"act_type": "tanh"}, 
      "inputs": [[446, 2, 0]]
    }, 
    {
      "op": "_mul", 
      "name": "_mul311", 
      "inputs": [[450, 0, 0], [451, 0, 0]]
    }, 
    {
      "op": "elemwise_add", 
      "name": "lstm_l0_t15_state", 
      "inputs": [[449, 0, 0], [452, 0, 0]]
    }, 
    {
      "op": "Activation", 
      "name": "activation155", 
      "attr": {"act_type": "tanh"}, 
      "inputs": [[453, 0, 0]]
    }, 
    {
      "op": "_mul", 
      "name": "lstm_l0_t15_out", 
      "inputs": [[447, 0, 0], [454, 0, 0]]
    }, 
    {
      "op": "FullyConnected", 
      "name": "lstm_l1_t15_i2h", 
      "attr": {"num_hidden": "1024"}, 
      "inputs": [[455, 0, 0], [45, 0, 0], [46, 0, 0]]
    }, 
    {
      "op": "FullyConnected", 
      "name": "lstm_l1_t15_h2h", 
      "attr": {"num_hidden": "1024"}, 
      "inputs": [[441, 0, 0], [49, 0, 0], [50, 0, 0]]
    }, 
    {
      "op": "elemwise_add", 
      "name": "_plus225", 
      "inputs": [[456, 0, 0], [457, 0, 0]]
    }, 
    {
      "op": "SliceChannel", 
      "name": "lstm_l1_t15_slice", 
      "attr": {"num_outputs": "4"}, 
      "inputs": [[458, 0, 0]]
    }, 
    {
      "op": "Activation", 
      "name": "lstm_l1_t15_o", 
      "attr": {"act_type": "sigmoid"}, 
      "inputs": [[459, 3, 0]]
    }, 
    {
      "op": "Activation", 
      "name": "lstm_l1_t15_f", 
      "attr": {"act_type": "sigmoid"}, 
      "inputs": [[459, 1, 0]]
    }, 
    {
      "op": "_mul", 
      "name": "_mul450", 
      "inputs": [[461, 0, 0], [439, 0, 0]]
    }, 
    {
      "op": "Activation", 
      "name": "lstm_l1_t15_i", 
      "attr": {"act_type": "sigmoid"}, 
      "inputs": [[459, 0, 0]]
    }, 
    {
      "op": "Activation", 
      "name": "lstm_l1_t15_c", 
      "attr": {"act_type": "tanh"}, 
      "inputs": [[459, 2, 0]]
    }, 
    {
      "op": "_mul", 
      "name": "_mul451", 
      "inputs": [[463, 0, 0], [464, 0, 0]]
    }, 
    {
      "op": "elemwise_add", 
      "name": "lstm_l1_t15_state", 
      "inputs": [[462, 0, 0], [465, 0, 0]]
    }, 
    {
      "op": "Activation", 
      "name": "activation225", 
      "attr": {"act_type": "tanh"}, 
      "inputs": [[466, 0, 0]]
    }, 
    {
      "op": "_mul", 
      "name": "lstm_l1_t15_out", 
      "inputs": [[460, 0, 0], [467, 0, 0]]
    }, 
    {
      "op": "expand_dims", 
      "name": "expand_dims85", 
      "attr": {"axis": "1"}, 
      "inputs": [[468, 0, 0]]
    }, 
    {
      "op": "FullyConnected", 
      "name": "lstm_l0_t16_i2h", 
      "attr": {"num_hidden": "1024"}, 
      "inputs": [[25, 16, 0], [26, 0, 0], [27, 0, 0]]
    }, 
    {
      "op": "FullyConnected", 
      "name": "lstm_l0_t16_h2h", 
      "attr": {"num_hidden": "1024"}, 
      "inputs": [[455, 0, 0], [30, 0, 0], [31, 0, 0]]
    }, 
    {
      "op": "elemwise_add", 
      "name": "_plus156", 
      "inputs": [[470, 0, 0], [471, 0, 0]]
    }, 
    {
      "op": "SliceChannel", 
      "name": "lstm_l0_t16_slice", 
      "attr": {"num_outputs": "4"}, 
      "inputs": [[472, 0, 0]]
    }, 
    {
      "op": "Activation", 
      "name": "lstm_l0_t16_o", 
      "attr": {"act_type": "sigmoid"}, 
      "inputs": [[473, 3, 0]]
    }, 
    {
      "op": "Activation", 
      "name": "lstm_l0_t16_f", 
      "attr": {"act_type": "sigmoid"}, 
      "inputs": [[473, 1, 0]]
    }, 
    {
      "op": "_mul", 
      "name": "_mul312", 
      "inputs": [[475, 0, 0], [453, 0, 0]]
    }, 
    {
      "op": "Activation", 
      "name": "lstm_l0_t16_i", 
      "attr": {"act_type": "sigmoid"}, 
      "inputs": [[473, 0, 0]]
    }, 
    {
      "op": "Activation", 
      "name": "lstm_l0_t16_c", 
      "attr": {"act_type": "tanh"}, 
      "inputs": [[473, 2, 0]]
    }, 
    {
      "op": "_mul", 
      "name": "_mul313", 
      "inputs": [[477, 0, 0], [478, 0, 0]]
    }, 
    {
      "op": "elemwise_add", 
      "name": "lstm_l0_t16_state", 
      "inputs": [[476, 0, 0], [479, 0, 0]]
    }, 
    {
      "op": "Activation", 
      "name": "activation156", 
      "attr": {"act_type": "tanh"}, 
      "inputs": [[480, 0, 0]]
    }, 
    {
      "op": "_mul", 
      "name": "lstm_l0_t16_out", 
      "inputs": [[474, 0, 0], [481, 0, 0]]
    }, 
    {
      "op": "FullyConnected", 
      "name": "lstm_l1_t16_i2h", 
      "attr": {"num_hidden": "1024"}, 
      "inputs": [[482, 0, 0], [45, 0, 0], [46, 0, 0]]
    }, 
    {
      "op": "FullyConnected", 
      "name": "lstm_l1_t16_h2h", 
      "attr": {"num_hidden": "1024"}, 
      "inputs": [[468, 0, 0], [49, 0, 0], [50, 0, 0]]
    }, 
    {
      "op": "elemwise_add", 
      "name": "_plus226", 
      "inputs": [[483, 0, 0], [484, 0, 0]]
    }, 
    {
      "op": "SliceChannel", 
      "name": "lstm_l1_t16_slice", 
      "attr": {"num_outputs": "4"}, 
      "inputs": [[485, 0, 0]]
    }, 
    {
      "op": "Activation", 
      "name": "lstm_l1_t16_o", 
      "attr": {"act_type": "sigmoid"}, 
      "inputs": [[486, 3, 0]]
    }, 
    {
      "op": "Activation", 
      "name": "lstm_l1_t16_f", 
      "attr": {"act_type": "sigmoid"}, 
      "inputs": [[486, 1, 0]]
    }, 
    {
      "op": "_mul", 
      "name": "_mul452", 
      "inputs": [[488, 0, 0], [466, 0, 0]]
    }, 
    {
      "op": "Activation", 
      "name": "lstm_l1_t16_i", 
      "attr": {"act_type": "sigmoid"}, 
      "inputs": [[486, 0, 0]]
    }, 
    {
      "op": "Activation", 
      "name": "lstm_l1_t16_c", 
      "attr": {"act_type": "tanh"}, 
      "inputs": [[486, 2, 0]]
    }, 
    {
      "op": "_mul", 
      "name": "_mul453", 
      "inputs": [[490, 0, 0], [491, 0, 0]]
    }, 
    {
      "op": "elemwise_add", 
      "name": "lstm_l1_t16_state", 
      "inputs": [[489, 0, 0], [492, 0, 0]]
    }, 
    {
      "op": "Activation", 
      "name": "activation226", 
      "attr": {"act_type": "tanh"}, 
      "inputs": [[493, 0, 0]]
    }, 
    {
      "op": "_mul", 
      "name": "lstm_l1_t16_out", 
      "inputs": [[487, 0, 0], [494, 0, 0]]
    }, 
    {
      "op": "expand_dims", 
      "name": "expand_dims86", 
      "attr": {"axis": "1"}, 
      "inputs": [[495, 0, 0]]
    }, 
    {
      "op": "FullyConnected", 
      "name": "lstm_l0_t17_i2h", 
      "attr": {"num_hidden": "1024"}, 
      "inputs": [[25, 17, 0], [26, 0, 0], [27, 0, 0]]
    }, 
    {
      "op": "FullyConnected", 
      "name": "lstm_l0_t17_h2h", 
      "attr": {"num_hidden": "1024"}, 
      "inputs": [[482, 0, 0], [30, 0, 0], [31, 0, 0]]
    }, 
    {
      "op": "elemwise_add", 
      "name": "_plus157", 
      "inputs": [[497, 0, 0], [498, 0, 0]]
    }, 
    {
      "op": "SliceChannel", 
      "name": "lstm_l0_t17_slice", 
      "attr": {"num_outputs": "4"}, 
      "inputs": [[499, 0, 0]]
    }, 
    {
      "op": "Activation", 
      "name": "lstm_l0_t17_o", 
      "attr": {"act_type": "sigmoid"}, 
      "inputs": [[500, 3, 0]]
    }, 
    {
      "op": "Activation", 
      "name": "lstm_l0_t17_f", 
      "attr": {"act_type": "sigmoid"}, 
      "inputs": [[500, 1, 0]]
    }, 
    {
      "op": "_mul", 
      "name": "_mul314", 
      "inputs": [[502, 0, 0], [480, 0, 0]]
    }, 
    {
      "op": "Activation", 
      "name": "lstm_l0_t17_i", 
      "attr": {"act_type": "sigmoid"}, 
      "inputs": [[500, 0, 0]]
    }, 
    {
      "op": "Activation", 
      "name": "lstm_l0_t17_c", 
      "attr": {"act_type": "tanh"}, 
      "inputs": [[500, 2, 0]]
    }, 
    {
      "op": "_mul", 
      "name": "_mul315", 
      "inputs": [[504, 0, 0], [505, 0, 0]]
    }, 
    {
      "op": "elemwise_add", 
      "name": "lstm_l0_t17_state", 
      "inputs": [[503, 0, 0], [506, 0, 0]]
    }, 
    {
      "op": "Activation", 
      "name": "activation157", 
      "attr": {"act_type": "tanh"}, 
      "inputs": [[507, 0, 0]]
    }, 
    {
      "op": "_mul", 
      "name": "lstm_l0_t17_out", 
      "inputs": [[501, 0, 0], [508, 0, 0]]
    }, 
    {
      "op": "FullyConnected", 
      "name": "lstm_l1_t17_i2h", 
      "attr": {"num_hidden": "1024"}, 
      "inputs": [[509, 0, 0], [45, 0, 0], [46, 0, 0]]
    }, 
    {
      "op": "FullyConnected", 
      "name": "lstm_l1_t17_h2h", 
      "attr": {"num_hidden": "1024"}, 
      "inputs": [[495, 0, 0], [49, 0, 0], [50, 0, 0]]
    }, 
    {
      "op": "elemwise_add", 
      "name": "_plus227", 
      "inputs": [[510, 0, 0], [511, 0, 0]]
    }, 
    {
      "op": "SliceChannel", 
      "name": "lstm_l1_t17_slice", 
      "attr": {"num_outputs": "4"}, 
      "inputs": [[512, 0, 0]]
    }, 
    {
      "op": "Activation", 
      "name": "lstm_l1_t17_o", 
      "attr": {"act_type": "sigmoid"}, 
      "inputs": [[513, 3, 0]]
    }, 
    {
      "op": "Activation", 
      "name": "lstm_l1_t17_f", 
      "attr": {"act_type": "sigmoid"}, 
      "inputs": [[513, 1, 0]]
    }, 
    {
      "op": "_mul", 
      "name": "_mul454", 
      "inputs": [[515, 0, 0], [493, 0, 0]]
    }, 
    {
      "op": "Activation", 
      "name": "lstm_l1_t17_i", 
      "attr": {"act_type": "sigmoid"}, 
      "inputs": [[513, 0, 0]]
    }, 
    {
      "op": "Activation", 
      "name": "lstm_l1_t17_c", 
      "attr": {"act_type": "tanh"}, 
      "inputs": [[513, 2, 0]]
    }, 
    {
      "op": "_mul", 
      "name": "_mul455", 
      "inputs": [[517, 0, 0], [518, 0, 0]]
    }, 
    {
      "op": "elemwise_add", 
      "name": "lstm_l1_t17_state", 
      "inputs": [[516, 0, 0], [519, 0, 0]]
    }, 
    {
      "op": "Activation", 
      "name": "activation227", 
      "attr": {"act_type": "tanh"}, 
      "inputs": [[520, 0, 0]]
    }, 
    {
      "op": "_mul", 
      "name": "lstm_l1_t17_out", 
      "inputs": [[514, 0, 0], [521, 0, 0]]
    }, 
    {
      "op": "expand_dims", 
      "name": "expand_dims87", 
      "attr": {"axis": "1"}, 
      "inputs": [[522, 0, 0]]
    }, 
    {
      "op": "FullyConnected", 
      "name": "lstm_l0_t18_i2h", 
      "attr": {"num_hidden": "1024"}, 
      "inputs": [[25, 18, 0], [26, 0, 0], [27, 0, 0]]
    }, 
    {
      "op": "FullyConnected", 
      "name": "lstm_l0_t18_h2h", 
      "attr": {"num_hidden": "1024"}, 
      "inputs": [[509, 0, 0], [30, 0, 0], [31, 0, 0]]
    }, 
    {
      "op": "elemwise_add", 
      "name": "_plus158", 
      "inputs": [[524, 0, 0], [525, 0, 0]]
    }, 
    {
      "op": "SliceChannel", 
      "name": "lstm_l0_t18_slice", 
      "attr": {"num_outputs": "4"}, 
      "inputs": [[526, 0, 0]]
    }, 
    {
      "op": "Activation", 
      "name": "lstm_l0_t18_o", 
      "attr": {"act_type": "sigmoid"}, 
      "inputs": [[527, 3, 0]]
    }, 
    {
      "op": "Activation", 
      "name": "lstm_l0_t18_f", 
      "attr": {"act_type": "sigmoid"}, 
      "inputs": [[527, 1, 0]]
    }, 
    {
      "op": "_mul", 
      "name": "_mul316", 
      "inputs": [[529, 0, 0], [507, 0, 0]]
    }, 
    {
      "op": "Activation", 
      "name": "lstm_l0_t18_i", 
      "attr": {"act_type": "sigmoid"}, 
      "inputs": [[527, 0, 0]]
    }, 
    {
      "op": "Activation", 
      "name": "lstm_l0_t18_c", 
      "attr": {"act_type": "tanh"}, 
      "inputs": [[527, 2, 0]]
    }, 
    {
      "op": "_mul", 
      "name": "_mul317", 
      "inputs": [[531, 0, 0], [532, 0, 0]]
    }, 
    {
      "op": "elemwise_add", 
      "name": "lstm_l0_t18_state", 
      "inputs": [[530, 0, 0], [533, 0, 0]]
    }, 
    {
      "op": "Activation", 
      "name": "activation158", 
      "attr": {"act_type": "tanh"}, 
      "inputs": [[534, 0, 0]]
    }, 
    {
      "op": "_mul", 
      "name": "lstm_l0_t18_out", 
      "inputs": [[528, 0, 0], [535, 0, 0]]
    }, 
    {
      "op": "FullyConnected", 
      "name": "lstm_l1_t18_i2h", 
      "attr": {"num_hidden": "1024"}, 
      "inputs": [[536, 0, 0], [45, 0, 0], [46, 0, 0]]
    }, 
    {
      "op": "FullyConnected", 
      "name": "lstm_l1_t18_h2h", 
      "attr": {"num_hidden": "1024"}, 
      "inputs": [[522, 0, 0], [49, 0, 0], [50, 0, 0]]
    }, 
    {
      "op": "elemwise_add", 
      "name": "_plus228", 
      "inputs": [[537, 0, 0], [538, 0, 0]]
    }, 
    {
      "op": "SliceChannel", 
      "name": "lstm_l1_t18_slice", 
      "attr": {"num_outputs": "4"}, 
      "inputs": [[539, 0, 0]]
    }, 
    {
      "op": "Activation", 
      "name": "lstm_l1_t18_o", 
      "attr": {"act_type": "sigmoid"}, 
      "inputs": [[540, 3, 0]]
    }, 
    {
      "op": "Activation", 
      "name": "lstm_l1_t18_f", 
      "attr": {"act_type": "sigmoid"}, 
      "inputs": [[540, 1, 0]]
    }, 
    {
      "op": "_mul", 
      "name": "_mul456", 
      "inputs": [[542, 0, 0], [520, 0, 0]]
    }, 
    {
      "op": "Activation", 
      "name": "lstm_l1_t18_i", 
      "attr": {"act_type": "sigmoid"}, 
      "inputs": [[540, 0, 0]]
    }, 
    {
      "op": "Activation", 
      "name": "lstm_l1_t18_c", 
      "attr": {"act_type": "tanh"}, 
      "inputs": [[540, 2, 0]]
    }, 
    {
      "op": "_mul", 
      "name": "_mul457", 
      "inputs": [[544, 0, 0], [545, 0, 0]]
    }, 
    {
      "op": "elemwise_add", 
      "name": "lstm_l1_t18_state", 
      "inputs": [[543, 0, 0], [546, 0, 0]]
    }, 
    {
      "op": "Activation", 
      "name": "activation228", 
      "attr": {"act_type": "tanh"}, 
      "inputs": [[547, 0, 0]]
    }, 
    {
      "op": "_mul", 
      "name": "lstm_l1_t18_out", 
      "inputs": [[541, 0, 0], [548, 0, 0]]
    }, 
    {
      "op": "expand_dims", 
      "name": "expand_dims88", 
      "attr": {"axis": "1"}, 
      "inputs": [[549, 0, 0]]
    }, 
    {
      "op": "FullyConnected", 
      "name": "lstm_l0_t19_i2h", 
      "attr": {"num_hidden": "1024"}, 
      "inputs": [[25, 19, 0], [26, 0, 0], [27, 0, 0]]
    }, 
    {
      "op": "FullyConnected", 
      "name": "lstm_l0_t19_h2h", 
      "attr": {"num_hidden": "1024"}, 
      "inputs": [[536, 0, 0], [30, 0, 0], [31, 0, 0]]
    }, 
    {
      "op": "elemwise_add", 
      "name": "_plus159", 
      "inputs": [[551, 0, 0], [552, 0, 0]]
    }, 
    {
      "op": "SliceChannel", 
      "name": "lstm_l0_t19_slice", 
      "attr": {"num_outputs": "4"}, 
      "inputs": [[553, 0, 0]]
    }, 
    {
      "op": "Activation", 
      "name": "lstm_l0_t19_o", 
      "attr": {"act_type": "sigmoid"}, 
      "inputs": [[554, 3, 0]]
    }, 
    {
      "op": "Activation", 
      "name": "lstm_l0_t19_f", 
      "attr": {"act_type": "sigmoid"}, 
      "inputs": [[554, 1, 0]]
    }, 
    {
      "op": "_mul", 
      "name": "_mul318", 
      "inputs": [[556, 0, 0], [534, 0, 0]]
    }, 
    {
      "op": "Activation", 
      "name": "lstm_l0_t19_i", 
      "attr": {"act_type": "sigmoid"}, 
      "inputs": [[554, 0, 0]]
    }, 
    {
      "op": "Activation", 
      "name": "lstm_l0_t19_c", 
      "attr": {"act_type": "tanh"}, 
      "inputs": [[554, 2, 0]]
    }, 
    {
      "op": "_mul", 
      "name": "_mul319", 
      "inputs": [[558, 0, 0], [559, 0, 0]]
    }, 
    {
      "op": "elemwise_add", 
      "name": "lstm_l0_t19_state", 
      "inputs": [[557, 0, 0], [560, 0, 0]]
    }, 
    {
      "op": "Activation", 
      "name": "activation159", 
      "attr": {"act_type": "tanh"}, 
      "inputs": [[561, 0, 0]]
    }, 
    {
      "op": "_mul", 
      "name": "lstm_l0_t19_out", 
      "inputs": [[555, 0, 0], [562, 0, 0]]
    }, 
    {
      "op": "FullyConnected", 
      "name": "lstm_l1_t19_i2h", 
      "attr": {"num_hidden": "1024"}, 
      "inputs": [[563, 0, 0], [45, 0, 0], [46, 0, 0]]
    }, 
    {
      "op": "FullyConnected", 
      "name": "lstm_l1_t19_h2h", 
      "attr": {"num_hidden": "1024"}, 
      "inputs": [[549, 0, 0], [49, 0, 0], [50, 0, 0]]
    }, 
    {
      "op": "elemwise_add", 
      "name": "_plus229", 
      "inputs": [[564, 0, 0], [565, 0, 0]]
    }, 
    {
      "op": "SliceChannel", 
      "name": "lstm_l1_t19_slice", 
      "attr": {"num_outputs": "4"}, 
      "inputs": [[566, 0, 0]]
    }, 
    {
      "op": "Activation", 
      "name": "lstm_l1_t19_o", 
      "attr": {"act_type": "sigmoid"}, 
      "inputs": [[567, 3, 0]]
    }, 
    {
      "op": "Activation", 
      "name": "lstm_l1_t19_f", 
      "attr": {"act_type": "sigmoid"}, 
      "inputs": [[567, 1, 0]]
    }, 
    {
      "op": "_mul", 
      "name": "_mul458", 
      "inputs": [[569, 0, 0], [547, 0, 0]]
    }, 
    {
      "op": "Activation", 
      "name": "lstm_l1_t19_i", 
      "attr": {"act_type": "sigmoid"}, 
      "inputs": [[567, 0, 0]]
    }, 
    {
      "op": "Activation", 
      "name": "lstm_l1_t19_c", 
      "attr": {"act_type": "tanh"}, 
      "inputs": [[567, 2, 0]]
    }, 
    {
      "op": "_mul", 
      "name": "_mul459", 
      "inputs": [[571, 0, 0], [572, 0, 0]]
    }, 
    {
      "op": "elemwise_add", 
      "name": "lstm_l1_t19_state", 
      "inputs": [[570, 0, 0], [573, 0, 0]]
    }, 
    {
      "op": "Activation", 
      "name": "activation229", 
      "attr": {"act_type": "tanh"}, 
      "inputs": [[574, 0, 0]]
    }, 
    {
      "op": "_mul", 
      "name": "lstm_l1_t19_out", 
      "inputs": [[568, 0, 0], [575, 0, 0]]
    }, 
    {
      "op": "expand_dims", 
      "name": "expand_dims89", 
      "attr": {"axis": "1"}, 
      "inputs": [[576, 0, 0]]
    }, 
    {
      "op": "FullyConnected", 
      "name": "lstm_l0_t20_i2h", 
      "attr": {"num_hidden": "1024"}, 
      "inputs": [[25, 20, 0], [26, 0, 0], [27, 0, 0]]
    }, 
    {
      "op": "FullyConnected", 
      "name": "lstm_l0_t20_h2h", 
      "attr": {"num_hidden": "1024"}, 
      "inputs": [[563, 0, 0], [30, 0, 0], [31, 0, 0]]
    }, 
    {
      "op": "elemwise_add", 
      "name": "_plus160", 
      "inputs": [[578, 0, 0], [579, 0, 0]]
    }, 
    {
      "op": "SliceChannel", 
      "name": "lstm_l0_t20_slice", 
      "attr": {"num_outputs": "4"}, 
      "inputs": [[580, 0, 0]]
    }, 
    {
      "op": "Activation", 
      "name": "lstm_l0_t20_o", 
      "attr": {"act_type": "sigmoid"}, 
      "inputs": [[581, 3, 0]]
    }, 
    {
      "op": "Activation", 
      "name": "lstm_l0_t20_f", 
      "attr": {"act_type": "sigmoid"}, 
      "inputs": [[581, 1, 0]]
    }, 
    {
      "op": "_mul", 
      "name": "_mul320", 
      "inputs": [[583, 0, 0], [561, 0, 0]]
    }, 
    {
      "op": "Activation", 
      "name": "lstm_l0_t20_i", 
      "attr": {"act_type": "sigmoid"}, 
      "inputs": [[581, 0, 0]]
    }, 
    {
      "op": "Activation", 
      "name": "lstm_l0_t20_c", 
      "attr": {"act_type": "tanh"}, 
      "inputs": [[581, 2, 0]]
    }, 
    {
      "op": "_mul", 
      "name": "_mul321", 
      "inputs": [[585, 0, 0], [586, 0, 0]]
    }, 
    {
      "op": "elemwise_add", 
      "name": "lstm_l0_t20_state", 
      "inputs": [[584, 0, 0], [587, 0, 0]]
    }, 
    {
      "op": "Activation", 
      "name": "activation160", 
      "attr": {"act_type": "tanh"}, 
      "inputs": [[588, 0, 0]]
    }, 
    {
      "op": "_mul", 
      "name": "lstm_l0_t20_out", 
      "inputs": [[582, 0, 0], [589, 0, 0]]
    }, 
    {
      "op": "FullyConnected", 
      "name": "lstm_l1_t20_i2h", 
      "attr": {"num_hidden": "1024"}, 
      "inputs": [[590, 0, 0], [45, 0, 0], [46, 0, 0]]
    }, 
    {
      "op": "FullyConnected", 
      "name": "lstm_l1_t20_h2h", 
      "attr": {"num_hidden": "1024"}, 
      "inputs": [[576, 0, 0], [49, 0, 0], [50, 0, 0]]
    }, 
    {
      "op": "elemwise_add", 
      "name": "_plus230", 
      "inputs": [[591, 0, 0], [592, 0, 0]]
    }, 
    {
      "op": "SliceChannel", 
      "name": "lstm_l1_t20_slice", 
      "attr": {"num_outputs": "4"}, 
      "inputs": [[593, 0, 0]]
    }, 
    {
      "op": "Activation", 
      "name": "lstm_l1_t20_o", 
      "attr": {"act_type": "sigmoid"}, 
      "inputs": [[594, 3, 0]]
    }, 
    {
      "op": "Activation", 
      "name": "lstm_l1_t20_f", 
      "attr": {"act_type": "sigmoid"}, 
      "inputs": [[594, 1, 0]]
    }, 
    {
      "op": "_mul", 
      "name": "_mul460", 
      "inputs": [[596, 0, 0], [574, 0, 0]]
    }, 
    {
      "op": "Activation", 
      "name": "lstm_l1_t20_i", 
      "attr": {"act_type": "sigmoid"}, 
      "inputs": [[594, 0, 0]]
    }, 
    {
      "op": "Activation", 
      "name": "lstm_l1_t20_c", 
      "attr": {"act_type": "tanh"}, 
      "inputs": [[594, 2, 0]]
    }, 
    {
      "op": "_mul", 
      "name": "_mul461", 
      "inputs": [[598, 0, 0], [599, 0, 0]]
    }, 
    {
      "op": "elemwise_add", 
      "name": "lstm_l1_t20_state", 
      "inputs": [[597, 0, 0], [600, 0, 0]]
    }, 
    {
      "op": "Activation", 
      "name": "activation230", 
      "attr": {"act_type": "tanh"}, 
      "inputs": [[601, 0, 0]]
    }, 
    {
      "op": "_mul", 
      "name": "lstm_l1_t20_out", 
      "inputs": [[595, 0, 0], [602, 0, 0]]
    }, 
    {
      "op": "expand_dims", 
      "name": "expand_dims90", 
      "attr": {"axis": "1"}, 
      "inputs": [[603, 0, 0]]
    }, 
    {
      "op": "FullyConnected", 
      "name": "lstm_l0_t21_i2h", 
      "attr": {"num_hidden": "1024"}, 
      "inputs": [[25, 21, 0], [26, 0, 0], [27, 0, 0]]
    }, 
    {
      "op": "FullyConnected", 
      "name": "lstm_l0_t21_h2h", 
      "attr": {"num_hidden": "1024"}, 
      "inputs": [[590, 0, 0], [30, 0, 0], [31, 0, 0]]
    }, 
    {
      "op": "elemwise_add", 
      "name": "_plus161", 
      "inputs": [[605, 0, 0], [606, 0, 0]]
    }, 
    {
      "op": "SliceChannel", 
      "name": "lstm_l0_t21_slice", 
      "attr": {"num_outputs": "4"}, 
      "inputs": [[607, 0, 0]]
    }, 
    {
      "op": "Activation", 
      "name": "lstm_l0_t21_o", 
      "attr": {"act_type": "sigmoid"}, 
      "inputs": [[608, 3, 0]]
    }, 
    {
      "op": "Activation", 
      "name": "lstm_l0_t21_f", 
      "attr": {"act_type": "sigmoid"}, 
      "inputs": [[608, 1, 0]]
    }, 
    {
      "op": "_mul", 
      "name": "_mul322", 
      "inputs": [[610, 0, 0], [588, 0, 0]]
    }, 
    {
      "op": "Activation", 
      "name": "lstm_l0_t21_i", 
      "attr": {"act_type": "sigmoid"}, 
      "inputs": [[608, 0, 0]]
    }, 
    {
      "op": "Activation", 
      "name": "lstm_l0_t21_c", 
      "attr": {"act_type": "tanh"}, 
      "inputs": [[608, 2, 0]]
    }, 
    {
      "op": "_mul", 
      "name": "_mul323", 
      "inputs": [[612, 0, 0], [613, 0, 0]]
    }, 
    {
      "op": "elemwise_add", 
      "name": "lstm_l0_t21_state", 
      "inputs": [[611, 0, 0], [614, 0, 0]]
    }, 
    {
      "op": "Activation", 
      "name": "activation161", 
      "attr": {"act_type": "tanh"}, 
      "inputs": [[615, 0, 0]]
    }, 
    {
      "op": "_mul", 
      "name": "lstm_l0_t21_out", 
      "inputs": [[609, 0, 0], [616, 0, 0]]
    }, 
    {
      "op": "FullyConnected", 
      "name": "lstm_l1_t21_i2h", 
      "attr": {"num_hidden": "1024"}, 
      "inputs": [[617, 0, 0], [45, 0, 0], [46, 0, 0]]
    }, 
    {
      "op": "FullyConnected", 
      "name": "lstm_l1_t21_h2h", 
      "attr": {"num_hidden": "1024"}, 
      "inputs": [[603, 0, 0], [49, 0, 0], [50, 0, 0]]
    }, 
    {
      "op": "elemwise_add", 
      "name": "_plus231", 
      "inputs": [[618, 0, 0], [619, 0, 0]]
    }, 
    {
      "op": "SliceChannel", 
      "name": "lstm_l1_t21_slice", 
      "attr": {"num_outputs": "4"}, 
      "inputs": [[620, 0, 0]]
    }, 
    {
      "op": "Activation", 
      "name": "lstm_l1_t21_o", 
      "attr": {"act_type": "sigmoid"}, 
      "inputs": [[621, 3, 0]]
    }, 
    {
      "op": "Activation", 
      "name": "lstm_l1_t21_f", 
      "attr": {"act_type": "sigmoid"}, 
      "inputs": [[621, 1, 0]]
    }, 
    {
      "op": "_mul", 
      "name": "_mul462", 
      "inputs": [[623, 0, 0], [601, 0, 0]]
    }, 
    {
      "op": "Activation", 
      "name": "lstm_l1_t21_i", 
      "attr": {"act_type": "sigmoid"}, 
      "inputs": [[621, 0, 0]]
    }, 
    {
      "op": "Activation", 
      "name": "lstm_l1_t21_c", 
      "attr": {"act_type": "tanh"}, 
      "inputs": [[621, 2, 0]]
    }, 
    {
      "op": "_mul", 
      "name": "_mul463", 
      "inputs": [[625, 0, 0], [626, 0, 0]]
    }, 
    {
      "op": "elemwise_add", 
      "name": "lstm_l1_t21_state", 
      "inputs": [[624, 0, 0], [627, 0, 0]]
    }, 
    {
      "op": "Activation", 
      "name": "activation231", 
      "attr": {"act_type": "tanh"}, 
      "inputs": [[628, 0, 0]]
    }, 
    {
      "op": "_mul", 
      "name": "lstm_l1_t21_out", 
      "inputs": [[622, 0, 0], [629, 0, 0]]
    }, 
    {
      "op": "expand_dims", 
      "name": "expand_dims91", 
      "attr": {"axis": "1"}, 
      "inputs": [[630, 0, 0]]
    }, 
    {
      "op": "FullyConnected", 
      "name": "lstm_l0_t22_i2h", 
      "attr": {"num_hidden": "1024"}, 
      "inputs": [[25, 22, 0], [26, 0, 0], [27, 0, 0]]
    }, 
    {
      "op": "FullyConnected", 
      "name": "lstm_l0_t22_h2h", 
      "attr": {"num_hidden": "1024"}, 
      "inputs": [[617, 0, 0], [30, 0, 0], [31, 0, 0]]
    }, 
    {
      "op": "elemwise_add", 
      "name": "_plus162", 
      "inputs": [[632, 0, 0], [633, 0, 0]]
    }, 
    {
      "op": "SliceChannel", 
      "name": "lstm_l0_t22_slice", 
      "attr": {"num_outputs": "4"}, 
      "inputs": [[634, 0, 0]]
    }, 
    {
      "op": "Activation", 
      "name": "lstm_l0_t22_o", 
      "attr": {"act_type": "sigmoid"}, 
      "inputs": [[635, 3, 0]]
    }, 
    {
      "op": "Activation", 
      "name": "lstm_l0_t22_f", 
      "attr": {"act_type": "sigmoid"}, 
      "inputs": [[635, 1, 0]]
    }, 
    {
      "op": "_mul", 
      "name": "_mul324", 
      "inputs": [[637, 0, 0], [615, 0, 0]]
    }, 
    {
      "op": "Activation", 
      "name": "lstm_l0_t22_i", 
      "attr": {"act_type": "sigmoid"}, 
      "inputs": [[635, 0, 0]]
    }, 
    {
      "op": "Activation", 
      "name": "lstm_l0_t22_c", 
      "attr": {"act_type": "tanh"}, 
      "inputs": [[635, 2, 0]]
    }, 
    {
      "op": "_mul", 
      "name": "_mul325", 
      "inputs": [[639, 0, 0], [640, 0, 0]]
    }, 
    {
      "op": "elemwise_add", 
      "name": "lstm_l0_t22_state", 
      "inputs": [[638, 0, 0], [641, 0, 0]]
    }, 
    {
      "op": "Activation", 
      "name": "activation162", 
      "attr": {"act_type": "tanh"}, 
      "inputs": [[642, 0, 0]]
    }, 
    {
      "op": "_mul", 
      "name": "lstm_l0_t22_out", 
      "inputs": [[636, 0, 0], [643, 0, 0]]
    }, 
    {
      "op": "FullyConnected", 
      "name": "lstm_l1_t22_i2h", 
      "attr": {"num_hidden": "1024"}, 
      "inputs": [[644, 0, 0], [45, 0, 0], [46, 0, 0]]
    }, 
    {
      "op": "FullyConnected", 
      "name": "lstm_l1_t22_h2h", 
      "attr": {"num_hidden": "1024"}, 
      "inputs": [[630, 0, 0], [49, 0, 0], [50, 0, 0]]
    }, 
    {
      "op": "elemwise_add", 
      "name": "_plus232", 
      "inputs": [[645, 0, 0], [646, 0, 0]]
    }, 
    {
      "op": "SliceChannel", 
      "name": "lstm_l1_t22_slice", 
      "attr": {"num_outputs": "4"}, 
      "inputs": [[647, 0, 0]]
    }, 
    {
      "op": "Activation", 
      "name": "lstm_l1_t22_o", 
      "attr": {"act_type": "sigmoid"}, 
      "inputs": [[648, 3, 0]]
    }, 
    {
      "op": "Activation", 
      "name": "lstm_l1_t22_f", 
      "attr": {"act_type": "sigmoid"}, 
      "inputs": [[648, 1, 0]]
    }, 
    {
      "op": "_mul", 
      "name": "_mul464", 
      "inputs": [[650, 0, 0], [628, 0, 0]]
    }, 
    {
      "op": "Activation", 
      "name": "lstm_l1_t22_i", 
      "attr": {"act_type": "sigmoid"}, 
      "inputs": [[648, 0, 0]]
    }, 
    {
      "op": "Activation", 
      "name": "lstm_l1_t22_c", 
      "attr": {"act_type": "tanh"}, 
      "inputs": [[648, 2, 0]]
    }, 
    {
      "op": "_mul", 
      "name": "_mul465", 
      "inputs": [[652, 0, 0], [653, 0, 0]]
    }, 
    {
      "op": "elemwise_add", 
      "name": "lstm_l1_t22_state", 
      "inputs": [[651, 0, 0], [654, 0, 0]]
    }, 
    {
      "op": "Activation", 
      "name": "activation232", 
      "attr": {"act_type": "tanh"}, 
      "inputs": [[655, 0, 0]]
    }, 
    {
      "op": "_mul", 
      "name": "lstm_l1_t22_out", 
      "inputs": [[649, 0, 0], [656, 0, 0]]
    }, 
    {
      "op": "expand_dims", 
      "name": "expand_dims92", 
      "attr": {"axis": "1"}, 
      "inputs": [[657, 0, 0]]
    }, 
    {
      "op": "FullyConnected", 
      "name": "lstm_l0_t23_i2h", 
      "attr": {"num_hidden": "1024"}, 
      "inputs": [[25, 23, 0], [26, 0, 0], [27, 0, 0]]
    }, 
    {
      "op": "FullyConnected", 
      "name": "lstm_l0_t23_h2h", 
      "attr": {"num_hidden": "1024"}, 
      "inputs": [[644, 0, 0], [30, 0, 0], [31, 0, 0]]
    }, 
    {
      "op": "elemwise_add", 
      "name": "_plus163", 
      "inputs": [[659, 0, 0], [660, 0, 0]]
    }, 
    {
      "op": "SliceChannel", 
      "name": "lstm_l0_t23_slice", 
      "attr": {"num_outputs": "4"}, 
      "inputs": [[661, 0, 0]]
    }, 
    {
      "op": "Activation", 
      "name": "lstm_l0_t23_o", 
      "attr": {"act_type": "sigmoid"}, 
      "inputs": [[662, 3, 0]]
    }, 
    {
      "op": "Activation", 
      "name": "lstm_l0_t23_f", 
      "attr": {"act_type": "sigmoid"}, 
      "inputs": [[662, 1, 0]]
    }, 
    {
      "op": "_mul", 
      "name": "_mul326", 
      "inputs": [[664, 0, 0], [642, 0, 0]]
    }, 
    {
      "op": "Activation", 
      "name": "lstm_l0_t23_i", 
      "attr": {"act_type": "sigmoid"}, 
      "inputs": [[662, 0, 0]]
    }, 
    {
      "op": "Activation", 
      "name": "lstm_l0_t23_c", 
      "attr": {"act_type": "tanh"}, 
      "inputs": [[662, 2, 0]]
    }, 
    {
      "op": "_mul", 
      "name": "_mul327", 
      "inputs": [[666, 0, 0], [667, 0, 0]]
    }, 
    {
      "op": "elemwise_add", 
      "name": "lstm_l0_t23_state", 
      "inputs": [[665, 0, 0], [668, 0, 0]]
    }, 
    {
      "op": "Activation", 
      "name": "activation163", 
      "attr": {"act_type": "tanh"}, 
      "inputs": [[669, 0, 0]]
    }, 
    {
      "op": "_mul", 
      "name": "lstm_l0_t23_out", 
      "inputs": [[663, 0, 0], [670, 0, 0]]
    }, 
    {
      "op": "FullyConnected", 
      "name": "lstm_l1_t23_i2h", 
      "attr": {"num_hidden": "1024"}, 
      "inputs": [[671, 0, 0], [45, 0, 0], [46, 0, 0]]
    }, 
    {
      "op": "FullyConnected", 
      "name": "lstm_l1_t23_h2h", 
      "attr": {"num_hidden": "1024"}, 
      "inputs": [[657, 0, 0], [49, 0, 0], [50, 0, 0]]
    }, 
    {
      "op": "elemwise_add", 
      "name": "_plus233", 
      "inputs": [[672, 0, 0], [673, 0, 0]]
    }, 
    {
      "op": "SliceChannel", 
      "name": "lstm_l1_t23_slice", 
      "attr": {"num_outputs": "4"}, 
      "inputs": [[674, 0, 0]]
    }, 
    {
      "op": "Activation", 
      "name": "lstm_l1_t23_o", 
      "attr": {"act_type": "sigmoid"}, 
      "inputs": [[675, 3, 0]]
    }, 
    {
      "op": "Activation", 
      "name": "lstm_l1_t23_f", 
      "attr": {"act_type": "sigmoid"}, 
      "inputs": [[675, 1, 0]]
    }, 
    {
      "op": "_mul", 
      "name": "_mul466", 
      "inputs": [[677, 0, 0], [655, 0, 0]]
    }, 
    {
      "op": "Activation", 
      "name": "lstm_l1_t23_i", 
      "attr": {"act_type": "sigmoid"}, 
      "inputs": [[675, 0, 0]]
    }, 
    {
      "op": "Activation", 
      "name": "lstm_l1_t23_c", 
      "attr": {"act_type": "tanh"}, 
      "inputs": [[675, 2, 0]]
    }, 
    {
      "op": "_mul", 
      "name": "_mul467", 
      "inputs": [[679, 0, 0], [680, 0, 0]]
    }, 
    {
      "op": "elemwise_add", 
      "name": "lstm_l1_t23_state", 
      "inputs": [[678, 0, 0], [681, 0, 0]]
    }, 
    {
      "op": "Activation", 
      "name": "activation233", 
      "attr": {"act_type": "tanh"}, 
      "inputs": [[682, 0, 0]]
    }, 
    {
      "op": "_mul", 
      "name": "lstm_l1_t23_out", 
      "inputs": [[676, 0, 0], [683, 0, 0]]
    }, 
    {
      "op": "expand_dims", 
      "name": "expand_dims93", 
      "attr": {"axis": "1"}, 
      "inputs": [[684, 0, 0]]
    }, 
    {
      "op": "FullyConnected", 
      "name": "lstm_l0_t24_i2h", 
      "attr": {"num_hidden": "1024"}, 
      "inputs": [[25, 24, 0], [26, 0, 0], [27, 0, 0]]
    }, 
    {
      "op": "FullyConnected", 
      "name": "lstm_l0_t24_h2h", 
      "attr": {"num_hidden": "1024"}, 
      "inputs": [[671, 0, 0], [30, 0, 0], [31, 0, 0]]
    }, 
    {
      "op": "elemwise_add", 
      "name": "_plus164", 
      "inputs": [[686, 0, 0], [687, 0, 0]]
    }, 
    {
      "op": "SliceChannel", 
      "name": "lstm_l0_t24_slice", 
      "attr": {"num_outputs": "4"}, 
      "inputs": [[688, 0, 0]]
    }, 
    {
      "op": "Activation", 
      "name": "lstm_l0_t24_o", 
      "attr": {"act_type": "sigmoid"}, 
      "inputs": [[689, 3, 0]]
    }, 
    {
      "op": "Activation", 
      "name": "lstm_l0_t24_f", 
      "attr": {"act_type": "sigmoid"}, 
      "inputs": [[689, 1, 0]]
    }, 
    {
      "op": "_mul", 
      "name": "_mul328", 
      "inputs": [[691, 0, 0], [669, 0, 0]]
    }, 
    {
      "op": "Activation", 
      "name": "lstm_l0_t24_i", 
      "attr": {"act_type": "sigmoid"}, 
      "inputs": [[689, 0, 0]]
    }, 
    {
      "op": "Activation", 
      "name": "lstm_l0_t24_c", 
      "attr": {"act_type": "tanh"}, 
      "inputs": [[689, 2, 0]]
    }, 
    {
      "op": "_mul", 
      "name": "_mul329", 
      "inputs": [[693, 0, 0], [694, 0, 0]]
    }, 
    {
      "op": "elemwise_add", 
      "name": "lstm_l0_t24_state", 
      "inputs": [[692, 0, 0], [695, 0, 0]]
    }, 
    {
      "op": "Activation", 
      "name": "activation164", 
      "attr": {"act_type": "tanh"}, 
      "inputs": [[696, 0, 0]]
    }, 
    {
      "op": "_mul", 
      "name": "lstm_l0_t24_out", 
      "inputs": [[690, 0, 0], [697, 0, 0]]
    }, 
    {
      "op": "FullyConnected", 
      "name": "lstm_l1_t24_i2h", 
      "attr": {"num_hidden": "1024"}, 
      "inputs": [[698, 0, 0], [45, 0, 0], [46, 0, 0]]
    }, 
    {
      "op": "FullyConnected", 
      "name": "lstm_l1_t24_h2h", 
      "attr": {"num_hidden": "1024"}, 
      "inputs": [[684, 0, 0], [49, 0, 0], [50, 0, 0]]
    }, 
    {
      "op": "elemwise_add", 
      "name": "_plus234", 
      "inputs": [[699, 0, 0], [700, 0, 0]]
    }, 
    {
      "op": "SliceChannel", 
      "name": "lstm_l1_t24_slice", 
      "attr": {"num_outputs": "4"}, 
      "inputs": [[701, 0, 0]]
    }, 
    {
      "op": "Activation", 
      "name": "lstm_l1_t24_o", 
      "attr": {"act_type": "sigmoid"}, 
      "inputs": [[702, 3, 0]]
    }, 
    {
      "op": "Activation", 
      "name": "lstm_l1_t24_f", 
      "attr": {"act_type": "sigmoid"}, 
      "inputs": [[702, 1, 0]]
    }, 
    {
      "op": "_mul", 
      "name": "_mul468", 
      "inputs": [[704, 0, 0], [682, 0, 0]]
    }, 
    {
      "op": "Activation", 
      "name": "lstm_l1_t24_i", 
      "attr": {"act_type": "sigmoid"}, 
      "inputs": [[702, 0, 0]]
    }, 
    {
      "op": "Activation", 
      "name": "lstm_l1_t24_c", 
      "attr": {"act_type": "tanh"}, 
      "inputs": [[702, 2, 0]]
    }, 
    {
      "op": "_mul", 
      "name": "_mul469", 
      "inputs": [[706, 0, 0], [707, 0, 0]]
    }, 
    {
      "op": "elemwise_add", 
      "name": "lstm_l1_t24_state", 
      "inputs": [[705, 0, 0], [708, 0, 0]]
    }, 
    {
      "op": "Activation", 
      "name": "activation234", 
      "attr": {"act_type": "tanh"}, 
      "inputs": [[709, 0, 0]]
    }, 
    {
      "op": "_mul", 
      "name": "lstm_l1_t24_out", 
      "inputs": [[703, 0, 0], [710, 0, 0]]
    }, 
    {
      "op": "expand_dims", 
      "name": "expand_dims94", 
      "attr": {"axis": "1"}, 
      "inputs": [[711, 0, 0]]
    }, 
    {
      "op": "FullyConnected", 
      "name": "lstm_l0_t25_i2h", 
      "attr": {"num_hidden": "1024"}, 
      "inputs": [[25, 25, 0], [26, 0, 0], [27, 0, 0]]
    }, 
    {
      "op": "FullyConnected", 
      "name": "lstm_l0_t25_h2h", 
      "attr": {"num_hidden": "1024"}, 
      "inputs": [[698, 0, 0], [30, 0, 0], [31, 0, 0]]
    }, 
    {
      "op": "elemwise_add", 
      "name": "_plus165", 
      "inputs": [[713, 0, 0], [714, 0, 0]]
    }, 
    {
      "op": "SliceChannel", 
      "name": "lstm_l0_t25_slice", 
      "attr": {"num_outputs": "4"}, 
      "inputs": [[715, 0, 0]]
    }, 
    {
      "op": "Activation", 
      "name": "lstm_l0_t25_o", 
      "attr": {"act_type": "sigmoid"}, 
      "inputs": [[716, 3, 0]]
    }, 
    {
      "op": "Activation", 
      "name": "lstm_l0_t25_f", 
      "attr": {"act_type": "sigmoid"}, 
      "inputs": [[716, 1, 0]]
    }, 
    {
      "op": "_mul", 
      "name": "_mul330", 
      "inputs": [[718, 0, 0], [696, 0, 0]]
    }, 
    {
      "op": "Activation", 
      "name": "lstm_l0_t25_i", 
      "attr": {"act_type": "sigmoid"}, 
      "inputs": [[716, 0, 0]]
    }, 
    {
      "op": "Activation", 
      "name": "lstm_l0_t25_c", 
      "attr": {"act_type": "tanh"}, 
      "inputs": [[716, 2, 0]]
    }, 
    {
      "op": "_mul", 
      "name": "_mul331", 
      "inputs": [[720, 0, 0], [721, 0, 0]]
    }, 
    {
      "op": "elemwise_add", 
      "name": "lstm_l0_t25_state", 
      "inputs": [[719, 0, 0], [722, 0, 0]]
    }, 
    {
      "op": "Activation", 
      "name": "activation165", 
      "attr": {"act_type": "tanh"}, 
      "inputs": [[723, 0, 0]]
    }, 
    {
      "op": "_mul", 
      "name": "lstm_l0_t25_out", 
      "inputs": [[717, 0, 0], [724, 0, 0]]
    }, 
    {
      "op": "FullyConnected", 
      "name": "lstm_l1_t25_i2h", 
      "attr": {"num_hidden": "1024"}, 
      "inputs": [[725, 0, 0], [45, 0, 0], [46, 0, 0]]
    }, 
    {
      "op": "FullyConnected", 
      "name": "lstm_l1_t25_h2h", 
      "attr": {"num_hidden": "1024"}, 
      "inputs": [[711, 0, 0], [49, 0, 0], [50, 0, 0]]
    }, 
    {
      "op": "elemwise_add", 
      "name": "_plus235", 
      "inputs": [[726, 0, 0], [727, 0, 0]]
    }, 
    {
      "op": "SliceChannel", 
      "name": "lstm_l1_t25_slice", 
      "attr": {"num_outputs": "4"}, 
      "inputs": [[728, 0, 0]]
    }, 
    {
      "op": "Activation", 
      "name": "lstm_l1_t25_o", 
      "attr": {"act_type": "sigmoid"}, 
      "inputs": [[729, 3, 0]]
    }, 
    {
      "op": "Activation", 
      "name": "lstm_l1_t25_f", 
      "attr": {"act_type": "sigmoid"}, 
      "inputs": [[729, 1, 0]]
    }, 
    {
      "op": "_mul", 
      "name": "_mul470", 
      "inputs": [[731, 0, 0], [709, 0, 0]]
    }, 
    {
      "op": "Activation", 
      "name": "lstm_l1_t25_i", 
      "attr": {"act_type": "sigmoid"}, 
      "inputs": [[729, 0, 0]]
    }, 
    {
      "op": "Activation", 
      "name": "lstm_l1_t25_c", 
      "attr": {"act_type": "tanh"}, 
      "inputs": [[729, 2, 0]]
    }, 
    {
      "op": "_mul", 
      "name": "_mul471", 
      "inputs": [[733, 0, 0], [734, 0, 0]]
    }, 
    {
      "op": "elemwise_add", 
      "name": "lstm_l1_t25_state", 
      "inputs": [[732, 0, 0], [735, 0, 0]]
    }, 
    {
      "op": "Activation", 
      "name": "activation235", 
      "attr": {"act_type": "tanh"}, 
      "inputs": [[736, 0, 0]]
    }, 
    {
      "op": "_mul", 
      "name": "lstm_l1_t25_out", 
      "inputs": [[730, 0, 0], [737, 0, 0]]
    }, 
    {
      "op": "expand_dims", 
      "name": "expand_dims95", 
      "attr": {"axis": "1"}, 
      "inputs": [[738, 0, 0]]
    }, 
    {
      "op": "FullyConnected", 
      "name": "lstm_l0_t26_i2h", 
      "attr": {"num_hidden": "1024"}, 
      "inputs": [[25, 26, 0], [26, 0, 0], [27, 0, 0]]
    }, 
    {
      "op": "FullyConnected", 
      "name": "lstm_l0_t26_h2h", 
      "attr": {"num_hidden": "1024"}, 
      "inputs": [[725, 0, 0], [30, 0, 0], [31, 0, 0]]
    }, 
    {
      "op": "elemwise_add", 
      "name": "_plus166", 
      "inputs": [[740, 0, 0], [741, 0, 0]]
    }, 
    {
      "op": "SliceChannel", 
      "name": "lstm_l0_t26_slice", 
      "attr": {"num_outputs": "4"}, 
      "inputs": [[742, 0, 0]]
    }, 
    {
      "op": "Activation", 
      "name": "lstm_l0_t26_o", 
      "attr": {"act_type": "sigmoid"}, 
      "inputs": [[743, 3, 0]]
    }, 
    {
      "op": "Activation", 
      "name": "lstm_l0_t26_f", 
      "attr": {"act_type": "sigmoid"}, 
      "inputs": [[743, 1, 0]]
    }, 
    {
      "op": "_mul", 
      "name": "_mul332", 
      "inputs": [[745, 0, 0], [723, 0, 0]]
    }, 
    {
      "op": "Activation", 
      "name": "lstm_l0_t26_i", 
      "attr": {"act_type": "sigmoid"}, 
      "inputs": [[743, 0, 0]]
    }, 
    {
      "op": "Activation", 
      "name": "lstm_l0_t26_c", 
      "attr": {"act_type": "tanh"}, 
      "inputs": [[743, 2, 0]]
    }, 
    {
      "op": "_mul", 
      "name": "_mul333", 
      "inputs": [[747, 0, 0], [748, 0, 0]]
    }, 
    {
      "op": "elemwise_add", 
      "name": "lstm_l0_t26_state", 
      "inputs": [[746, 0, 0], [749, 0, 0]]
    }, 
    {
      "op": "Activation", 
      "name": "activation166", 
      "attr": {"act_type": "tanh"}, 
      "inputs": [[750, 0, 0]]
    }, 
    {
      "op": "_mul", 
      "name": "lstm_l0_t26_out", 
      "inputs": [[744, 0, 0], [751, 0, 0]]
    }, 
    {
      "op": "FullyConnected", 
      "name": "lstm_l1_t26_i2h", 
      "attr": {"num_hidden": "1024"}, 
      "inputs": [[752, 0, 0], [45, 0, 0], [46, 0, 0]]
    }, 
    {
      "op": "FullyConnected", 
      "name": "lstm_l1_t26_h2h", 
      "attr": {"num_hidden": "1024"}, 
      "inputs": [[738, 0, 0], [49, 0, 0], [50, 0, 0]]
    }, 
    {
      "op": "elemwise_add", 
      "name": "_plus236", 
      "inputs": [[753, 0, 0], [754, 0, 0]]
    }, 
    {
      "op": "SliceChannel", 
      "name": "lstm_l1_t26_slice", 
      "attr": {"num_outputs": "4"}, 
      "inputs": [[755, 0, 0]]
    }, 
    {
      "op": "Activation", 
      "name": "lstm_l1_t26_o", 
      "attr": {"act_type": "sigmoid"}, 
      "inputs": [[756, 3, 0]]
    }, 
    {
      "op": "Activation", 
      "name": "lstm_l1_t26_f", 
      "attr": {"act_type": "sigmoid"}, 
      "inputs": [[756, 1, 0]]
    }, 
    {
      "op": "_mul", 
      "name": "_mul472", 
      "inputs": [[758, 0, 0], [736, 0, 0]]
    }, 
    {
      "op": "Activation", 
      "name": "lstm_l1_t26_i", 
      "attr": {"act_type": "sigmoid"}, 
      "inputs": [[756, 0, 0]]
    }, 
    {
      "op": "Activation", 
      "name": "lstm_l1_t26_c", 
      "attr": {"act_type": "tanh"}, 
      "inputs": [[756, 2, 0]]
    }, 
    {
      "op": "_mul", 
      "name": "_mul473", 
      "inputs": [[760, 0, 0], [761, 0, 0]]
    }, 
    {
      "op": "elemwise_add", 
      "name": "lstm_l1_t26_state", 
      "inputs": [[759, 0, 0], [762, 0, 0]]
    }, 
    {
      "op": "Activation", 
      "name": "activation236", 
      "attr": {"act_type": "tanh"}, 
      "inputs": [[763, 0, 0]]
    }, 
    {
      "op": "_mul", 
      "name": "lstm_l1_t26_out", 
      "inputs": [[757, 0, 0], [764, 0, 0]]
    }, 
    {
      "op": "expand_dims", 
      "name": "expand_dims96", 
      "attr": {"axis": "1"}, 
      "inputs": [[765, 0, 0]]
    }, 
    {
      "op": "FullyConnected", 
      "name": "lstm_l0_t27_i2h", 
      "attr": {"num_hidden": "1024"}, 
      "inputs": [[25, 27, 0], [26, 0, 0], [27, 0, 0]]
    }, 
    {
      "op": "FullyConnected", 
      "name": "lstm_l0_t27_h2h", 
      "attr": {"num_hidden": "1024"}, 
      "inputs": [[752, 0, 0], [30, 0, 0], [31, 0, 0]]
    }, 
    {
      "op": "elemwise_add", 
      "name": "_plus167", 
      "inputs": [[767, 0, 0], [768, 0, 0]]
    }, 
    {
      "op": "SliceChannel", 
      "name": "lstm_l0_t27_slice", 
      "attr": {"num_outputs": "4"}, 
      "inputs": [[769, 0, 0]]
    }, 
    {
      "op": "Activation", 
      "name": "lstm_l0_t27_o", 
      "attr": {"act_type": "sigmoid"}, 
      "inputs": [[770, 3, 0]]
    }, 
    {
      "op": "Activation", 
      "name": "lstm_l0_t27_f", 
      "attr": {"act_type": "sigmoid"}, 
      "inputs": [[770, 1, 0]]
    }, 
    {
      "op": "_mul", 
      "name": "_mul334", 
      "inputs": [[772, 0, 0], [750, 0, 0]]
    }, 
    {
      "op": "Activation", 
      "name": "lstm_l0_t27_i", 
      "attr": {"act_type": "sigmoid"}, 
      "inputs": [[770, 0, 0]]
    }, 
    {
      "op": "Activation", 
      "name": "lstm_l0_t27_c", 
      "attr": {"act_type": "tanh"}, 
      "inputs": [[770, 2, 0]]
    }, 
    {
      "op": "_mul", 
      "name": "_mul335", 
      "inputs": [[774, 0, 0], [775, 0, 0]]
    }, 
    {
      "op": "elemwise_add", 
      "name": "lstm_l0_t27_state", 
      "inputs": [[773, 0, 0], [776, 0, 0]]
    }, 
    {
      "op": "Activation", 
      "name": "activation167", 
      "attr": {"act_type": "tanh"}, 
      "inputs": [[777, 0, 0]]
    }, 
    {
      "op": "_mul", 
      "name": "lstm_l0_t27_out", 
      "inputs": [[771, 0, 0], [778, 0, 0]]
    }, 
    {
      "op": "FullyConnected", 
      "name": "lstm_l1_t27_i2h", 
      "attr": {"num_hidden": "1024"}, 
      "inputs": [[779, 0, 0], [45, 0, 0], [46, 0, 0]]
    }, 
    {
      "op": "FullyConnected", 
      "name": "lstm_l1_t27_h2h", 
      "attr": {"num_hidden": "1024"}, 
      "inputs": [[765, 0, 0], [49, 0, 0], [50, 0, 0]]
    }, 
    {
      "op": "elemwise_add", 
      "name": "_plus237", 
      "inputs": [[780, 0, 0], [781, 0, 0]]
    }, 
    {
      "op": "SliceChannel", 
      "name": "lstm_l1_t27_slice", 
      "attr": {"num_outputs": "4"}, 
      "inputs": [[782, 0, 0]]
    }, 
    {
      "op": "Activation", 
      "name": "lstm_l1_t27_o", 
      "attr": {"act_type": "sigmoid"}, 
      "inputs": [[783, 3, 0]]
    }, 
    {
      "op": "Activation", 
      "name": "lstm_l1_t27_f", 
      "attr": {"act_type": "sigmoid"}, 
      "inputs": [[783, 1, 0]]
    }, 
    {
      "op": "_mul", 
      "name": "_mul474", 
      "inputs": [[785, 0, 0], [763, 0, 0]]
    }, 
    {
      "op": "Activation", 
      "name": "lstm_l1_t27_i", 
      "attr": {"act_type": "sigmoid"}, 
      "inputs": [[783, 0, 0]]
    }, 
    {
      "op": "Activation", 
      "name": "lstm_l1_t27_c", 
      "attr": {"act_type": "tanh"}, 
      "inputs": [[783, 2, 0]]
    }, 
    {
      "op": "_mul", 
      "name": "_mul475", 
      "inputs": [[787, 0, 0], [788, 0, 0]]
    }, 
    {
      "op": "elemwise_add", 
      "name": "lstm_l1_t27_state", 
      "inputs": [[786, 0, 0], [789, 0, 0]]
    }, 
    {
      "op": "Activation", 
      "name": "activation237", 
      "attr": {"act_type": "tanh"}, 
      "inputs": [[790, 0, 0]]
    }, 
    {
      "op": "_mul", 
      "name": "lstm_l1_t27_out", 
      "inputs": [[784, 0, 0], [791, 0, 0]]
    }, 
    {
      "op": "expand_dims", 
      "name": "expand_dims97", 
      "attr": {"axis": "1"}, 
      "inputs": [[792, 0, 0]]
    }, 
    {
      "op": "FullyConnected", 
      "name": "lstm_l0_t28_i2h", 
      "attr": {"num_hidden": "1024"}, 
      "inputs": [[25, 28, 0], [26, 0, 0], [27, 0, 0]]
    }, 
    {
      "op": "FullyConnected", 
      "name": "lstm_l0_t28_h2h", 
      "attr": {"num_hidden": "1024"}, 
      "inputs": [[779, 0, 0], [30, 0, 0], [31, 0, 0]]
    }, 
    {
      "op": "elemwise_add", 
      "name": "_plus168", 
      "inputs": [[794, 0, 0], [795, 0, 0]]
    }, 
    {
      "op": "SliceChannel", 
      "name": "lstm_l0_t28_slice", 
      "attr": {"num_outputs": "4"}, 
      "inputs": [[796, 0, 0]]
    }, 
    {
      "op": "Activation", 
      "name": "lstm_l0_t28_o", 
      "attr": {"act_type": "sigmoid"}, 
      "inputs": [[797, 3, 0]]
    }, 
    {
      "op": "Activation", 
      "name": "lstm_l0_t28_f", 
      "attr": {"act_type": "sigmoid"}, 
      "inputs": [[797, 1, 0]]
    }, 
    {
      "op": "_mul", 
      "name": "_mul336", 
      "inputs": [[799, 0, 0], [777, 0, 0]]
    }, 
    {
      "op": "Activation", 
      "name": "lstm_l0_t28_i", 
      "attr": {"act_type": "sigmoid"}, 
      "inputs": [[797, 0, 0]]
    }, 
    {
      "op": "Activation", 
      "name": "lstm_l0_t28_c", 
      "attr": {"act_type": "tanh"}, 
      "inputs": [[797, 2, 0]]
    }, 
    {
      "op": "_mul", 
      "name": "_mul337", 
      "inputs": [[801, 0, 0], [802, 0, 0]]
    }, 
    {
      "op": "elemwise_add", 
      "name": "lstm_l0_t28_state", 
      "inputs": [[800, 0, 0], [803, 0, 0]]
    }, 
    {
      "op": "Activation", 
      "name": "activation168", 
      "attr": {"act_type": "tanh"}, 
      "inputs": [[804, 0, 0]]
    }, 
    {
      "op": "_mul", 
      "name": "lstm_l0_t28_out", 
      "inputs": [[798, 0, 0], [805, 0, 0]]
    }, 
    {
      "op": "FullyConnected", 
      "name": "lstm_l1_t28_i2h", 
      "attr": {"num_hidden": "1024"}, 
      "inputs": [[806, 0, 0], [45, 0, 0], [46, 0, 0]]
    }, 
    {
      "op": "FullyConnected", 
      "name": "lstm_l1_t28_h2h", 
      "attr": {"num_hidden": "1024"}, 
      "inputs": [[792, 0, 0], [49, 0, 0], [50, 0, 0]]
    }, 
    {
      "op": "elemwise_add", 
      "name": "_plus238", 
      "inputs": [[807, 0, 0], [808, 0, 0]]
    }, 
    {
      "op": "SliceChannel", 
      "name": "lstm_l1_t28_slice", 
      "attr": {"num_outputs": "4"}, 
      "inputs": [[809, 0, 0]]
    }, 
    {
      "op": "Activation", 
      "name": "lstm_l1_t28_o", 
      "attr": {"act_type": "sigmoid"}, 
      "inputs": [[810, 3, 0]]
    }, 
    {
      "op": "Activation", 
      "name": "lstm_l1_t28_f", 
      "attr": {"act_type": "sigmoid"}, 
      "inputs": [[810, 1, 0]]
    }, 
    {
      "op": "_mul", 
      "name": "_mul476", 
      "inputs": [[812, 0, 0], [790, 0, 0]]
    }, 
    {
      "op": "Activation", 
      "name": "lstm_l1_t28_i", 
      "attr": {"act_type": "sigmoid"}, 
      "inputs": [[810, 0, 0]]
    }, 
    {
      "op": "Activation", 
      "name": "lstm_l1_t28_c", 
      "attr": {"act_type": "tanh"}, 
      "inputs": [[810, 2, 0]]
    }, 
    {
      "op": "_mul", 
      "name": "_mul477", 
      "inputs": [[814, 0, 0], [815, 0, 0]]
    }, 
    {
      "op": "elemwise_add", 
      "name": "lstm_l1_t28_state", 
      "inputs": [[813, 0, 0], [816, 0, 0]]
    }, 
    {
      "op": "Activation", 
      "name": "activation238", 
      "attr": {"act_type": "tanh"}, 
      "inputs": [[817, 0, 0]]
    }, 
    {
      "op": "_mul", 
      "name": "lstm_l1_t28_out", 
      "inputs": [[811, 0, 0], [818, 0, 0]]
    }, 
    {
      "op": "expand_dims", 
      "name": "expand_dims98", 
      "attr": {"axis": "1"}, 
      "inputs": [[819, 0, 0]]
    }, 
    {
      "op": "FullyConnected", 
      "name": "lstm_l0_t29_i2h", 
      "attr": {"num_hidden": "1024"}, 
      "inputs": [[25, 29, 0], [26, 0, 0], [27, 0, 0]]
    }, 
    {
      "op": "FullyConnected", 
      "name": "lstm_l0_t29_h2h", 
      "attr": {"num_hidden": "1024"}, 
      "inputs": [[806, 0, 0], [30, 0, 0], [31, 0, 0]]
    }, 
    {
      "op": "elemwise_add", 
      "name": "_plus169", 
      "inputs": [[821, 0, 0], [822, 0, 0]]
    }, 
    {
      "op": "SliceChannel", 
      "name": "lstm_l0_t29_slice", 
      "attr": {"num_outputs": "4"}, 
      "inputs": [[823, 0, 0]]
    }, 
    {
      "op": "Activation", 
      "name": "lstm_l0_t29_o", 
      "attr": {"act_type": "sigmoid"}, 
      "inputs": [[824, 3, 0]]
    }, 
    {
      "op": "Activation", 
      "name": "lstm_l0_t29_f", 
      "attr": {"act_type": "sigmoid"}, 
      "inputs": [[824, 1, 0]]
    }, 
    {
      "op": "_mul", 
      "name": "_mul338", 
      "inputs": [[826, 0, 0], [804, 0, 0]]
    }, 
    {
      "op": "Activation", 
      "name": "lstm_l0_t29_i", 
      "attr": {"act_type": "sigmoid"}, 
      "inputs": [[824, 0, 0]]
    }, 
    {
      "op": "Activation", 
      "name": "lstm_l0_t29_c", 
      "attr": {"act_type": "tanh"}, 
      "inputs": [[824, 2, 0]]
    }, 
    {
      "op": "_mul", 
      "name": "_mul339", 
      "inputs": [[828, 0, 0], [829, 0, 0]]
    }, 
    {
      "op": "elemwise_add", 
      "name": "lstm_l0_t29_state", 
      "inputs": [[827, 0, 0], [830, 0, 0]]
    }, 
    {
      "op": "Activation", 
      "name": "activation169", 
      "attr": {"act_type": "tanh"}, 
      "inputs": [[831, 0, 0]]
    }, 
    {
      "op": "_mul", 
      "name": "lstm_l0_t29_out", 
      "inputs": [[825, 0, 0], [832, 0, 0]]
    }, 
    {
      "op": "FullyConnected", 
      "name": "lstm_l1_t29_i2h", 
      "attr": {"num_hidden": "1024"}, 
      "inputs": [[833, 0, 0], [45, 0, 0], [46, 0, 0]]
    }, 
    {
      "op": "FullyConnected", 
      "name": "lstm_l1_t29_h2h", 
      "attr": {"num_hidden": "1024"}, 
      "inputs": [[819, 0, 0], [49, 0, 0], [50, 0, 0]]
    }, 
    {
      "op": "elemwise_add", 
      "name": "_plus239", 
      "inputs": [[834, 0, 0], [835, 0, 0]]
    }, 
    {
      "op": "SliceChannel", 
      "name": "lstm_l1_t29_slice", 
      "attr": {"num_outputs": "4"}, 
      "inputs": [[836, 0, 0]]
    }, 
    {
      "op": "Activation", 
      "name": "lstm_l1_t29_o", 
      "attr": {"act_type": "sigmoid"}, 
      "inputs": [[837, 3, 0]]
    }, 
    {
      "op": "Activation", 
      "name": "lstm_l1_t29_f", 
      "attr": {"act_type": "sigmoid"}, 
      "inputs": [[837, 1, 0]]
    }, 
    {
      "op": "_mul", 
      "name": "_mul478", 
      "inputs": [[839, 0, 0], [817, 0, 0]]
    }, 
    {
      "op": "Activation", 
      "name": "lstm_l1_t29_i", 
      "attr": {"act_type": "sigmoid"}, 
      "inputs": [[837, 0, 0]]
    }, 
    {
      "op": "Activation", 
      "name": "lstm_l1_t29_c", 
      "attr": {"act_type": "tanh"}, 
      "inputs": [[837, 2, 0]]
    }, 
    {
      "op": "_mul", 
      "name": "_mul479", 
      "inputs": [[841, 0, 0], [842, 0, 0]]
    }, 
    {
      "op": "elemwise_add", 
      "name": "lstm_l1_t29_state", 
      "inputs": [[840, 0, 0], [843, 0, 0]]
    }, 
    {
      "op": "Activation", 
      "name": "activation239", 
      "attr": {"act_type": "tanh"}, 
      "inputs": [[844, 0, 0]]
    }, 
    {
      "op": "_mul", 
      "name": "lstm_l1_t29_out", 
      "inputs": [[838, 0, 0], [845, 0, 0]]
    }, 
    {
      "op": "expand_dims", 
      "name": "expand_dims99", 
      "attr": {"axis": "1"}, 
      "inputs": [[846, 0, 0]]
    }, 
    {
      "op": "FullyConnected", 
      "name": "lstm_l0_t30_i2h", 
      "attr": {"num_hidden": "1024"}, 
      "inputs": [[25, 30, 0], [26, 0, 0], [27, 0, 0]]
    }, 
    {
      "op": "FullyConnected", 
      "name": "lstm_l0_t30_h2h", 
      "attr": {"num_hidden": "1024"}, 
      "inputs": [[833, 0, 0], [30, 0, 0], [31, 0, 0]]
    }, 
    {
      "op": "elemwise_add", 
      "name": "_plus170", 
      "inputs": [[848, 0, 0], [849, 0, 0]]
    }, 
    {
      "op": "SliceChannel", 
      "name": "lstm_l0_t30_slice", 
      "attr": {"num_outputs": "4"}, 
      "inputs": [[850, 0, 0]]
    }, 
    {
      "op": "Activation", 
      "name": "lstm_l0_t30_o", 
      "attr": {"act_type": "sigmoid"}, 
      "inputs": [[851, 3, 0]]
    }, 
    {
      "op": "Activation", 
      "name": "lstm_l0_t30_f", 
      "attr": {"act_type": "sigmoid"}, 
      "inputs": [[851, 1, 0]]
    }, 
    {
      "op": "_mul", 
      "name": "_mul340", 
      "inputs": [[853, 0, 0], [831, 0, 0]]
    }, 
    {
      "op": "Activation", 
      "name": "lstm_l0_t30_i", 
      "attr": {"act_type": "sigmoid"}, 
      "inputs": [[851, 0, 0]]
    }, 
    {
      "op": "Activation", 
      "name": "lstm_l0_t30_c", 
      "attr": {"act_type": "tanh"}, 
      "inputs": [[851, 2, 0]]
    }, 
    {
      "op": "_mul", 
      "name": "_mul341", 
      "inputs": [[855, 0, 0], [856, 0, 0]]
    }, 
    {
      "op": "elemwise_add", 
      "name": "lstm_l0_t30_state", 
      "inputs": [[854, 0, 0], [857, 0, 0]]
    }, 
    {
      "op": "Activation", 
      "name": "activation170", 
      "attr": {"act_type": "tanh"}, 
      "inputs": [[858, 0, 0]]
    }, 
    {
      "op": "_mul", 
      "name": "lstm_l0_t30_out", 
      "inputs": [[852, 0, 0], [859, 0, 0]]
    }, 
    {
      "op": "FullyConnected", 
      "name": "lstm_l1_t30_i2h", 
      "attr": {"num_hidden": "1024"}, 
      "inputs": [[860, 0, 0], [45, 0, 0], [46, 0, 0]]
    }, 
    {
      "op": "FullyConnected", 
      "name": "lstm_l1_t30_h2h", 
      "attr": {"num_hidden": "1024"}, 
      "inputs": [[846, 0, 0], [49, 0, 0], [50, 0, 0]]
    }, 
    {
      "op": "elemwise_add", 
      "name": "_plus240", 
      "inputs": [[861, 0, 0], [862, 0, 0]]
    }, 
    {
      "op": "SliceChannel", 
      "name": "lstm_l1_t30_slice", 
      "attr": {"num_outputs": "4"}, 
      "inputs": [[863, 0, 0]]
    }, 
    {
      "op": "Activation", 
      "name": "lstm_l1_t30_o", 
      "attr": {"act_type": "sigmoid"}, 
      "inputs": [[864, 3, 0]]
    }, 
    {
      "op": "Activation", 
      "name": "lstm_l1_t30_f", 
      "attr": {"act_type": "sigmoid"}, 
      "inputs": [[864, 1, 0]]
    }, 
    {
      "op": "_mul", 
      "name": "_mul480", 
      "inputs": [[866, 0, 0], [844, 0, 0]]
    }, 
    {
      "op": "Activation", 
      "name": "lstm_l1_t30_i", 
      "attr": {"act_type": "sigmoid"}, 
      "inputs": [[864, 0, 0]]
    }, 
    {
      "op": "Activation", 
      "name": "lstm_l1_t30_c", 
      "attr": {"act_type": "tanh"}, 
      "inputs": [[864, 2, 0]]
    }, 
    {
      "op": "_mul", 
      "name": "_mul481", 
      "inputs": [[868, 0, 0], [869, 0, 0]]
    }, 
    {
      "op": "elemwise_add", 
      "name": "lstm_l1_t30_state", 
      "inputs": [[867, 0, 0], [870, 0, 0]]
    }, 
    {
      "op": "Activation", 
      "name": "activation240", 
      "attr": {"act_type": "tanh"}, 
      "inputs": [[871, 0, 0]]
    }, 
    {
      "op": "_mul", 
      "name": "lstm_l1_t30_out", 
      "inputs": [[865, 0, 0], [872, 0, 0]]
    }, 
    {
      "op": "expand_dims", 
      "name": "expand_dims100", 
      "attr": {"axis": "1"}, 
      "inputs": [[873, 0, 0]]
    }, 
    {
      "op": "FullyConnected", 
      "name": "lstm_l0_t31_i2h", 
      "attr": {"num_hidden": "1024"}, 
      "inputs": [[25, 31, 0], [26, 0, 0], [27, 0, 0]]
    }, 
    {
      "op": "FullyConnected", 
      "name": "lstm_l0_t31_h2h", 
      "attr": {"num_hidden": "1024"}, 
      "inputs": [[860, 0, 0], [30, 0, 0], [31, 0, 0]]
    }, 
    {
      "op": "elemwise_add", 
      "name": "_plus171", 
      "inputs": [[875, 0, 0], [876, 0, 0]]
    }, 
    {
      "op": "SliceChannel", 
      "name": "lstm_l0_t31_slice", 
      "attr": {"num_outputs": "4"}, 
      "inputs": [[877, 0, 0]]
    }, 
    {
      "op": "Activation", 
      "name": "lstm_l0_t31_o", 
      "attr": {"act_type": "sigmoid"}, 
      "inputs": [[878, 3, 0]]
    }, 
    {
      "op": "Activation", 
      "name": "lstm_l0_t31_f", 
      "attr": {"act_type": "sigmoid"}, 
      "inputs": [[878, 1, 0]]
    }, 
    {
      "op": "_mul", 
      "name": "_mul342", 
      "inputs": [[880, 0, 0], [858, 0, 0]]
    }, 
    {
      "op": "Activation", 
      "name": "lstm_l0_t31_i", 
      "attr": {"act_type": "sigmoid"}, 
      "inputs": [[878, 0, 0]]
    }, 
    {
      "op": "Activation", 
      "name": "lstm_l0_t31_c", 
      "attr": {"act_type": "tanh"}, 
      "inputs": [[878, 2, 0]]
    }, 
    {
      "op": "_mul", 
      "name": "_mul343", 
      "inputs": [[882, 0, 0], [883, 0, 0]]
    }, 
    {
      "op": "elemwise_add", 
      "name": "lstm_l0_t31_state", 
      "inputs": [[881, 0, 0], [884, 0, 0]]
    }, 
    {
      "op": "Activation", 
      "name": "activation171", 
      "attr": {"act_type": "tanh"}, 
      "inputs": [[885, 0, 0]]
    }, 
    {
      "op": "_mul", 
      "name": "lstm_l0_t31_out", 
      "inputs": [[879, 0, 0], [886, 0, 0]]
    }, 
    {
      "op": "FullyConnected", 
      "name": "lstm_l1_t31_i2h", 
      "attr": {"num_hidden": "1024"}, 
      "inputs": [[887, 0, 0], [45, 0, 0], [46, 0, 0]]
    }, 
    {
      "op": "FullyConnected", 
      "name": "lstm_l1_t31_h2h", 
      "attr": {"num_hidden": "1024"}, 
      "inputs": [[873, 0, 0], [49, 0, 0], [50, 0, 0]]
    }, 
    {
      "op": "elemwise_add", 
      "name": "_plus241", 
      "inputs": [[888, 0, 0], [889, 0, 0]]
    }, 
    {
      "op": "SliceChannel", 
      "name": "lstm_l1_t31_slice", 
      "attr": {"num_outputs": "4"}, 
      "inputs": [[890, 0, 0]]
    }, 
    {
      "op": "Activation", 
      "name": "lstm_l1_t31_o", 
      "attr": {"act_type": "sigmoid"}, 
      "inputs": [[891, 3, 0]]
    }, 
    {
      "op": "Activation", 
      "name": "lstm_l1_t31_f", 
      "attr": {"act_type": "sigmoid"}, 
      "inputs": [[891, 1, 0]]
    }, 
    {
      "op": "_mul", 
      "name": "_mul482", 
      "inputs": [[893, 0, 0], [871, 0, 0]]
    }, 
    {
      "op": "Activation", 
      "name": "lstm_l1_t31_i", 
      "attr": {"act_type": "sigmoid"}, 
      "inputs": [[891, 0, 0]]
    }, 
    {
      "op": "Activation", 
      "name": "lstm_l1_t31_c", 
      "attr": {"act_type": "tanh"}, 
      "inputs": [[891, 2, 0]]
    }, 
    {
      "op": "_mul", 
      "name": "_mul483", 
      "inputs": [[895, 0, 0], [896, 0, 0]]
    }, 
    {
      "op": "elemwise_add", 
      "name": "lstm_l1_t31_state", 
      "inputs": [[894, 0, 0], [897, 0, 0]]
    }, 
    {
      "op": "Activation", 
      "name": "activation241", 
      "attr": {"act_type": "tanh"}, 
      "inputs": [[898, 0, 0]]
    }, 
    {
      "op": "_mul", 
      "name": "lstm_l1_t31_out", 
      "inputs": [[892, 0, 0], [899, 0, 0]]
    }, 
    {
      "op": "expand_dims", 
      "name": "expand_dims101", 
      "attr": {"axis": "1"}, 
      "inputs": [[900, 0, 0]]
    }, 
    {
      "op": "FullyConnected", 
      "name": "lstm_l0_t32_i2h", 
      "attr": {"num_hidden": "1024"}, 
      "inputs": [[25, 32, 0], [26, 0, 0], [27, 0, 0]]
    }, 
    {
      "op": "FullyConnected", 
      "name": "lstm_l0_t32_h2h", 
      "attr": {"num_hidden": "1024"}, 
      "inputs": [[887, 0, 0], [30, 0, 0], [31, 0, 0]]
    }, 
    {
      "op": "elemwise_add", 
      "name": "_plus172", 
      "inputs": [[902, 0, 0], [903, 0, 0]]
    }, 
    {
      "op": "SliceChannel", 
      "name": "lstm_l0_t32_slice", 
      "attr": {"num_outputs": "4"}, 
      "inputs": [[904, 0, 0]]
    }, 
    {
      "op": "Activation", 
      "name": "lstm_l0_t32_o", 
      "attr": {"act_type": "sigmoid"}, 
      "inputs": [[905, 3, 0]]
    }, 
    {
      "op": "Activation", 
      "name": "lstm_l0_t32_f", 
      "attr": {"act_type": "sigmoid"}, 
      "inputs": [[905, 1, 0]]
    }, 
    {
      "op": "_mul", 
      "name": "_mul344", 
      "inputs": [[907, 0, 0], [885, 0, 0]]
    }, 
    {
      "op": "Activation", 
      "name": "lstm_l0_t32_i", 
      "attr": {"act_type": "sigmoid"}, 
      "inputs": [[905, 0, 0]]
    }, 
    {
      "op": "Activation", 
      "name": "lstm_l0_t32_c", 
      "attr": {"act_type": "tanh"}, 
      "inputs": [[905, 2, 0]]
    }, 
    {
      "op": "_mul", 
      "name": "_mul345", 
      "inputs": [[909, 0, 0], [910, 0, 0]]
    }, 
    {
      "op": "elemwise_add", 
      "name": "lstm_l0_t32_state", 
      "inputs": [[908, 0, 0], [911, 0, 0]]
    }, 
    {
      "op": "Activation", 
      "name": "activation172", 
      "attr": {"act_type": "tanh"}, 
      "inputs": [[912, 0, 0]]
    }, 
    {
      "op": "_mul", 
      "name": "lstm_l0_t32_out", 
      "inputs": [[906, 0, 0], [913, 0, 0]]
    }, 
    {
      "op": "FullyConnected", 
      "name": "lstm_l1_t32_i2h", 
      "attr": {"num_hidden": "1024"}, 
      "inputs": [[914, 0, 0], [45, 0, 0], [46, 0, 0]]
    }, 
    {
      "op": "FullyConnected", 
      "name": "lstm_l1_t32_h2h", 
      "attr": {"num_hidden": "1024"}, 
      "inputs": [[900, 0, 0], [49, 0, 0], [50, 0, 0]]
    }, 
    {
      "op": "elemwise_add", 
      "name": "_plus242", 
      "inputs": [[915, 0, 0], [916, 0, 0]]
    }, 
    {
      "op": "SliceChannel", 
      "name": "lstm_l1_t32_slice", 
      "attr": {"num_outputs": "4"}, 
      "inputs": [[917, 0, 0]]
    }, 
    {
      "op": "Activation", 
      "name": "lstm_l1_t32_o", 
      "attr": {"act_type": "sigmoid"}, 
      "inputs": [[918, 3, 0]]
    }, 
    {
      "op": "Activation", 
      "name": "lstm_l1_t32_f", 
      "attr": {"act_type": "sigmoid"}, 
      "inputs": [[918, 1, 0]]
    }, 
    {
      "op": "_mul", 
      "name": "_mul484", 
      "inputs": [[920, 0, 0], [898, 0, 0]]
    }, 
    {
      "op": "Activation", 
      "name": "lstm_l1_t32_i", 
      "attr": {"act_type": "sigmoid"}, 
      "inputs": [[918, 0, 0]]
    }, 
    {
      "op": "Activation", 
      "name": "lstm_l1_t32_c", 
      "attr": {"act_type": "tanh"}, 
      "inputs": [[918, 2, 0]]
    }, 
    {
      "op": "_mul", 
      "name": "_mul485", 
      "inputs": [[922, 0, 0], [923, 0, 0]]
    }, 
    {
      "op": "elemwise_add", 
      "name": "lstm_l1_t32_state", 
      "inputs": [[921, 0, 0], [924, 0, 0]]
    }, 
    {
      "op": "Activation", 
      "name": "activation242", 
      "attr": {"act_type": "tanh"}, 
      "inputs": [[925, 0, 0]]
    }, 
    {
      "op": "_mul", 
      "name": "lstm_l1_t32_out", 
      "inputs": [[919, 0, 0], [926, 0, 0]]
    }, 
    {
      "op": "expand_dims", 
      "name": "expand_dims102", 
      "attr": {"axis": "1"}, 
      "inputs": [[927, 0, 0]]
    }, 
    {
      "op": "FullyConnected", 
      "name": "lstm_l0_t33_i2h", 
      "attr": {"num_hidden": "1024"}, 
      "inputs": [[25, 33, 0], [26, 0, 0], [27, 0, 0]]
    }, 
    {
      "op": "FullyConnected", 
      "name": "lstm_l0_t33_h2h", 
      "attr": {"num_hidden": "1024"}, 
      "inputs": [[914, 0, 0], [30, 0, 0], [31, 0, 0]]
    }, 
    {
      "op": "elemwise_add", 
      "name": "_plus173", 
      "inputs": [[929, 0, 0], [930, 0, 0]]
    }, 
    {
      "op": "SliceChannel", 
      "name": "lstm_l0_t33_slice", 
      "attr": {"num_outputs": "4"}, 
      "inputs": [[931, 0, 0]]
    }, 
    {
      "op": "Activation", 
      "name": "lstm_l0_t33_o", 
      "attr": {"act_type": "sigmoid"}, 
      "inputs": [[932, 3, 0]]
    }, 
    {
      "op": "Activation", 
      "name": "lstm_l0_t33_f", 
      "attr": {"act_type": "sigmoid"}, 
      "inputs": [[932, 1, 0]]
    }, 
    {
      "op": "_mul", 
      "name": "_mul346", 
      "inputs": [[934, 0, 0], [912, 0, 0]]
    }, 
    {
      "op": "Activation", 
      "name": "lstm_l0_t33_i", 
      "attr": {"act_type": "sigmoid"}, 
      "inputs": [[932, 0, 0]]
    }, 
    {
      "op": "Activation", 
      "name": "lstm_l0_t33_c", 
      "attr": {"act_type": "tanh"}, 
      "inputs": [[932, 2, 0]]
    }, 
    {
      "op": "_mul", 
      "name": "_mul347", 
      "inputs": [[936, 0, 0], [937, 0, 0]]
    }, 
    {
      "op": "elemwise_add", 
      "name": "lstm_l0_t33_state", 
      "inputs": [[935, 0, 0], [938, 0, 0]]
    }, 
    {
      "op": "Activation", 
      "name": "activation173", 
      "attr": {"act_type": "tanh"}, 
      "inputs": [[939, 0, 0]]
    }, 
    {
      "op": "_mul", 
      "name": "lstm_l0_t33_out", 
      "inputs": [[933, 0, 0], [940, 0, 0]]
    }, 
    {
      "op": "FullyConnected", 
      "name": "lstm_l1_t33_i2h", 
      "attr": {"num_hidden": "1024"}, 
      "inputs": [[941, 0, 0], [45, 0, 0], [46, 0, 0]]
    }, 
    {
      "op": "FullyConnected", 
      "name": "lstm_l1_t33_h2h", 
      "attr": {"num_hidden": "1024"}, 
      "inputs": [[927, 0, 0], [49, 0, 0], [50, 0, 0]]
    }, 
    {
      "op": "elemwise_add", 
      "name": "_plus243", 
      "inputs": [[942, 0, 0], [943, 0, 0]]
    }, 
    {
      "op": "SliceChannel", 
      "name": "lstm_l1_t33_slice", 
      "attr": {"num_outputs": "4"}, 
      "inputs": [[944, 0, 0]]
    }, 
    {
      "op": "Activation", 
      "name": "lstm_l1_t33_o", 
      "attr": {"act_type": "sigmoid"}, 
      "inputs": [[945, 3, 0]]
    }, 
    {
      "op": "Activation", 
      "name": "lstm_l1_t33_f", 
      "attr": {"act_type": "sigmoid"}, 
      "inputs": [[945, 1, 0]]
    }, 
    {
      "op": "_mul", 
      "name": "_mul486", 
      "inputs": [[947, 0, 0], [925, 0, 0]]
    }, 
    {
      "op": "Activation", 
      "name": "lstm_l1_t33_i", 
      "attr": {"act_type": "sigmoid"}, 
      "inputs": [[945, 0, 0]]
    }, 
    {
      "op": "Activation", 
      "name": "lstm_l1_t33_c", 
      "attr": {"act_type": "tanh"}, 
      "inputs": [[945, 2, 0]]
    }, 
    {
      "op": "_mul", 
      "name": "_mul487", 
      "inputs": [[949, 0, 0], [950, 0, 0]]
    }, 
    {
      "op": "elemwise_add", 
      "name": "lstm_l1_t33_state", 
      "inputs": [[948, 0, 0], [951, 0, 0]]
    }, 
    {
      "op": "Activation", 
      "name": "activation243", 
      "attr": {"act_type": "tanh"}, 
      "inputs": [[952, 0, 0]]
    }, 
    {
      "op": "_mul", 
      "name": "lstm_l1_t33_out", 
      "inputs": [[946, 0, 0], [953, 0, 0]]
    }, 
    {
      "op": "expand_dims", 
      "name": "expand_dims103", 
      "attr": {"axis": "1"}, 
      "inputs": [[954, 0, 0]]
    }, 
    {
      "op": "FullyConnected", 
      "name": "lstm_l0_t34_i2h", 
      "attr": {"num_hidden": "1024"}, 
      "inputs": [[25, 34, 0], [26, 0, 0], [27, 0, 0]]
    }, 
    {
      "op": "FullyConnected", 
      "name": "lstm_l0_t34_h2h", 
      "attr": {"num_hidden": "1024"}, 
      "inputs": [[941, 0, 0], [30, 0, 0], [31, 0, 0]]
    }, 
    {
      "op": "elemwise_add", 
      "name": "_plus174", 
      "inputs": [[956, 0, 0], [957, 0, 0]]
    }, 
    {
      "op": "SliceChannel", 
      "name": "lstm_l0_t34_slice", 
      "attr": {"num_outputs": "4"}, 
      "inputs": [[958, 0, 0]]
    }, 
    {
      "op": "Activation", 
      "name": "lstm_l0_t34_o", 
      "attr": {"act_type": "sigmoid"}, 
      "inputs": [[959, 3, 0]]
    }, 
    {
      "op": "Activation", 
      "name": "lstm_l0_t34_f", 
      "attr": {"act_type": "sigmoid"}, 
      "inputs": [[959, 1, 0]]
    }, 
    {
      "op": "_mul", 
      "name": "_mul348", 
      "inputs": [[961, 0, 0], [939, 0, 0]]
    }, 
    {
      "op": "Activation", 
      "name": "lstm_l0_t34_i", 
      "attr": {"act_type": "sigmoid"}, 
      "inputs": [[959, 0, 0]]
    }, 
    {
      "op": "Activation", 
      "name": "lstm_l0_t34_c", 
      "attr": {"act_type": "tanh"}, 
      "inputs": [[959, 2, 0]]
    }, 
    {
      "op": "_mul", 
      "name": "_mul349", 
      "inputs": [[963, 0, 0], [964, 0, 0]]
    }, 
    {
      "op": "elemwise_add", 
      "name": "lstm_l0_t34_state", 
      "inputs": [[962, 0, 0], [965, 0, 0]]
    }, 
    {
      "op": "Activation", 
      "name": "activation174", 
      "attr": {"act_type": "tanh"}, 
      "inputs": [[966, 0, 0]]
    }, 
    {
      "op": "_mul", 
      "name": "lstm_l0_t34_out", 
      "inputs": [[960, 0, 0], [967, 0, 0]]
    }, 
    {
      "op": "FullyConnected", 
      "name": "lstm_l1_t34_i2h", 
      "attr": {"num_hidden": "1024"}, 
      "inputs": [[968, 0, 0], [45, 0, 0], [46, 0, 0]]
    }, 
    {
      "op": "FullyConnected", 
      "name": "lstm_l1_t34_h2h", 
      "attr": {"num_hidden": "1024"}, 
      "inputs": [[954, 0, 0], [49, 0, 0], [50, 0, 0]]
    }, 
    {
      "op": "elemwise_add", 
      "name": "_plus244", 
      "inputs": [[969, 0, 0], [970, 0, 0]]
    }, 
    {
      "op": "SliceChannel", 
      "name": "lstm_l1_t34_slice", 
      "attr": {"num_outputs": "4"}, 
      "inputs": [[971, 0, 0]]
    }, 
    {
      "op": "Activation", 
      "name": "lstm_l1_t34_o", 
      "attr": {"act_type": "sigmoid"}, 
      "inputs": [[972, 3, 0]]
    }, 
    {
      "op": "Activation", 
      "name": "lstm_l1_t34_f", 
      "attr": {"act_type": "sigmoid"}, 
      "inputs": [[972, 1, 0]]
    }, 
    {
      "op": "_mul", 
      "name": "_mul488", 
      "inputs": [[974, 0, 0], [952, 0, 0]]
    }, 
    {
      "op": "Activation", 
      "name": "lstm_l1_t34_i", 
      "attr": {"act_type": "sigmoid"}, 
      "inputs": [[972, 0, 0]]
    }, 
    {
      "op": "Activation", 
      "name": "lstm_l1_t34_c", 
      "attr": {"act_type": "tanh"}, 
      "inputs": [[972, 2, 0]]
    }, 
    {
      "op": "_mul", 
      "name": "_mul489", 
      "inputs": [[976, 0, 0], [977, 0, 0]]
    }, 
    {
      "op": "elemwise_add", 
      "name": "lstm_l1_t34_state", 
      "inputs": [[975, 0, 0], [978, 0, 0]]
    }, 
    {
      "op": "Activation", 
      "name": "activation244", 
      "attr": {"act_type": "tanh"}, 
      "inputs": [[979, 0, 0]]
    }, 
    {
      "op": "_mul", 
      "name": "lstm_l1_t34_out", 
      "inputs": [[973, 0, 0], [980, 0, 0]]
    }, 
    {
      "op": "expand_dims", 
      "name": "expand_dims104", 
      "attr": {"axis": "1"}, 
      "inputs": [[981, 0, 0]]
    }, 
    {
      "op": "FullyConnected", 
      "name": "lstm_l0_t35_i2h", 
      "attr": {"num_hidden": "1024"}, 
      "inputs": [[25, 35, 0], [26, 0, 0], [27, 0, 0]]
    }, 
    {
      "op": "FullyConnected", 
      "name": "lstm_l0_t35_h2h", 
      "attr": {"num_hidden": "1024"}, 
      "inputs": [[968, 0, 0], [30, 0, 0], [31, 0, 0]]
    }, 
    {
      "op": "elemwise_add", 
      "name": "_plus175", 
      "inputs": [[983, 0, 0], [984, 0, 0]]
    }, 
    {
      "op": "SliceChannel", 
      "name": "lstm_l0_t35_slice", 
      "attr": {"num_outputs": "4"}, 
      "inputs": [[985, 0, 0]]
    }, 
    {
      "op": "Activation", 
      "name": "lstm_l0_t35_o", 
      "attr": {"act_type": "sigmoid"}, 
      "inputs": [[986, 3, 0]]
    }, 
    {
      "op": "Activation", 
      "name": "lstm_l0_t35_f", 
      "attr": {"act_type": "sigmoid"}, 
      "inputs": [[986, 1, 0]]
    }, 
    {
      "op": "_mul", 
      "name": "_mul350", 
      "inputs": [[988, 0, 0], [966, 0, 0]]
    }, 
    {
      "op": "Activation", 
      "name": "lstm_l0_t35_i", 
      "attr": {"act_type": "sigmoid"}, 
      "inputs": [[986, 0, 0]]
    }, 
    {
      "op": "Activation", 
      "name": "lstm_l0_t35_c", 
      "attr": {"act_type": "tanh"}, 
      "inputs": [[986, 2, 0]]
    }, 
    {
      "op": "_mul", 
      "name": "_mul351", 
      "inputs": [[990, 0, 0], [991, 0, 0]]
    }, 
    {
      "op": "elemwise_add", 
      "name": "lstm_l0_t35_state", 
      "inputs": [[989, 0, 0], [992, 0, 0]]
    }, 
    {
      "op": "Activation", 
      "name": "activation175", 
      "attr": {"act_type": "tanh"}, 
      "inputs": [[993, 0, 0]]
    }, 
    {
      "op": "_mul", 
      "name": "lstm_l0_t35_out", 
      "inputs": [[987, 0, 0], [994, 0, 0]]
    }, 
    {
      "op": "FullyConnected", 
      "name": "lstm_l1_t35_i2h", 
      "attr": {"num_hidden": "1024"}, 
      "inputs": [[995, 0, 0], [45, 0, 0], [46, 0, 0]]
    }, 
    {
      "op": "FullyConnected", 
      "name": "lstm_l1_t35_h2h", 
      "attr": {"num_hidden": "1024"}, 
      "inputs": [[981, 0, 0], [49, 0, 0], [50, 0, 0]]
    }, 
    {
      "op": "elemwise_add", 
      "name": "_plus245", 
      "inputs": [[996, 0, 0], [997, 0, 0]]
    }, 
    {
      "op": "SliceChannel", 
      "name": "lstm_l1_t35_slice", 
      "attr": {"num_outputs": "4"}, 
      "inputs": [[998, 0, 0]]
    }, 
    {
      "op": "Activation", 
      "name": "lstm_l1_t35_o", 
      "attr": {"act_type": "sigmoid"}, 
      "inputs": [[999, 3, 0]]
    }, 
    {
      "op": "Activation", 
      "name": "lstm_l1_t35_f", 
      "attr": {"act_type": "sigmoid"}, 
      "inputs": [[999, 1, 0]]
    }, 
    {
      "op": "_mul", 
      "name": "_mul490", 
      "inputs": [[1001, 0, 0], [979, 0, 0]]
    }, 
    {
      "op": "Activation", 
      "name": "lstm_l1_t35_i", 
      "attr": {"act_type": "sigmoid"}, 
      "inputs": [[999, 0, 0]]
    }, 
    {
      "op": "Activation", 
      "name": "lstm_l1_t35_c", 
      "attr": {"act_type": "tanh"}, 
      "inputs": [[999, 2, 0]]
    }, 
    {
      "op": "_mul", 
      "name": "_mul491", 
      "inputs": [[1003, 0, 0], [1004, 0, 0]]
    }, 
    {
      "op": "elemwise_add", 
      "name": "lstm_l1_t35_state", 
      "inputs": [[1002, 0, 0], [1005, 0, 0]]
    }, 
    {
      "op": "Activation", 
      "name": "activation245", 
      "attr": {"act_type": "tanh"}, 
      "inputs": [[1006, 0, 0]]
    }, 
    {
      "op": "_mul", 
      "name": "lstm_l1_t35_out", 
      "inputs": [[1000, 0, 0], [1007, 0, 0]]
    }, 
    {
      "op": "expand_dims", 
      "name": "expand_dims105", 
      "attr": {"axis": "1"}, 
      "inputs": [[1008, 0, 0]]
    }, 
    {
      "op": "FullyConnected", 
      "name": "lstm_l0_t36_i2h", 
      "attr": {"num_hidden": "1024"}, 
      "inputs": [[25, 36, 0], [26, 0, 0], [27, 0, 0]]
    }, 
    {
      "op": "FullyConnected", 
      "name": "lstm_l0_t36_h2h", 
      "attr": {"num_hidden": "1024"}, 
      "inputs": [[995, 0, 0], [30, 0, 0], [31, 0, 0]]
    }, 
    {
      "op": "elemwise_add", 
      "name": "_plus176", 
      "inputs": [[1010, 0, 0], [1011, 0, 0]]
    }, 
    {
      "op": "SliceChannel", 
      "name": "lstm_l0_t36_slice", 
      "attr": {"num_outputs": "4"}, 
      "inputs": [[1012, 0, 0]]
    }, 
    {
      "op": "Activation", 
      "name": "lstm_l0_t36_o", 
      "attr": {"act_type": "sigmoid"}, 
      "inputs": [[1013, 3, 0]]
    }, 
    {
      "op": "Activation", 
      "name": "lstm_l0_t36_f", 
      "attr": {"act_type": "sigmoid"}, 
      "inputs": [[1013, 1, 0]]
    }, 
    {
      "op": "_mul", 
      "name": "_mul352", 
      "inputs": [[1015, 0, 0], [993, 0, 0]]
    }, 
    {
      "op": "Activation", 
      "name": "lstm_l0_t36_i", 
      "attr": {"act_type": "sigmoid"}, 
      "inputs": [[1013, 0, 0]]
    }, 
    {
      "op": "Activation", 
      "name": "lstm_l0_t36_c", 
      "attr": {"act_type": "tanh"}, 
      "inputs": [[1013, 2, 0]]
    }, 
    {
      "op": "_mul", 
      "name": "_mul353", 
      "inputs": [[1017, 0, 0], [1018, 0, 0]]
    }, 
    {
      "op": "elemwise_add", 
      "name": "lstm_l0_t36_state", 
      "inputs": [[1016, 0, 0], [1019, 0, 0]]
    }, 
    {
      "op": "Activation", 
      "name": "activation176", 
      "attr": {"act_type": "tanh"}, 
      "inputs": [[1020, 0, 0]]
    }, 
    {
      "op": "_mul", 
      "name": "lstm_l0_t36_out", 
      "inputs": [[1014, 0, 0], [1021, 0, 0]]
    }, 
    {
      "op": "FullyConnected", 
      "name": "lstm_l1_t36_i2h", 
      "attr": {"num_hidden": "1024"}, 
      "inputs": [[1022, 0, 0], [45, 0, 0], [46, 0, 0]]
    }, 
    {
      "op": "FullyConnected", 
      "name": "lstm_l1_t36_h2h", 
      "attr": {"num_hidden": "1024"}, 
      "inputs": [[1008, 0, 0], [49, 0, 0], [50, 0, 0]]
    }, 
    {
      "op": "elemwise_add", 
      "name": "_plus246", 
      "inputs": [[1023, 0, 0], [1024, 0, 0]]
    }, 
    {
      "op": "SliceChannel", 
      "name": "lstm_l1_t36_slice", 
      "attr": {"num_outputs": "4"}, 
      "inputs": [[1025, 0, 0]]
    }, 
    {
      "op": "Activation", 
      "name": "lstm_l1_t36_o", 
      "attr": {"act_type": "sigmoid"}, 
      "inputs": [[1026, 3, 0]]
    }, 
    {
      "op": "Activation", 
      "name": "lstm_l1_t36_f", 
      "attr": {"act_type": "sigmoid"}, 
      "inputs": [[1026, 1, 0]]
    }, 
    {
      "op": "_mul", 
      "name": "_mul492", 
      "inputs": [[1028, 0, 0], [1006, 0, 0]]
    }, 
    {
      "op": "Activation", 
      "name": "lstm_l1_t36_i", 
      "attr": {"act_type": "sigmoid"}, 
      "inputs": [[1026, 0, 0]]
    }, 
    {
      "op": "Activation", 
      "name": "lstm_l1_t36_c", 
      "attr": {"act_type": "tanh"}, 
      "inputs": [[1026, 2, 0]]
    }, 
    {
      "op": "_mul", 
      "name": "_mul493", 
      "inputs": [[1030, 0, 0], [1031, 0, 0]]
    }, 
    {
      "op": "elemwise_add", 
      "name": "lstm_l1_t36_state", 
      "inputs": [[1029, 0, 0], [1032, 0, 0]]
    }, 
    {
      "op": "Activation", 
      "name": "activation246", 
      "attr": {"act_type": "tanh"}, 
      "inputs": [[1033, 0, 0]]
    }, 
    {
      "op": "_mul", 
      "name": "lstm_l1_t36_out", 
      "inputs": [[1027, 0, 0], [1034, 0, 0]]
    }, 
    {
      "op": "expand_dims", 
      "name": "expand_dims106", 
      "attr": {"axis": "1"}, 
      "inputs": [[1035, 0, 0]]
    }, 
    {
      "op": "FullyConnected", 
      "name": "lstm_l0_t37_i2h", 
      "attr": {"num_hidden": "1024"}, 
      "inputs": [[25, 37, 0], [26, 0, 0], [27, 0, 0]]
    }, 
    {
      "op": "FullyConnected", 
      "name": "lstm_l0_t37_h2h", 
      "attr": {"num_hidden": "1024"}, 
      "inputs": [[1022, 0, 0], [30, 0, 0], [31, 0, 0]]
    }, 
    {
      "op": "elemwise_add", 
      "name": "_plus177", 
      "inputs": [[1037, 0, 0], [1038, 0, 0]]
    }, 
    {
      "op": "SliceChannel", 
      "name": "lstm_l0_t37_slice", 
      "attr": {"num_outputs": "4"}, 
      "inputs": [[1039, 0, 0]]
    }, 
    {
      "op": "Activation", 
      "name": "lstm_l0_t37_o", 
      "attr": {"act_type": "sigmoid"}, 
      "inputs": [[1040, 3, 0]]
    }, 
    {
      "op": "Activation", 
      "name": "lstm_l0_t37_f", 
      "attr": {"act_type": "sigmoid"}, 
      "inputs": [[1040, 1, 0]]
    }, 
    {
      "op": "_mul", 
      "name": "_mul354", 
      "inputs": [[1042, 0, 0], [1020, 0, 0]]
    }, 
    {
      "op": "Activation", 
      "name": "lstm_l0_t37_i", 
      "attr": {"act_type": "sigmoid"}, 
      "inputs": [[1040, 0, 0]]
    }, 
    {
      "op": "Activation", 
      "name": "lstm_l0_t37_c", 
      "attr": {"act_type": "tanh"}, 
      "inputs": [[1040, 2, 0]]
    }, 
    {
      "op": "_mul", 
      "name": "_mul355", 
      "inputs": [[1044, 0, 0], [1045, 0, 0]]
    }, 
    {
      "op": "elemwise_add", 
      "name": "lstm_l0_t37_state", 
      "inputs": [[1043, 0, 0], [1046, 0, 0]]
    }, 
    {
      "op": "Activation", 
      "name": "activation177", 
      "attr": {"act_type": "tanh"}, 
      "inputs": [[1047, 0, 0]]
    }, 
    {
      "op": "_mul", 
      "name": "lstm_l0_t37_out", 
      "inputs": [[1041, 0, 0], [1048, 0, 0]]
    }, 
    {
      "op": "FullyConnected", 
      "name": "lstm_l1_t37_i2h", 
      "attr": {"num_hidden": "1024"}, 
      "inputs": [[1049, 0, 0], [45, 0, 0], [46, 0, 0]]
    }, 
    {
      "op": "FullyConnected", 
      "name": "lstm_l1_t37_h2h", 
      "attr": {"num_hidden": "1024"}, 
      "inputs": [[1035, 0, 0], [49, 0, 0], [50, 0, 0]]
    }, 
    {
      "op": "elemwise_add", 
      "name": "_plus247", 
      "inputs": [[1050, 0, 0], [1051, 0, 0]]
    }, 
    {
      "op": "SliceChannel", 
      "name": "lstm_l1_t37_slice", 
      "attr": {"num_outputs": "4"}, 
      "inputs": [[1052, 0, 0]]
    }, 
    {
      "op": "Activation", 
      "name": "lstm_l1_t37_o", 
      "attr": {"act_type": "sigmoid"}, 
      "inputs": [[1053, 3, 0]]
    }, 
    {
      "op": "Activation", 
      "name": "lstm_l1_t37_f", 
      "attr": {"act_type": "sigmoid"}, 
      "inputs": [[1053, 1, 0]]
    }, 
    {
      "op": "_mul", 
      "name": "_mul494", 
      "inputs": [[1055, 0, 0], [1033, 0, 0]]
    }, 
    {
      "op": "Activation", 
      "name": "lstm_l1_t37_i", 
      "attr": {"act_type": "sigmoid"}, 
      "inputs": [[1053, 0, 0]]
    }, 
    {
      "op": "Activation", 
      "name": "lstm_l1_t37_c", 
      "attr": {"act_type": "tanh"}, 
      "inputs": [[1053, 2, 0]]
    }, 
    {
      "op": "_mul", 
      "name": "_mul495", 
      "inputs": [[1057, 0, 0], [1058, 0, 0]]
    }, 
    {
      "op": "elemwise_add", 
      "name": "lstm_l1_t37_state", 
      "inputs": [[1056, 0, 0], [1059, 0, 0]]
    }, 
    {
      "op": "Activation", 
      "name": "activation247", 
      "attr": {"act_type": "tanh"}, 
      "inputs": [[1060, 0, 0]]
    }, 
    {
      "op": "_mul", 
      "name": "lstm_l1_t37_out", 
      "inputs": [[1054, 0, 0], [1061, 0, 0]]
    }, 
    {
      "op": "expand_dims", 
      "name": "expand_dims107", 
      "attr": {"axis": "1"}, 
      "inputs": [[1062, 0, 0]]
    }, 
    {
      "op": "FullyConnected", 
      "name": "lstm_l0_t38_i2h", 
      "attr": {"num_hidden": "1024"}, 
      "inputs": [[25, 38, 0], [26, 0, 0], [27, 0, 0]]
    }, 
    {
      "op": "FullyConnected", 
      "name": "lstm_l0_t38_h2h", 
      "attr": {"num_hidden": "1024"}, 
      "inputs": [[1049, 0, 0], [30, 0, 0], [31, 0, 0]]
    }, 
    {
      "op": "elemwise_add", 
      "name": "_plus178", 
      "inputs": [[1064, 0, 0], [1065, 0, 0]]
    }, 
    {
      "op": "SliceChannel", 
      "name": "lstm_l0_t38_slice", 
      "attr": {"num_outputs": "4"}, 
      "inputs": [[1066, 0, 0]]
    }, 
    {
      "op": "Activation", 
      "name": "lstm_l0_t38_o", 
      "attr": {"act_type": "sigmoid"}, 
      "inputs": [[1067, 3, 0]]
    }, 
    {
      "op": "Activation", 
      "name": "lstm_l0_t38_f", 
      "attr": {"act_type": "sigmoid"}, 
      "inputs": [[1067, 1, 0]]
    }, 
    {
      "op": "_mul", 
      "name": "_mul356", 
      "inputs": [[1069, 0, 0], [1047, 0, 0]]
    }, 
    {
      "op": "Activation", 
      "name": "lstm_l0_t38_i", 
      "attr": {"act_type": "sigmoid"}, 
      "inputs": [[1067, 0, 0]]
    }, 
    {
      "op": "Activation", 
      "name": "lstm_l0_t38_c", 
      "attr": {"act_type": "tanh"}, 
      "inputs": [[1067, 2, 0]]
    }, 
    {
      "op": "_mul", 
      "name": "_mul357", 
      "inputs": [[1071, 0, 0], [1072, 0, 0]]
    }, 
    {
      "op": "elemwise_add", 
      "name": "lstm_l0_t38_state", 
      "inputs": [[1070, 0, 0], [1073, 0, 0]]
    }, 
    {
      "op": "Activation", 
      "name": "activation178", 
      "attr": {"act_type": "tanh"}, 
      "inputs": [[1074, 0, 0]]
    }, 
    {
      "op": "_mul", 
      "name": "lstm_l0_t38_out", 
      "inputs": [[1068, 0, 0], [1075, 0, 0]]
    }, 
    {
      "op": "FullyConnected", 
      "name": "lstm_l1_t38_i2h", 
      "attr": {"num_hidden": "1024"}, 
      "inputs": [[1076, 0, 0], [45, 0, 0], [46, 0, 0]]
    }, 
    {
      "op": "FullyConnected", 
      "name": "lstm_l1_t38_h2h", 
      "attr": {"num_hidden": "1024"}, 
      "inputs": [[1062, 0, 0], [49, 0, 0], [50, 0, 0]]
    }, 
    {
      "op": "elemwise_add", 
      "name": "_plus248", 
      "inputs": [[1077, 0, 0], [1078, 0, 0]]
    }, 
    {
      "op": "SliceChannel", 
      "name": "lstm_l1_t38_slice", 
      "attr": {"num_outputs": "4"}, 
      "inputs": [[1079, 0, 0]]
    }, 
    {
      "op": "Activation", 
      "name": "lstm_l1_t38_o", 
      "attr": {"act_type": "sigmoid"}, 
      "inputs": [[1080, 3, 0]]
    }, 
    {
      "op": "Activation", 
      "name": "lstm_l1_t38_f", 
      "attr": {"act_type": "sigmoid"}, 
      "inputs": [[1080, 1, 0]]
    }, 
    {
      "op": "_mul", 
      "name": "_mul496", 
      "inputs": [[1082, 0, 0], [1060, 0, 0]]
    }, 
    {
      "op": "Activation", 
      "name": "lstm_l1_t38_i", 
      "attr": {"act_type": "sigmoid"}, 
      "inputs": [[1080, 0, 0]]
    }, 
    {
      "op": "Activation", 
      "name": "lstm_l1_t38_c", 
      "attr": {"act_type": "tanh"}, 
      "inputs": [[1080, 2, 0]]
    }, 
    {
      "op": "_mul", 
      "name": "_mul497", 
      "inputs": [[1084, 0, 0], [1085, 0, 0]]
    }, 
    {
      "op": "elemwise_add", 
      "name": "lstm_l1_t38_state", 
      "inputs": [[1083, 0, 0], [1086, 0, 0]]
    }, 
    {
      "op": "Activation", 
      "name": "activation248", 
      "attr": {"act_type": "tanh"}, 
      "inputs": [[1087, 0, 0]]
    }, 
    {
      "op": "_mul", 
      "name": "lstm_l1_t38_out", 
      "inputs": [[1081, 0, 0], [1088, 0, 0]]
    }, 
    {
      "op": "expand_dims", 
      "name": "expand_dims108", 
      "attr": {"axis": "1"}, 
      "inputs": [[1089, 0, 0]]
    }, 
    {
      "op": "FullyConnected", 
      "name": "lstm_l0_t39_i2h", 
      "attr": {"num_hidden": "1024"}, 
      "inputs": [[25, 39, 0], [26, 0, 0], [27, 0, 0]]
    }, 
    {
      "op": "FullyConnected", 
      "name": "lstm_l0_t39_h2h", 
      "attr": {"num_hidden": "1024"}, 
      "inputs": [[1076, 0, 0], [30, 0, 0], [31, 0, 0]]
    }, 
    {
      "op": "elemwise_add", 
      "name": "_plus179", 
      "inputs": [[1091, 0, 0], [1092, 0, 0]]
    }, 
    {
      "op": "SliceChannel", 
      "name": "lstm_l0_t39_slice", 
      "attr": {"num_outputs": "4"}, 
      "inputs": [[1093, 0, 0]]
    }, 
    {
      "op": "Activation", 
      "name": "lstm_l0_t39_o", 
      "attr": {"act_type": "sigmoid"}, 
      "inputs": [[1094, 3, 0]]
    }, 
    {
      "op": "Activation", 
      "name": "lstm_l0_t39_f", 
      "attr": {"act_type": "sigmoid"}, 
      "inputs": [[1094, 1, 0]]
    }, 
    {
      "op": "_mul", 
      "name": "_mul358", 
      "inputs": [[1096, 0, 0], [1074, 0, 0]]
    }, 
    {
      "op": "Activation", 
      "name": "lstm_l0_t39_i", 
      "attr": {"act_type": "sigmoid"}, 
      "inputs": [[1094, 0, 0]]
    }, 
    {
      "op": "Activation", 
      "name": "lstm_l0_t39_c", 
      "attr": {"act_type": "tanh"}, 
      "inputs": [[1094, 2, 0]]
    }, 
    {
      "op": "_mul", 
      "name": "_mul359", 
      "inputs": [[1098, 0, 0], [1099, 0, 0]]
    }, 
    {
      "op": "elemwise_add", 
      "name": "lstm_l0_t39_state", 
      "inputs": [[1097, 0, 0], [1100, 0, 0]]
    }, 
    {
      "op": "Activation", 
      "name": "activation179", 
      "attr": {"act_type": "tanh"}, 
      "inputs": [[1101, 0, 0]]
    }, 
    {
      "op": "_mul", 
      "name": "lstm_l0_t39_out", 
      "inputs": [[1095, 0, 0], [1102, 0, 0]]
    }, 
    {
      "op": "FullyConnected", 
      "name": "lstm_l1_t39_i2h", 
      "attr": {"num_hidden": "1024"}, 
      "inputs": [[1103, 0, 0], [45, 0, 0], [46, 0, 0]]
    }, 
    {
      "op": "FullyConnected", 
      "name": "lstm_l1_t39_h2h", 
      "attr": {"num_hidden": "1024"}, 
      "inputs": [[1089, 0, 0], [49, 0, 0], [50, 0, 0]]
    }, 
    {
      "op": "elemwise_add", 
      "name": "_plus249", 
      "inputs": [[1104, 0, 0], [1105, 0, 0]]
    }, 
    {
      "op": "SliceChannel", 
      "name": "lstm_l1_t39_slice", 
      "attr": {"num_outputs": "4"}, 
      "inputs": [[1106, 0, 0]]
    }, 
    {
      "op": "Activation", 
      "name": "lstm_l1_t39_o", 
      "attr": {"act_type": "sigmoid"}, 
      "inputs": [[1107, 3, 0]]
    }, 
    {
      "op": "Activation", 
      "name": "lstm_l1_t39_f", 
      "attr": {"act_type": "sigmoid"}, 
      "inputs": [[1107, 1, 0]]
    }, 
    {
      "op": "_mul", 
      "name": "_mul498", 
…
    }, 
    {
      "op": "elemwise_add", 
      "name": "_plus204", 
      "inputs": [[1766, 0, 0], [1767, 0, 0]]
    }, 
    {
      "op": "SliceChannel", 
      "name": "lstm_l0_t64_slice", 
      "attr": {"num_outputs": "4"}, 
      "inputs": [[1768, 0, 0]]
    }, 
    {
      "op": "Activation", 
      "name": "lstm_l0_t64_o", 
      "attr": {"act_type": "sigmoid"}, 
      "inputs": [[1769, 3, 0]]
    }, 
    {
      "op": "Activation", 
      "name": "lstm_l0_t64_f", 
      "attr": {"act_type": "sigmoid"}, 
      "inputs": [[1769, 1, 0]]
    }, 
    {
      "op": "_mul", 
      "name": "_mul408", 
      "inputs": [[1771, 0, 0], [1749, 0, 0]]
    }, 
    {
      "op": "Activation", 
      "name": "lstm_l0_t64_i", 
      "attr": {"act_type": "sigmoid"}, 
      "inputs": [[1769, 0, 0]]
    }, 
    {
      "op": "Activation", 
      "name": "lstm_l0_t64_c", 
      "attr": {"act_type": "tanh"}, 
      "inputs": [[1769, 2, 0]]
    }, 
    {
      "op": "_mul", 
      "name": "_mul409", 
      "inputs": [[1773, 0, 0], [1774, 0, 0]]
    }, 
    {
      "op": "elemwise_add", 
      "name": "lstm_l0_t64_state", 
      "inputs": [[1772, 0, 0], [1775, 0, 0]]
    }, 
    {
      "op": "Activation", 
      "name": "activation204", 
      "attr": {"act_type": "tanh"}, 
      "inputs": [[1776, 0, 0]]
    }, 
    {
      "op": "_mul", 
      "name": "lstm_l0_t64_out", 
      "inputs": [[1770, 0, 0], [1777, 0, 0]]
    }, 
    {
      "op": "FullyConnected", 
      "name": "lstm_l1_t64_i2h", 
      "attr": {"num_hidden": "1024"}, 
      "inputs": [[1778, 0, 0], [45, 0, 0], [46, 0, 0]]
    }, 
    {
      "op": "FullyConnected", 
      "name": "lstm_l1_t64_h2h", 
      "attr": {"num_hidden": "1024"}, 
      "inputs": [[1764, 0, 0], [49, 0, 0], [50, 0, 0]]
    }, 
    {
      "op": "elemwise_add", 
      "name": "_plus274", 
      "inputs": [[1779, 0, 0], [1780, 0, 0]]
    }, 
    {
      "op": "SliceChannel", 
      "name": "lstm_l1_t64_slice", 
      "attr": {"num_outputs": "4"}, 
      "inputs": [[1781, 0, 0]]
    }, 
    {
      "op": "Activation", 
      "name": "lstm_l1_t64_o", 
      "attr": {"act_type": "sigmoid"}, 
      "inputs": [[1782, 3, 0]]
    }, 
    {
      "op": "Activation", 
      "name": "lstm_l1_t64_f", 
      "attr": {"act_type": "sigmoid"}, 
      "inputs": [[1782, 1, 0]]
    }, 
    {
      "op": "_mul", 
      "name": "_mul548", 
      "inputs": [[1784, 0, 0], [1762, 0, 0]]
    }, 
    {
      "op": "Activation", 
      "name": "lstm_l1_t64_i", 
      "attr": {"act_type": "sigmoid"}, 
      "inputs": [[1782, 0, 0]]
    }, 
    {
      "op": "Activation", 
      "name": "lstm_l1_t64_c", 
      "attr": {"act_type": "tanh"}, 
      "inputs": [[1782, 2, 0]]
    }, 
    {
      "op": "_mul", 
      "name": "_mul549", 
      "inputs": [[1786, 0, 0], [1787, 0, 0]]
    }, 
    {
      "op": "elemwise_add", 
      "name": "lstm_l1_t64_state", 
      "inputs": [[1785, 0, 0], [1788, 0, 0]]
    }, 
    {
      "op": "Activation", 
      "name": "activation274", 
      "attr": {"act_type": "tanh"}, 
      "inputs": [[1789, 0, 0]]
    }, 
    {
      "op": "_mul", 
      "name": "lstm_l1_t64_out", 
      "inputs": [[1783, 0, 0], [1790, 0, 0]]
    }, 
    {
      "op": "expand_dims", 
      "name": "expand_dims134", 
      "attr": {"axis": "1"}, 
      "inputs": [[1791, 0, 0]]
    }, 
    {
      "op": "FullyConnected", 
      "name": "lstm_l0_t65_i2h", 
      "attr": {"num_hidden": "1024"}, 
      "inputs": [[25, 65, 0], [26, 0, 0], [27, 0, 0]]
    }, 
    {
      "op": "FullyConnected", 
      "name": "lstm_l0_t65_h2h", 
      "attr": {"num_hidden": "1024"}, 
      "inputs": [[1778, 0, 0], [30, 0, 0], [31, 0, 0]]
    }, 
    {
      "op": "elemwise_add", 
      "name": "_plus205", 
      "inputs": [[1793, 0, 0], [1794, 0, 0]]
    }, 
    {
      "op": "SliceChannel", 
      "name": "lstm_l0_t65_slice", 
      "attr": {"num_outputs": "4"}, 
      "inputs": [[1795, 0, 0]]
    }, 
    {
      "op": "Activation", 
      "name": "lstm_l0_t65_o", 
      "attr": {"act_type": "sigmoid"}, 
      "inputs": [[1796, 3, 0]]
    }, 
    {
      "op": "Activation", 
      "name": "lstm_l0_t65_f", 
      "attr": {"act_type": "sigmoid"}, 
      "inputs": [[1796, 1, 0]]
    }, 
    {
      "op": "_mul", 
      "name": "_mul410", 
      "inputs": [[1798, 0, 0], [1776, 0, 0]]
    }, 
    {
      "op": "Activation", 
      "name": "lstm_l0_t65_i", 
      "attr": {"act_type": "sigmoid"}, 
      "inputs": [[1796, 0, 0]]
    }, 
    {
      "op": "Activation", 
      "name": "lstm_l0_t65_c", 
      "attr": {"act_type": "tanh"}, 
      "inputs": [[1796, 2, 0]]
    }, 
    {
      "op": "_mul", 
      "name": "_mul411", 
      "inputs": [[1800, 0, 0], [1801, 0, 0]]
    }, 
    {
      "op": "elemwise_add", 
      "name": "lstm_l0_t65_state", 
      "inputs": [[1799, 0, 0], [1802, 0, 0]]
    }, 
    {
      "op": "Activation", 
      "name": "activation205", 
      "attr": {"act_type": "tanh"}, 
      "inputs": [[1803, 0, 0]]
    }, 
    {
      "op": "_mul", 
      "name": "lstm_l0_t65_out", 
      "inputs": [[1797, 0, 0], [1804, 0, 0]]
    }, 
    {
      "op": "FullyConnected", 
      "name": "lstm_l1_t65_i2h", 
      "attr": {"num_hidden": "1024"}, 
      "inputs": [[1805, 0, 0], [45, 0, 0], [46, 0, 0]]
    }, 
    {
      "op": "FullyConnected", 
      "name": "lstm_l1_t65_h2h", 
      "attr": {"num_hidden": "1024"}, 
      "inputs": [[1791, 0, 0], [49, 0, 0], [50, 0, 0]]
    }, 
    {
      "op": "elemwise_add", 
      "name": "_plus275", 
      "inputs": [[1806, 0, 0], [1807, 0, 0]]
    }, 
    {
      "op": "SliceChannel", 
      "name": "lstm_l1_t65_slice", 
      "attr": {"num_outputs": "4"}, 
      "inputs": [[1808, 0, 0]]
    }, 
    {
      "op": "Activation", 
      "name": "lstm_l1_t65_o", 
      "attr": {"act_type": "sigmoid"}, 
      "inputs": [[1809, 3, 0]]
    }, 
    {
      "op": "Activation", 
      "name": "lstm_l1_t65_f", 
      "attr": {"act_type": "sigmoid"}, 
      "inputs": [[1809, 1, 0]]
    }, 
    {
      "op": "_mul", 
      "name": "_mul550", 
      "inputs": [[1811, 0, 0], [1789, 0, 0]]
    }, 
    {
      "op": "Activation", 
      "name": "lstm_l1_t65_i", 
      "attr": {"act_type": "sigmoid"}, 
      "inputs": [[1809, 0, 0]]
    }, 
    {
      "op": "Activation", 
      "name": "lstm_l1_t65_c", 
      "attr": {"act_type": "tanh"}, 
      "inputs": [[1809, 2, 0]]
    }, 
    {
      "op": "_mul", 
      "name": "_mul551", 
      "inputs": [[1813, 0, 0], [1814, 0, 0]]
    }, 
    {
      "op": "elemwise_add", 
      "name": "lstm_l1_t65_state", 
      "inputs": [[1812, 0, 0], [1815, 0, 0]]
    }, 
    {
      "op": "Activation", 
      "name": "activation275", 
      "attr": {"act_type": "tanh"}, 
      "inputs": [[1816, 0, 0]]
    }, 
    {
      "op": "_mul", 
      "name": "lstm_l1_t65_out", 
      "inputs": [[1810, 0, 0], [1817, 0, 0]]
    }, 
    {
      "op": "expand_dims", 
      "name": "expand_dims135", 
      "attr": {"axis": "1"}, 
      "inputs": [[1818, 0, 0]]
    }, 
    {
      "op": "FullyConnected", 
      "name": "lstm_l0_t66_i2h", 
      "attr": {"num_hidden": "1024"}, 
      "inputs": [[25, 66, 0], [26, 0, 0], [27, 0, 0]]
    }, 
    {
      "op": "FullyConnected", 
      "name": "lstm_l0_t66_h2h", 
      "attr": {"num_hidden": "1024"}, 
      "inputs": [[1805, 0, 0], [30, 0, 0], [31, 0, 0]]
    }, 
    {
      "op": "elemwise_add", 
      "name": "_plus206", 
      "inputs": [[1820, 0, 0], [1821, 0, 0]]
    }, 
    {
      "op": "SliceChannel", 
      "name": "lstm_l0_t66_slice", 
      "attr": {"num_outputs": "4"}, 
      "inputs": [[1822, 0, 0]]
    }, 
    {
      "op": "Activation", 
      "name": "lstm_l0_t66_o", 
      "attr": {"act_type": "sigmoid"}, 
      "inputs": [[1823, 3, 0]]
    }, 
    {
      "op": "Activation", 
      "name": "lstm_l0_t66_f", 
      "attr": {"act_type": "sigmoid"}, 
      "inputs": [[1823, 1, 0]]
    }, 
    {
      "op": "_mul", 
      "name": "_mul412", 
      "inputs": [[1825, 0, 0], [1803, 0, 0]]
    }, 
    {
      "op": "Activation", 
      "name": "lstm_l0_t66_i", 
      "attr": {"act_type": "sigmoid"}, 
      "inputs": [[1823, 0, 0]]
    }, 
    {
      "op": "Activation", 
      "name": "lstm_l0_t66_c", 
      "attr": {"act_type": "tanh"}, 
      "inputs": [[1823, 2, 0]]
    }, 
    {
      "op": "_mul", 
      "name": "_mul413", 
      "inputs": [[1827, 0, 0], [1828, 0, 0]]
    }, 
    {
      "op": "elemwise_add", 
      "name": "lstm_l0_t66_state", 
      "inputs": [[1826, 0, 0], [1829, 0, 0]]
    }, 
    {
      "op": "Activation", 
      "name": "activation206", 
      "attr": {"act_type": "tanh"}, 
      "inputs": [[1830, 0, 0]]
    }, 
    {
      "op": "_mul", 
      "name": "lstm_l0_t66_out", 
      "inputs": [[1824, 0, 0], [1831, 0, 0]]
    }, 
    {
      "op": "FullyConnected", 
      "name": "lstm_l1_t66_i2h", 
      "attr": {"num_hidden": "1024"}, 
      "inputs": [[1832, 0, 0], [45, 0, 0], [46, 0, 0]]
    }, 
    {
      "op": "FullyConnected", 
      "name": "lstm_l1_t66_h2h", 
      "attr": {"num_hidden": "1024"}, 
      "inputs": [[1818, 0, 0], [49, 0, 0], [50, 0, 0]]
    }, 
    {
      "op": "elemwise_add", 
      "name": "_plus276", 
      "inputs": [[1833, 0, 0], [1834, 0, 0]]
    }, 
    {
      "op": "SliceChannel", 
      "name": "lstm_l1_t66_slice", 
      "attr": {"num_outputs": "4"}, 
      "inputs": [[1835, 0, 0]]
    }, 
    {
      "op": "Activation", 
      "name": "lstm_l1_t66_o", 
      "attr": {"act_type": "sigmoid"}, 
      "inputs": [[1836, 3, 0]]
    }, 
    {
      "op": "Activation", 
      "name": "lstm_l1_t66_f", 
      "attr": {"act_type": "sigmoid"}, 
      "inputs": [[1836, 1, 0]]
    }, 
    {
      "op": "_mul", 
      "name": "_mul552", 
      "inputs": [[1838, 0, 0], [1816, 0, 0]]
    }, 
    {
      "op": "Activation", 
      "name": "lstm_l1_t66_i", 
      "attr": {"act_type": "sigmoid"}, 
      "inputs": [[1836, 0, 0]]
    }, 
    {
      "op": "Activation", 
      "name": "lstm_l1_t66_c", 
      "attr": {"act_type": "tanh"}, 
      "inputs": [[1836, 2, 0]]
    }, 
    {
      "op": "_mul", 
      "name": "_mul553", 
      "inputs": [[1840, 0, 0], [1841, 0, 0]]
    }, 
    {
      "op": "elemwise_add", 
      "name": "lstm_l1_t66_state", 
      "inputs": [[1839, 0, 0], [1842, 0, 0]]
    }, 
    {
      "op": "Activation", 
      "name": "activation276", 
      "attr": {"act_type": "tanh"}, 
      "inputs": [[1843, 0, 0]]
    }, 
    {
      "op": "_mul", 
      "name": "lstm_l1_t66_out", 
      "inputs": [[1837, 0, 0], [1844, 0, 0]]
    }, 
    {
      "op": "expand_dims", 
      "name": "expand_dims136", 
      "attr": {"axis": "1"}, 
      "inputs": [[1845, 0, 0]]
    }, 
    {
      "op": "FullyConnected", 
      "name": "lstm_l0_t67_i2h", 
      "attr": {"num_hidden": "1024"}, 
      "inputs": [[25, 67, 0], [26, 0, 0], [27, 0, 0]]
    }, 
    {
      "op": "FullyConnected", 
      "name": "lstm_l0_t67_h2h", 
      "attr": {"num_hidden": "1024"}, 
      "inputs": [[1832, 0, 0], [30, 0, 0], [31, 0, 0]]
    }, 
    {
      "op": "elemwise_add", 
      "name": "_plus207", 
      "inputs": [[1847, 0, 0], [1848, 0, 0]]
    }, 
    {
      "op": "SliceChannel", 
      "name": "lstm_l0_t67_slice", 
      "attr": {"num_outputs": "4"}, 
      "inputs": [[1849, 0, 0]]
    }, 
    {
      "op": "Activation", 
      "name": "lstm_l0_t67_o", 
      "attr": {"act_type": "sigmoid"}, 
      "inputs": [[1850, 3, 0]]
    }, 
    {
      "op": "Activation", 
      "name": "lstm_l0_t67_f", 
      "attr": {"act_type": "sigmoid"}, 
      "inputs": [[1850, 1, 0]]
    }, 
    {
      "op": "_mul", 
      "name": "_mul414", 
      "inputs": [[1852, 0, 0], [1830, 0, 0]]
    }, 
    {
      "op": "Activation", 
      "name": "lstm_l0_t67_i", 
      "attr": {"act_type": "sigmoid"}, 
      "inputs": [[1850, 0, 0]]
    }, 
    {
      "op": "Activation", 
      "name": "lstm_l0_t67_c", 
      "attr": {"act_type": "tanh"}, 
      "inputs": [[1850, 2, 0]]
    }, 
    {
      "op": "_mul", 
      "name": "_mul415", 
      "inputs": [[1854, 0, 0], [1855, 0, 0]]
    }, 
    {
      "op": "elemwise_add", 
      "name": "lstm_l0_t67_state", 
      "inputs": [[1853, 0, 0], [1856, 0, 0]]
    }, 
    {
      "op": "Activation", 
      "name": "activation207", 
      "attr": {"act_type": "tanh"}, 
      "inputs": [[1857, 0, 0]]
    }, 
    {
      "op": "_mul", 
      "name": "lstm_l0_t67_out", 
      "inputs": [[1851, 0, 0], [1858, 0, 0]]
    }, 
    {
      "op": "FullyConnected", 
      "name": "lstm_l1_t67_i2h", 
      "attr": {"num_hidden": "1024"}, 
      "inputs": [[1859, 0, 0], [45, 0, 0], [46, 0, 0]]
    }, 
    {
      "op": "FullyConnected", 
      "name": "lstm_l1_t67_h2h", 
      "attr": {"num_hidden": "1024"}, 
      "inputs": [[1845, 0, 0], [49, 0, 0], [50, 0, 0]]
    }, 
    {
      "op": "elemwise_add", 
      "name": "_plus277", 
      "inputs": [[1860, 0, 0], [1861, 0, 0]]
    }, 
    {
      "op": "SliceChannel", 
      "name": "lstm_l1_t67_slice", 
      "attr": {"num_outputs": "4"}, 
      "inputs": [[1862, 0, 0]]
    }, 
    {
      "op": "Activation", 
      "name": "lstm_l1_t67_o", 
      "attr": {"act_type": "sigmoid"}, 
      "inputs": [[1863, 3, 0]]
    }, 
    {
      "op": "Activation", 
      "name": "lstm_l1_t67_f", 
      "attr": {"act_type": "sigmoid"}, 
      "inputs": [[1863, 1, 0]]
    }, 
    {
      "op": "_mul", 
      "name": "_mul554", 
      "inputs": [[1865, 0, 0], [1843, 0, 0]]
    }, 
    {
      "op": "Activation", 
      "name": "lstm_l1_t67_i", 
      "attr": {"act_type": "sigmoid"}, 
      "inputs": [[1863, 0, 0]]
    }, 
    {
      "op": "Activation", 
      "name": "lstm_l1_t67_c", 
      "attr": {"act_type": "tanh"}, 
      "inputs": [[1863, 2, 0]]
    }, 
    {
      "op": "_mul", 
      "name": "_mul555", 
      "inputs": [[1867, 0, 0], [1868, 0, 0]]
    }, 
    {
      "op": "elemwise_add", 
      "name": "lstm_l1_t67_state", 
      "inputs": [[1866, 0, 0], [1869, 0, 0]]
    }, 
    {
      "op": "Activation", 
      "name": "activation277", 
      "attr": {"act_type": "tanh"}, 
      "inputs": [[1870, 0, 0]]
    }, 
    {
      "op": "_mul", 
      "name": "lstm_l1_t67_out", 
      "inputs": [[1864, 0, 0], [1871, 0, 0]]
    }, 
    {
      "op": "expand_dims", 
      "name": "expand_dims137", 
      "attr": {"axis": "1"}, 
      "inputs": [[1872, 0, 0]]
    }, 
    {
      "op": "FullyConnected", 
      "name": "lstm_l0_t68_i2h", 
      "attr": {"num_hidden": "1024"}, 
      "inputs": [[25, 68, 0], [26, 0, 0], [27, 0, 0]]
    }, 
    {
      "op": "FullyConnected", 
      "name": "lstm_l0_t68_h2h", 
      "attr": {"num_hidden": "1024"}, 
      "inputs": [[1859, 0, 0], [30, 0, 0], [31, 0, 0]]
    }, 
    {
      "op": "elemwise_add", 
      "name": "_plus208", 
      "inputs": [[1874, 0, 0], [1875, 0, 0]]
    }, 
    {
      "op": "SliceChannel", 
      "name": "lstm_l0_t68_slice", 
      "attr": {"num_outputs": "4"}, 
      "inputs": [[1876, 0, 0]]
    }, 
    {
      "op": "Activation", 
      "name": "lstm_l0_t68_o", 
      "attr": {"act_type": "sigmoid"}, 
      "inputs": [[1877, 3, 0]]
    }, 
    {
      "op": "Activation", 
      "name": "lstm_l0_t68_f", 
      "attr": {"act_type": "sigmoid"}, 
      "inputs": [[1877, 1, 0]]
    }, 
    {
      "op": "_mul", 
      "name": "_mul416", 
      "inputs": [[1879, 0, 0], [1857, 0, 0]]
    }, 
    {
      "op": "Activation", 
      "name": "lstm_l0_t68_i", 
      "attr": {"act_type": "sigmoid"}, 
      "inputs": [[1877, 0, 0]]
    }, 
    {
      "op": "Activation", 
      "name": "lstm_l0_t68_c", 
      "attr": {"act_type": "tanh"}, 
      "inputs": [[1877, 2, 0]]
    }, 
    {
      "op": "_mul", 
      "name": "_mul417", 
      "inputs": [[1881, 0, 0], [1882, 0, 0]]
    }, 
    {
      "op": "elemwise_add", 
      "name": "lstm_l0_t68_state", 
      "inputs": [[1880, 0, 0], [1883, 0, 0]]
    }, 
    {
      "op": "Activation", 
      "name": "activation208", 
      "attr": {"act_type": "tanh"}, 
      "inputs": [[1884, 0, 0]]
    }, 
    {
      "op": "_mul", 
      "name": "lstm_l0_t68_out", 
      "inputs": [[1878, 0, 0], [1885, 0, 0]]
    }, 
    {
      "op": "FullyConnected", 
      "name": "lstm_l1_t68_i2h", 
      "attr": {"num_hidden": "1024"}, 
      "inputs": [[1886, 0, 0], [45, 0, 0], [46, 0, 0]]
    }, 
    {
      "op": "FullyConnected", 
      "name": "lstm_l1_t68_h2h", 
      "attr": {"num_hidden": "1024"}, 
      "inputs": [[1872, 0, 0], [49, 0, 0], [50, 0, 0]]
    }, 
    {
      "op": "elemwise_add", 
      "name": "_plus278", 
      "inputs": [[1887, 0, 0], [1888, 0, 0]]
    }, 
    {
      "op": "SliceChannel", 
      "name": "lstm_l1_t68_slice", 
      "attr": {"num_outputs": "4"}, 
      "inputs": [[1889, 0, 0]]
    }, 
    {
      "op": "Activation", 
      "name": "lstm_l1_t68_o", 
      "attr": {"act_type": "sigmoid"}, 
      "inputs": [[1890, 3, 0]]
    }, 
    {
      "op": "Activation", 
      "name": "lstm_l1_t68_f", 
      "attr": {"act_type": "sigmoid"}, 
      "inputs": [[1890, 1, 0]]
    }, 
    {
      "op": "_mul", 
      "name": "_mul556", 
      "inputs": [[1892, 0, 0], [1870, 0, 0]]
    }, 
    {
      "op": "Activation", 
      "name": "lstm_l1_t68_i", 
      "attr": {"act_type": "sigmoid"}, 
      "inputs": [[1890, 0, 0]]
    }, 
    {
      "op": "Activation", 
      "name": "lstm_l1_t68_c", 
      "attr": {"act_type": "tanh"}, 
      "inputs": [[1890, 2, 0]]
    }, 
    {
      "op": "_mul", 
      "name": "_mul557", 
      "inputs": [[1894, 0, 0], [1895, 0, 0]]
    }, 
    {
      "op": "elemwise_add", 
      "name": "lstm_l1_t68_state", 
      "inputs": [[1893, 0, 0], [1896, 0, 0]]
    }, 
    {
      "op": "Activation", 
      "name": "activation278", 
      "attr": {"act_type": "tanh"}, 
      "inputs": [[1897, 0, 0]]
    }, 
    {
      "op": "_mul", 
      "name": "lstm_l1_t68_out", 
      "inputs": [[1891, 0, 0], [1898, 0, 0]]
    }, 
    {
      "op": "expand_dims", 
      "name": "expand_dims138", 
      "attr": {"axis": "1"}, 
      "inputs": [[1899, 0, 0]]
    }, 
    {
      "op": "FullyConnected", 
      "name": "lstm_l0_t69_i2h", 
      "attr": {"num_hidden": "1024"}, 
      "inputs": [[25, 69, 0], [26, 0, 0], [27, 0, 0]]
    }, 
    {
      "op": "FullyConnected", 
      "name": "lstm_l0_t69_h2h", 
      "attr": {"num_hidden": "1024"}, 
      "inputs": [[1886, 0, 0], [30, 0, 0], [31, 0, 0]]
    }, 
    {
      "op": "elemwise_add", 
      "name": "_plus209", 
      "inputs": [[1901, 0, 0], [1902, 0, 0]]
    }, 
    {
      "op": "SliceChannel", 
      "name": "lstm_l0_t69_slice", 
      "attr": {"num_outputs": "4"}, 
      "inputs": [[1903, 0, 0]]
    }, 
    {
      "op": "Activation", 
      "name": "lstm_l0_t69_o", 
      "attr": {"act_type": "sigmoid"}, 
      "inputs": [[1904, 3, 0]]
    }, 
    {
      "op": "Activation", 
      "name": "lstm_l0_t69_f", 
      "attr": {"act_type": "sigmoid"}, 
      "inputs": [[1904, 1, 0]]
    }, 
    {
      "op": "_mul", 
      "name": "_mul418", 
      "inputs": [[1906, 0, 0], [1884, 0, 0]]
    }, 
    {
      "op": "Activation", 
      "name": "lstm_l0_t69_i", 
      "attr": {"act_type": "sigmoid"}, 
      "inputs": [[1904, 0, 0]]
    }, 
    {
      "op": "Activation", 
      "name": "lstm_l0_t69_c", 
      "attr": {"act_type": "tanh"}, 
      "inputs": [[1904, 2, 0]]
    }, 
    {
      "op": "_mul", 
      "name": "_mul419", 
      "inputs": [[1908, 0, 0], [1909, 0, 0]]
    }, 
    {
      "op": "elemwise_add", 
      "name": "lstm_l0_t69_state", 
      "inputs": [[1907, 0, 0], [1910, 0, 0]]
    }, 
    {
      "op": "Activation", 
      "name": "activation209", 
      "attr": {"act_type": "tanh"}, 
      "inputs": [[1911, 0, 0]]
    }, 
    {
      "op": "_mul", 
      "name": "lstm_l0_t69_out", 
      "inputs": [[1905, 0, 0], [1912, 0, 0]]
    }, 
    {
      "op": "FullyConnected", 
      "name": "lstm_l1_t69_i2h", 
      "attr": {"num_hidden": "1024"}, 
      "inputs": [[1913, 0, 0], [45, 0, 0], [46, 0, 0]]
    }, 
    {
      "op": "FullyConnected", 
      "name": "lstm_l1_t69_h2h", 
      "attr": {"num_hidden": "1024"}, 
      "inputs": [[1899, 0, 0], [49, 0, 0], [50, 0, 0]]
    }, 
    {
      "op": "elemwise_add", 
      "name": "_plus279", 
      "inputs": [[1914, 0, 0], [1915, 0, 0]]
    }, 
    {
      "op": "SliceChannel", 
      "name": "lstm_l1_t69_slice", 
      "attr": {"num_outputs": "4"}, 
      "inputs": [[1916, 0, 0]]
    }, 
    {
      "op": "Activation", 
      "name": "lstm_l1_t69_o", 
      "attr": {"act_type": "sigmoid"}, 
      "inputs": [[1917, 3, 0]]
    }, 
    {
      "op": "Activation", 
      "name": "lstm_l1_t69_f", 
      "attr": {"act_type": "sigmoid"}, 
      "inputs": [[1917, 1, 0]]
    }, 
    {
      "op": "_mul", 
      "name": "_mul558", 
      "inputs": [[1919, 0, 0], [1897, 0, 0]]
    }, 
    {
      "op": "Activation", 
      "name": "lstm_l1_t69_i", 
      "attr": {"act_type": "sigmoid"}, 
      "inputs": [[1917, 0, 0]]
    }, 
    {
      "op": "Activation", 
      "name": "lstm_l1_t69_c", 
      "attr": {"act_type": "tanh"}, 
      "inputs": [[1917, 2, 0]]
    }, 
    {
      "op": "_mul", 
      "name": "_mul559", 
      "inputs": [[1921, 0, 0], [1922, 0, 0]]
    }, 
    {
      "op": "elemwise_add", 
      "name": "lstm_l1_t69_state", 
      "inputs": [[1920, 0, 0], [1923, 0, 0]]
    }, 
    {
      "op": "Activation", 
      "name": "activation279", 
      "attr": {"act_type": "tanh"}, 
      "inputs": [[1924, 0, 0]]
    }, 
    {
      "op": "_mul", 
      "name": "lstm_l1_t69_out", 
      "inputs": [[1918, 0, 0], [1925, 0, 0]]
    }, 
    {
      "op": "expand_dims", 
      "name": "expand_dims139", 
      "attr": {"axis": "1"}, 
      "inputs": [[1926, 0, 0]]
    }, 
    {
      "op": "Concat", 
      "name": "concat1", 
      "attr": {
        "dim": "1", 
        "num_args": "70"
      }, 
      "inputs": [
        [64, 0, 0], 
        [91, 0, 0], 
        [118, 0, 0], 
        [145, 0, 0], 
        [172, 0, 0], 
        [199, 0, 0], 
        [226, 0, 0], 
        [253, 0, 0], 
        [280, 0, 0], 
        [307, 0, 0], 
        [334, 0, 0], 
        [361, 0, 0], 
        [388, 0, 0], 
        [415, 0, 0], 
        [442, 0, 0], 
        [469, 0, 0], 
        [496, 0, 0], 
        [523, 0, 0], 
        [550, 0, 0], 
        [577, 0, 0], 
        [604, 0, 0], 
        [631, 0, 0], 
        [658, 0, 0], 
        [685, 0, 0], 
        [712, 0, 0], 
        [739, 0, 0], 
        [766, 0, 0], 
        [793, 0, 0], 
        [820, 0, 0], 
        [847, 0, 0], 
        [874, 0, 0], 
        [901, 0, 0], 
        [928, 0, 0], 
        [955, 0, 0], 
        [982, 0, 0], 
        [1009, 0, 0], 
        [1036, 0, 0], 
        [1063, 0, 0], 
        [1090, 0, 0], 
        [1117, 0, 0], 
        [1144, 0, 0], 
        [1171, 0, 0], 
        [1198, 0, 0], 
        [1225, 0, 0], 
        [1252, 0, 0], 
        [1279, 0, 0], 
        [1306, 0, 0], 
        [1333, 0, 0], 
        [1360, 0, 0], 
        [1387, 0, 0], 
        [1414, 0, 0], 
        [1441, 0, 0], 
        [1468, 0, 0], 
        [1495, 0, 0], 
        [1522, 0, 0], 
        [1549, 0, 0], 
        [1576, 0, 0], 
        [1603, 0, 0], 
        [1630, 0, 0], 
        [1657, 0, 0], 
        [1684, 0, 0], 
        [1711, 0, 0], 
        [1738, 0, 0], 
        [1765, 0, 0], 
        [1792, 0, 0], 
        [1819, 0, 0], 
        [1846, 0, 0], 
        [1873, 0, 0], 
        [1900, 0, 0], 
        [1927, 0, 0]
      ]
    }, 
    {
      "op": "Reshape", 
      "name": "reshape15", 
      "attr": {"shape": "(-1, 256)"}, 
      "inputs": [[1928, 0, 0]]
    }, 
    {
      "op": "null", 
      "name": "f_end_fc1_weight", 
      "attr": {"num_hidden": "2"}, 
      "inputs": []
    }, 
    {
      "op": "null", 
      "name": "f_end_fc1_bias", 
      "attr": {"num_hidden": "2"}, 
      "inputs": []
    }, 
    {
      "op": "FullyConnected", 
      "name": "f_end_fc1", 
      "attr": {"num_hidden": "2"}, 
      "inputs": [[1929, 0, 0], [1930, 0, 0], [1931, 0, 0]]
    }, 
    {
      "op": "null", 
      "name": "next_end", 
      "inputs": []
    }, 
    {
      "op": "Reshape", 
      "name": "reshape16", 
      "attr": {"shape": "(-1,)"}, 
      "inputs": [[1933, 0, 0]]
    }, 
    {
      "op": "SoftmaxOutput", 
      "name": "f_end", 
      "inputs": [[1932, 0, 0], [1934, 0, 0]]
    }, 
    {
      "op": "null", 
      "name": "f_prog_fc1_weight", 
      "attr": {"num_hidden": "8"}, 
      "inputs": []
    }, 
    {
      "op": "null", 
      "name": "f_prog_fc1_bias", 
      "attr": {"num_hidden": "8"}, 
      "inputs": []
    }, 
    {
      "op": "FullyConnected", 
      "name": "f_prog_fc1", 
      "attr": {"num_hidden": "8"}, 
      "inputs": [[1929, 0, 0], [1936, 0, 0], [1937, 0, 0]]
    }, 
    {
      "op": "_arange", 
      "name": "prog_memory", 
      "attr": {
        "dtype": "float32", 
        "repeat": "1", 
        "start": "0", 
        "step": "1.0", 
        "stop": "10"
      }, 
      "inputs": []
    }, 
    {
      "op": "null", 
      "name": "key_memory_weight", 
      "attr": {"num_hidden": "8"}, 
      "inputs": []
    }, 
    {
      "op": "null", 
      "name": "key_memory_bias", 
      "attr": {"num_hidden": "8"}, 
      "inputs": []
    }, 
    {
      "op": "FullyConnected", 
      "name": "key_memory", 
      "attr": {"num_hidden": "8"}, 
      "inputs": [[1939, 0, 0], [1940, 0, 0], [1941, 0, 0]]
    }, 
    {
      "op": "dot", 
      "name": "f_prog_dot", 
      "attr": {"transpose_b": "True"}, 
      "inputs": [[1938, 0, 0], [1942, 0, 0]]
    }, 
    {
      "op": "null", 
      "name": "next_prog", 
      "inputs": []
    }, 
    {
      "op": "Reshape", 
      "name": "reshape17", 
      "attr": {"shape": "(-1,)"}, 
      "inputs": [[1944, 0, 0]]
    }, 
    {
      "op": "SoftmaxOutput", 
      "name": "f_prog", 
      "inputs": [[1943, 0, 0], [1945, 0, 0]]
    }, 
    {
      "op": "null", 
      "name": "f_arg0_fc1_weight", 
      "attr": {"num_hidden": "10"}, 
      "inputs": []
    }, 
    {
      "op": "null", 
      "name": "f_arg0_fc1_bias", 
      "attr": {"num_hidden": "10"}, 
      "inputs": []
    }, 
    {
      "op": "FullyConnected", 
      "name": "f_arg0_fc1", 
      "attr": {"num_hidden": "10"}, 
      "inputs": [[1929, 0, 0], [1947, 0, 0], [1948, 0, 0]]
    }, 
    {
      "op": "null", 
      "name": "next_args", 
      "inputs": []
    }, 
    {
      "op": "Reshape", 
      "name": "next_args_reshaped", 
      "attr": {"shape": "(-1, 3, 10)"}, 
      "inputs": [[1950, 0, 0]]
    }, 
    {
      "op": "argmax", 
      "name": "next_args_numeric", 
      "attr": {"axis": "2"}, 
      "inputs": [[1951, 0, 0]]
    }, 
    {
      "op": "SliceChannel", 
      "name": "slicechannel1", 
      "attr": {
        "axis": "1", 
        "num_outputs": "3"
      }, 
      "inputs": [[1952, 0, 0]]
    }, 
    {
      "op": "Reshape", 
      "name": "reshape18", 
      "attr": {"shape": "(-1,)"}, 
      "inputs": [[1953, 0, 0]]
    }, 
    {
      "op": "SoftmaxOutput", 
      "name": "f_arg0_softmax", 
      "inputs": [[1949, 0, 0], [1954, 0, 0]]
    }, 
    {
      "op": "null", 
      "name": "f_arg1_fc1_weight", 
      "attr": {"num_hidden": "10"}, 
      "inputs": []
    }, 
    {
      "op": "null", 
      "name": "f_arg1_fc1_bias", 
      "attr": {"num_hidden": "10"}, 
      "inputs": []
    }, 
    {
      "op": "FullyConnected", 
      "name": "f_arg1_fc1", 
      "attr": {"num_hidden": "10"}, 
      "inputs": [[1929, 0, 0], [1956, 0, 0], [1957, 0, 0]]
    }, 
    {
      "op": "Reshape", 
      "name": "reshape20", 
      "attr": {"shape": "(-1,)"}, 
      "inputs": [[1953, 2, 0]]
    }, 
    {
      "op": "SoftmaxOutput", 
      "name": "f_arg1_softmax", 
      "inputs": [[1958, 0, 0], [1959, 0, 0]]
    }, 
    {
      "op": "null", 
      "name": "f_arg2_fc1_weight", 
      "attr": {"num_hidden": "10"}, 
      "inputs": []
    }, 
    {
      "op": "null", 
      "name": "f_arg2_fc1_bias", 
      "attr": {"num_hidden": "10"}, 
      "inputs": []
    }, 
    {
      "op": "FullyConnected", 
      "name": "f_arg2_fc1", 
      "attr": {"num_hidden": "10"}, 
      "inputs": [[1929, 0, 0], [1961, 0, 0], [1962, 0, 0]]
    }, 
    {
      "op": "SoftmaxOutput", 
      "name": "f_arg2_softmax", 
      "inputs": [[1963, 0, 0], [1959, 0, 0]]
    }, 
    {
      "op": "Concat", 
      "name": "f_args_concat", 
      "attr": {
        "dim": "1", 
        "num_args": "3"
      }, 
      "inputs": [[1955, 0, 0], [1960, 0, 0], [1964, 0, 0]]
    }, 
    {
      "op": "Reshape", 
      "name": "reshape21", 
      "attr": {"shape": "(100, 70, 3, 10)"}, 
      "inputs": [[1965, 0, 0]]
    }
  ], 
  "arg_nodes": [
    0, 
    2, 
    5, 
    6, 
    9, 
    10, 
    12, 
    13, 
    17, 
    18, 
    21, 
    22, 
    26, 
    27, 
    30, 
    31, 
    45, 
    46, 
    49, 
    50, 
    1930, 
    1931, 
    1933, 
    1936, 
    1937, 
    1940, 
    1941, 
    1944, 
    1947, 
    1948, 
    1950, 
    1956, 
    1957, 
    1961, 
    1962
  ], 
  "node_row_ptr": [
    0, 
    1, 
    2, 
    3, 
    4, 
    5, 
    6, 
    7, 
    8, 
    9, 
    10, 
    11, 
    12, 
    13, 
    14, 
    15, 
    16, 
    17, 
    18, 
    19, 
    20, 
    21, 
    22, 
    23, 
    24, 
    25, 
    95, 
    96, 
    97, 
    98, 
    99, 
    100, 
    101, 
    102, 
    103, 
    107, 
    108, 
    109, 
    110, 
    111, 
    112, 
    113, 
    114, 
    115, 
    116, 
    117, 
    118, 
    119, 
    120, 
    121, 
    122, 
    123, 
    124, 
    125, 
    129, 
    130, 
    131, 
    132, 
    133, 
    134, 
    135, 
    136, 
    137, 
    138, 
    139, 
    140, 
    141, 
    142, 
    143, 
    147, 
    148, 
    149, 
    150, 
    151, 
    152, 
    153, 
    154, 
    155, 
    156, 
    157, 
    158, 
    159, 
    163, 
    164, 
    165, 
    166, 
    167, 
    168, 
    169, 
    170, 
    171, 
    172, 
    173, 
    174, 
    175, 
    176, 
    180, 
    181, 
    182, 
    183, 
    184, 
    185, 
    186, 
    187, 
    188, 
    189, 
    190, 
    191, 
    192, 
    196, 
    197, 
    198, 
    199, 
    200, 
    201, 
    202, 
    203, 
    204, 
    205, 
    206, 
    207, 
    208, 
    209, 
    213, 
    214, 
    215, 
    216, 
    217, 
    218, 
    219, 
    220, 
    221, 
    222, 
    223, 
    224, 
    225, 
    229, 
    230, 
    231, 
    232, 
    233, 
    234, 
    235, 
    236, 
    237, 
    238, 
    239, 
    240, 
    241, 
    242, 
    246, 
    247, 
    248, 
    249, 
    250, 
    251, 
    252, 
    253, 
    254, 
    255, 
    256, 
    257, 
    258, 
    262, 
    263, 
    264, 
    265, 
    266, 
    267, 
    268, 
    269, 
    270, 
    271, 
    272, 
    273, 
    274, 
    275, 
    279, 
    280, 
    281, 
    282, 
    283, 
    284, 
    285, 
    286, 
    287, 
    288, 
    289, 
    290, 
    291, 
    295, 
    296, 
    297, 
    298, 
    299, 
    300, 
    301, 
    302, 
    303, 
    304, 
    305, 
    306, 
    307, 
    308, 
    312, 
    313, 
    314, 
    315, 
    316, 
    317, 
    318, 
    319, 
    320, 
    321, 
    322, 
    323, 
    324, 
    328, 
    329, 
    330, 
    331, 
    332, 
    333, 
    334, 
    335, 
    336, 
    337, 
    338, 
    339, 
    340, 
    341, 
    345, 
    346, 
    347, 
    348, 
    349, 
    350, 
    351, 
    352, 
    353, 
    354, 
    355, 
    356, 
    357, 
    361, 
    362, 
    363, 
    364, 
    365, 
    366, 
    367, 
    368, 
    369, 
    370, 
    371, 
    372, 
    373, 
    374, 
    378, 
    379, 
    380, 
    381, 
    382, 
    383, 
    384, 
    385, 
    386, 
    387, 
    388, 
    389, 
    390, 
    394, 
    395, 
    396, 
    397, 
    398, 
    399, 
    400, 
    401, 
    402, 
    403, 
    404, 
    405, 
    406, 
    407, 
    411, 
    412, 
    413, 
    414, 
    415, 
    416, 
    417, 
    418, 
    419, 
    420, 
    421, 
    422, 
    423, 
    427, 
    428, 
    429, 
    430, 
    431, 
    432, 
    433, 
    434, 
    435, 
    436, 
    437, 
    438, 
    439, 
    440, 
    444, 
    445, 
    446, 
    447, 
    448, 
    449, 
    450, 
    451, 
    452, 
    453, 
    454, 
    455, 
    456, 
    460, 
    461, 
    462, 
    463, 
    464, 
    465, 
    466, 
    467, 
    468, 
    469, 
    470, 
    471, 
    472, 
    473, 
    477, 
    478, 
    479, 
    480, 
    481, 
    482, 
    483, 
    484, 
    485, 
    486, 
    487, 
    488, 
    489, 
    493, 
    494, 
    495, 
    496, 
    497, 
    498, 
    499, 
    500, 
    501, 
    502, 
    503, 
    504, 
    505, 
    506, 
    510, 
    511, 
    512, 
    513, 
    514, 
    515, 
    516, 
    517, 
    518, 
    519, 
    520, 
    521, 
    522, 
    526, 
    527, 
    528, 
    529, 
    530, 
    531, 
    532, 
    533, 
    534, 
    535, 
    536, 
    537, 
    538, 
    539, 
    543, 
    544, 
    545, 
    546, 
    547, 
    548, 
    549, 
    550, 
    551, 
    552, 
    553, 
    554, 
    555, 
    559, 
    560, 
    561, 
    562, 
    563, 
    564, 
    565, 
    566, 
    567, 
    568, 
    569, 
    570, 
    571, 
    572, 
    576, 
    577, 
    578, 
    579, 
    580, 
    581, 
    582, 
    583, 
    584, 
    585, 
    586, 
    587, 
    588, 
    592, 
    593, 
    594, 
    595, 
    596, 
    597, 
    598, 
    599, 
    600, 
    601, 
    602, 
    603, 
    604, 
    605, 
    609, 
    610, 
    611, 
    612, 
    613, 
    614, 
    615, 
    616, 
    617, 
    618, 
    619, 
    620, 
    621, 
    625, 
    626, 
    627, 
    628, 
    629, 
    630, 
    631, 
    632, 
    633, 
    634, 
    635, 
    636, 
    637, 
    638, 
    642, 
    643, 
    644, 
    645, 
    646, 
    647, 
    648, 
    649, 
    650, 
    651, 
    652, 
    653, 
    654, 
    658, 
    659, 
    660, 
    661, 
    662, 
    663, 
    664, 
    665, 
    666, 
    667, 
    668, 
    669, 
    670, 
    671, 
    675, 
    676, 
    677, 
    678, 
    679, 
    680, 
    681, 
    682, 
    683, 
    684, 
    685, 
    686, 
    687, 
    691, 
    692, 
    693, 
    694, 
    695, 
    696, 
    697, 
    698, 
    699, 
    700, 
    701, 
    702, 
    703, 
    704, 
    708, 
    709, 
    710, 
    711, 
    712, 
    713, 
    714, 
    715, 
    716, 
    717, 
    718, 
    719, 
    720, 
    724, 
    725, 
    726, 
    727, 
    728, 
    729, 
    730, 
    731, 
    732, 
    733, 
    734, 
    735, 
    736, 
    737, 
    741, 
    742, 
    743, 
    744, 
    745, 
    746, 
    747, 
    748, 
    749, 
    750, 
    751, 
    752, 
    753, 
    757, 
    758, 
    759, 
    760, 
    761, 
    762, 
    763, 
    764, 
    765, 
    766, 
    767, 
    768, 
    769, 
    770, 
    774, 
    775, 
    776, 
    777, 
    778, 
    779, 
    780, 
    781, 
    782, 
    783, 
    784, 
    785, 
    786, 
    790, 
    791, 
    792, 
    793, 
    794, 
    795, 
    796, 
    797, 
    798, 
    799, 
    800, 
    801, 
    802, 
    803, 
    807, 
    808, 
    809, 
    810, 
    811, 
    812, 
    813, 
    814, 
    815, 
    816, 
    817, 
    818, 
    819, 
    823, 
    824, 
    825, 
    826, 
    827, 
    828, 
    829, 
    830, 
    831, 
    832, 
    833, 
    834, 
    835, 
    836, 
    840, 
    841, 
    842, 
    843, 
    844, 
    845, 
    846, 
    847, 
    848, 
    849, 
    850, 
    851, 
    852, 
    856, 
    857, 
    858, 
    859, 
    860, 
    861, 
    862, 
    863, 
    864, 
    865, 
    866, 
    867, 
    868, 
    869, 
    873, 
    874, 
    875, 
    876, 
    877, 
    878, 
    879, 
    880, 
    881, 
    882, 
    883, 
    884, 
    885, 
    889, 
    890, 
    891, 
    892, 
    893, 
    894, 
    895, 
    896, 
    897, 
    898, 
    899, 
    900, 
    901, 
    902, 
    906, 
    907, 
    908, 
    909, 
    910, 
    911, 
    912, 
    913, 
    914, 
    915, 
    916, 
    917, 
    918, 
    922, 
    923, 
    924, 
    925, 
    926, 
    927, 
    928, 
    929, 
    930, 
    931, 
    932, 
    933, 
    934, 
    935, 
    939, 
    940, 
    941, 
    942, 
    943, 
    944, 
    945, 
    946, 
    947, 
    948, 
    949, 
    950, 
    951, 
    955, 
    956, 
    957, 
    958, 
    959, 
    960, 
    961, 
    962, 
    963, 
    964, 
    965, 
    966, 
    967, 
    968, 
    972, 
    973, 
    974, 
    975, 
    976, 
    977, 
    978, 
    979, 
    980, 
    981, 
    982, 
    983, 
    984, 
    988, 
    989, 
    990, 
    991, 
    992, 
    993, 
    994, 
    995, 
    996, 
    997, 
    998, 
    999, 
    1000, 
    1001, 
    1005, 
    1006, 
    1007, 
    1008, 
    1009, 
    1010, 
    1011, 
    1012, 
    1013, 
    1014, 
    1015, 
    1016, 
    1017, 
    1021, 
    1022, 
    1023, 
    1024, 
    1025, 
    1026, 
    1027, 
    1028, 
    1029, 
    1030, 
    1031, 
    1032, 
    1033, 
    1034, 
    1038, 
    1039, 
    1040, 
    1041, 
    1042, 
    1043, 
    1044, 
    1045, 
    1046, 
    1047, 
    1048, 
    1049, 
    1050, 
    1054, 
    1055, 
    1056, 
    1057, 
    1058, 
    1059, 
    1060, 
    1061, 
    1062, 
    1063, 
    1064, 
    1065, 
    1066, 
    1067, 
    1071, 
    1072, 
    1073, 
    1074, 
    1075, 
    1076, 
    1077, 
    1078, 
    1079, 
    1080, 
    1081, 
    1082, 
    1083, 
    1087, 
    1088, 
    1089, 
    1090, 
    1091, 
    1092, 
    1093, 
    1094, 
    1095, 
    1096, 
    1097, 
    1098, 
    1099, 
    1100, 
    1104, 
    1105, 
    1106, 
    1107, 
    1108, 
    1109, 
    1110, 
    1111, 
    1112, 
    1113, 
    1114, 
    1115, 
    1116, 
    1120, 
    1121, 
    1122, 
    1123, 
    1124, 
    1125, 
    1126, 
    1127, 
    1128, 
    1129, 
    1130, 
    1131, 
    1132, 
    1133, 
    1137, 
    1138, 
    1139, 
    1140, 
    1141, 
    1142, 
    1143, 
    1144, 
    1145, 
    1146, 
    1147, 
    1148, 
    1149, 
    1153, 
    1154, 
    1155, 
    1156, 
    1157, 
    1158, 
    1159, 
    1160, 
    1161, 
    1162, 
    1163, 
    1164, 
    1165, 
    1166, 
    1170, 
    1171, 
    1172, 
    1173, 
    1174, 
    1175, 
    1176, 
    1177, 
    1178, 
    1179, 
    1180, 
    1181, 
    1182, 
    1186, 
    1187, 
    1188, 
    1189, 
    1190, 
    1191, 
    1192, 
    1193, 
    1194, 
    1195, 
    1196, 
    1197, 
    1198, 
    1199, 
    1203, 
    1204, 
    1205, 
    1206, 
    1207, 
    1208, 
    1209, 
    1210, 
    1211, 
    1212, 
    1213, 
    1214, 
    1215, 
    1219, 
    1220, 
    1221, 
    1222, 
    1223, 
    1224, 
    1225, 
    1226, 
    1227, 
    1228, 
    1229, 
    1230, 
    1231, 
    1232, 
    1236, 
    1237, 
    1238, 
    1239, 
    1240, 
    1241, 
    1242, 
    1243, 
    1244, 
    1245, 
    1246, 
    1247, 
    1248, 
    1252, 
    1253, 
    1254, 
    1255, 
    1256, 
    1257, 
    1258, 
    1259, 
    1260, 
    1261, 
    1262, 
    1263, 
    1264, 
    1265, 
    1269, 
    1270, 
    1271, 
    1272, 
    1273, 
    1274, 
    1275, 
    1276, 
    1277, 
    1278, 
    1279, 
    1280, 
    1281, 
    1285, 
    1286, 
    1287, 
    1288, 
    1289, 
    1290, 
    1291, 
    1292, 
    1293, 
    1294, 
    1295, 
    1296, 
    1297, 
    1298, 
    1302, 
    1303, 
    1304, 
    1305, 
    1306, 
    1307, 
    1308, 
    1309, 
    1310, 
    1311, 
    1312, 
    1313, 
    1314, 
    1318, 
    1319, 
    1320, 
    1321, 
    1322, 
    1323, 
    1324, 
    1325, 
    1326, 
    1327, 
    1328, 
    1329, 
    1330, 
    1331, 
    1335, 
    1336, 
    1337, 
    1338, 
    1339, 
    1340, 
    1341, 
    1342, 
    1343, 
    1344, 
    1345, 
    1346, 
    1347, 
    1351, 
    1352, 
    1353, 
    1354, 
    1355, 
    1356, 
    1357, 
    1358, 
    1359, 
    1360, 
    1361, 
    1362, 
    1363, 
    1364, 
    1368, 
    1369, 
    1370, 
    1371, 
    1372, 
    1373, 
    1374, 
    1375, 
    1376, 
    1377, 
    1378, 
    1379, 
    1380, 
    1384, 
    1385, 
    1386, 
    1387, 
    1388, 
    1389, 
    1390, 
    1391, 
    1392, 
    1393, 
    1394, 
    1395, 
    1396, 
    1397, 
    1401, 
    1402, 
    1403, 
    1404, 
    1405, 
    1406, 
    1407, 
    1408, 
    1409, 
    1410, 
    1411, 
    1412, 
    1413, 
    1417, 
    1418, 
    1419, 
    1420, 
    1421, 
    1422, 
    1423, 
    1424, 
    1425, 
    1426, 
    1427, 
    1428, 
    1429, 
    1430, 
    1434, 
    1435, 
    1436, 
    1437, 
    1438, 
    1439, 
    1440, 
    1441, 
    1442, 
    1443, 
    1444, 
    1445, 
    1446, 
    1450, 
    1451, 
    1452, 
    1453, 
    1454, 
    1455, 
    1456, 
    1457, 
    1458, 
    1459, 
    1460, 
    1461, 
    1462, 
    1463, 
    1467, 
    1468, 
    1469, 
    1470, 
    1471, 
    1472, 
    1473, 
    1474, 
    1475, 
    1476, 
    1477, 
    1478, 
    1479, 
    1483, 
    1484, 
    1485, 
    1486, 
    1487, 
    1488, 
    1489, 
    1490, 
    1491, 
    1492, 
    1493, 
    1494, 
    1495, 
    1496, 
    1500, 
    1501, 
    1502, 
    1503, 
    1504, 
    1505, 
    1506, 
    1507, 
    1508, 
    1509, 
    1510, 
    1511, 
    1512, 
    1516, 
    1517, 
    1518, 
    1519, 
    1520, 
    1521, 
    1522, 
    1523, 
    1524, 
    1525, 
    1526, 
    1527, 
    1528, 
    1529, 
    1533, 
    1534, 
    1535, 
    1536, 
    1537, 
    1538, 
    1539, 
    1540, 
    1541, 
    1542, 
    1543, 
    1544, 
    1545, 
    1549, 
    1550, 
    1551, 
    1552, 
    1553, 
    1554, 
    1555, 
    1556, 
    1557, 
    1558, 
    1559, 
    1560, 
    1561, 
    1562, 
    1566, 
    1567, 
    1568, 
    1569, 
    1570, 
    1571, 
    1572, 
    1573, 
    1574, 
    1575, 
    1576, 
    1577, 
    1578, 
    1582, 
    1583, 
    1584, 
    1585, 
    1586, 
    1587, 
    1588, 
    1589, 
    1590, 
    1591, 
    1592, 
    1593, 
    1594, 
    1595, 
    1599, 
    1600, 
    1601, 
    1602, 
    1603, 
    1604, 
    1605, 
    1606, 
    1607, 
    1608, 
    1609, 
    1610, 
    1611, 
    1615, 
    1616, 
    1617, 
    1618, 
    1619, 
    1620, 
    1621, 
    1622, 
    1623, 
    1624, 
    1625, 
    1626, 
    1627, 
    1628, 
    1632, 
    1633, 
    1634, 
    1635, 
    1636, 
    1637, 
    1638, 
    1639, 
    1640, 
    1641, 
    1642, 
    1643, 
    1644, 
    1648, 
    1649, 
    1650, 
    1651, 
    1652, 
    1653, 
    1654, 
    1655, 
    1656, 
    1657, 
    1658, 
    1659, 
    1660, 
    1661, 
    1665, 
    1666, 
    1667, 
    1668, 
    1669, 
    1670, 
    1671, 
    1672, 
    1673, 
    1674, 
    1675, 
    1676, 
    1677, 
    1681, 
    1682, 
    1683, 
    1684, 
    1685, 
    1686, 
    1687, 
    1688, 
    1689, 
    1690, 
    1691, 
    1692, 
    1693, 
    1694, 
    1698, 
    1699, 
    1700, 
    1701, 
    1702, 
    1703, 
    1704, 
    1705, 
    1706, 
    1707, 
    1708, 
    1709, 
    1710, 
    1714, 
    1715, 
    1716, 
    1717, 
    1718, 
    1719, 
    1720, 
    1721, 
    1722, 
    1723, 
    1724, 
    1725, 
    1726, 
    1727, 
    1731, 
    1732, 
    1733, 
    1734, 
    1735, 
    1736, 
    1737, 
    1738, 
    1739, 
    1740, 
    1741, 
    1742, 
    1743, 
    1747, 
    1748, 
    1749, 
    1750, 
    1751, 
    1752, 
    1753, 
    1754, 
    1755, 
    1756, 
    1757, 
    1758, 
    1759, 
    1760, 
    1764, 
    1765, 
    1766, 
    1767, 
    1768, 
    1769, 
    1770, 
    1771, 
    1772, 
    1773, 
    1774, 
    1775, 
    1776, 
    1780, 
    1781, 
    1782, 
    1783, 
    1784, 
    1785, 
    1786, 
    1787, 
    1788, 
    1789, 
    1790, 
    1791, 
    1792, 
    1793, 
    1797, 
    1798, 
    1799, 
    1800, 
    1801, 
    1802, 
    1803, 
    1804, 
    1805, 
    1806, 
    1807, 
    1808, 
    1809, 
    1813, 
    1814, 
    1815, 
    1816, 
    1817, 
    1818, 
    1819, 
    1820, 
    1821, 
    1822, 
    1823, 
    1824, 
    1825, 
    1826, 
    1830, 
    1831, 
    1832, 
    1833, 
    1834, 
    1835, 
    1836, 
    1837, 
    1838, 
    1839, 
    1840, 
    1841, 
    1842, 
    1846, 
    1847, 
    1848, 
    1849, 
    1850, 
    1851, 
    1852, 
    1853, 
    1854, 
    1855, 
    1856, 
    1857, 
    1858, 
    1859, 
    1863, 
    1864, 
    1865, 
    1866, 
    1867, 
    1868, 
    1869, 
    1870, 
    1871, 
    1872, 
    1873, 
    1874, 
    1875, 
    1879, 
    1880, 
    1881, 
    1882, 
    1883, 
    1884, 
    1885, 
    1886, 
    1887, 
    1888, 
    1889, 
    1890, 
    1891, 
    1892, 
    1896, 
    1897, 
    1898, 
    1899, 
    1900, 
    1901, 
    1902, 
    1903, 
    1904, 
    1905, 
    1906, 
    1907, 
    1908, 
    1912, 
    1913, 
    1914, 
    1915, 
    1916, 
    1917, 
    1918, 
    1919, 
    1920, 
    1921, 
    1922, 
    1923, 
    1924, 
    1925, 
    1929, 
    1930, 
    1931, 
    1932, 
    1933, 
    1934, 
    1935, 
    1936, 
    1937, 
    1938, 
    1939, 
    1940, 
    1941, 
    1945, 
    1946, 
    1947, 
    1948, 
    1949, 
    1950, 
    1951, 
    1952, 
    1953, 
    1954, 
    1955, 
    1956, 
    1957, 
    1958, 
    1962, 
    1963, 
    1964, 
    1965, 
    1966, 
    1967, 
    1968, 
    1969, 
    1970, 
    1971, 
    1972, 
    1973, 
    1974, 
    1978, 
    1979, 
    1980, 
    1981, 
    1982, 
    1983, 
    1984, 
    1985, 
    1986, 
    1987, 
    1988, 
    1989, 
    1990, 
    1991, 
    1995, 
    1996, 
    1997, 
    1998, 
    1999, 
    2000, 
    2001, 
    2002, 
    2003, 
    2004, 
    2005, 
    2006, 
    2007, 
    2011, 
    2012, 
    2013, 
    2014, 
    2015, 
    2016, 
    2017, 
    2018, 
    2019, 
    2020, 
    2021, 
    2022, 
    2023, 
    2024, 
    2028, 
    2029, 
    2030, 
    2031, 
    2032, 
    2033, 
    2034, 
    2035, 
    2036, 
    2037, 
    2038, 
    2039, 
    2040, 
    2044, 
    2045, 
    2046, 
    2047, 
    2048, 
    2049, 
    2050, 
    2051, 
    2052, 
    2053, 
    2054, 
    2055, 
    2056, 
    2057, 
    2061, 
    2062, 
    2063, 
    2064, 
    2065, 
    2066, 
    2067, 
    2068, 
    2069, 
    2070, 
    2071, 
    2072, 
    2073, 
    2077, 
    2078, 
    2079, 
    2080, 
    2081, 
    2082, 
    2083, 
    2084, 
    2085, 
    2086, 
    2087, 
    2088, 
    2089, 
    2090, 
    2094, 
    2095, 
    2096, 
    2097, 
    2098, 
    2099, 
    2100, 
    2101, 
    2102, 
    2103, 
    2104, 
    2105, 
    2106, 
    2110, 
    2111, 
    2112, 
    2113, 
    2114, 
    2115, 
    2116, 
    2117, 
    2118, 
    2119, 
    2120, 
    2121, 
    2122, 
    2123, 
    2127, 
    2128, 
    2129, 
    2130, 
    2131, 
    2132, 
    2133, 
    2134, 
    2135, 
    2136, 
    2137, 
    2138, 
    2139, 
    2143, 
    2144, 
    2145, 
    2146, 
    2147, 
    2148, 
    2149, 
    2150, 
    2151, 
    2152, 
    2153, 
    2154, 
    2155, 
    2156, 
    2160, 
    2161, 
    2162, 
    2163, 
    2164, 
    2165, 
    2166, 
    2167, 
    2168, 
    2169, 
    2170, 
    2171, 
    2172, 
    2176, 
    2177, 
    2178, 
    2179, 
    2180, 
    2181, 
    2182, 
    2183, 
    2184, 
    2185, 
    2186, 
    2187, 
    2188, 
    2189, 
    2193, 
    2194, 
    2195, 
    2196, 
    2197, 
    2198, 
    2199, 
    2200, 
    2201, 
    2202, 
    2203, 
    2204, 
    2205, 
    2209, 
    2210, 
    2211, 
    2212, 
    2213, 
    2214, 
    2215, 
    2216, 
    2217, 
    2218, 
    2219, 
    2220, 
    2221, 
    2222, 
    2226, 
    2227, 
    2228, 
    2229, 
    2230, 
    2231, 
    2232, 
    2233, 
    2234, 
    2235, 
    2236, 
    2237, 
    2238, 
    2242, 
    2243, 
    2244, 
    2245, 
    2246, 
    2247, 
    2248, 
    2249, 
    2250, 
    2251, 
    2252, 
    2253, 
    2254, 
    2255, 
    2259, 
    2260, 
    2261, 
    2262, 
    2263, 
    2264, 
    2265, 
    2266, 
    2267, 
    2268, 
    2269, 
    2270, 
    2271, 
    2275, 
    2276, 
    2277, 
    2278, 
    2279, 
    2280, 
    2281, 
    2282, 
    2283, 
    2284, 
    2285, 
    2286, 
    2287, 
    2288, 
    2292, 
    2293, 
    2294, 
    2295, 
    2296, 
    2297, 
    2298, 
    2299, 
    2300, 
    2301, 
    2302, 
    2303, 
    2304, 
    2308, 
    2309, 
    2310, 
    2311, 
    2312, 
    2313, 
    2314, 
    2315, 
    2316, 
    2317, 
    2318, 
    2319, 
    2320, 
    2321, 
    2325, 
    2326, 
    2327, 
    2328, 
    2329, 
    2330, 
    2331, 
    2332, 
    2333, 
    2334, 
    2335, 
    2336, 
    2337, 
    2341, 
    2342, 
    2343, 
    2344, 
    2345, 
    2346, 
    2347, 
    2348, 
    2349, 
    2350, 
    2351, 
    2352, 
    2353, 
    2354, 
    2358, 
    2359, 
    2360, 
    2361, 
    2362, 
    2363, 
    2364, 
    2365, 
    2366, 
    2367, 
    2368, 
    2369, 
    2370, 
    2374, 
    2375, 
    2376, 
    2377, 
    2378, 
    2379, 
    2380, 
    2381, 
    2382, 
    2383, 
    2384, 
    2385, 
    2386, 
    2387, 
    2391, 
    2392, 
    2393, 
    2394, 
    2395, 
    2396, 
    2397, 
    2398, 
    2399, 
    2400, 
    2401, 
    2402, 
    2403, 
    2407, 
    2408, 
    2409, 
    2410, 
    2411, 
    2412, 
    2413, 
    2414, 
    2415, 
    2416, 
    2417, 
    2418, 
    2419, 
    2420, 
    2421, 
    2422, 
    2423, 
    2424, 
    2425, 
    2426, 
    2427, 
    2428, 
    2429, 
    2430, 
    2431, 
    2432, 
    2433, 
    2434, 
    2435, 
    2436, 
    2437, 
    2438, 
    2439, 
    2440, 
    2441, 
    2442, 
    2445, 
    2446, 
    2447, 
    2448, 
    2449, 
    2450, 
    2451, 
    2452, 
    2453, 
    2454, 
    2455, 
    2456, 
    2457, 
    2458
  ], 
  "heads": [[1935, 0, 0], [1946, 0, 0], [1966, 0, 0]], 
  "attrs": {"mxnet_version": ["int", 905]}
}