{
  "nodes": [
    {
      "op": "null", 
      "name": "curr_env", 
      "inputs": []
    }, 
    {
      "op": "Reshape", 
      "name": "reshape33", 
      "attr": {"shape": "(5000, -1)"}, 
      "inputs": [[0, 0, 0]]
    }, 
    {
      "op": "null", 
      "name": "curr_args", 
      "inputs": []
    }, 
    {
      "op": "Reshape", 
      "name": "reshape34", 
      "attr": {"shape": "(5000, -1)"}, 
      "inputs": [[2, 0, 0]]
    }, 
    {
      "op": "Concat", 
      "name": "s_t", 
      "attr": {
        "dim": "1", 
        "num_args": "2"
      }, 
      "inputs": [[1, 0, 0], [3, 0, 0]]
    }, 
    {
      "op": "null", 
      "name": "f_enc_fc1_weight", 
      "attr": {"num_hidden": "256"}, 
      "inputs": []
    }, 
    {
      "op": "null", 
      "name": "f_enc_fc1_bias", 
      "attr": {"num_hidden": "256"}, 
      "inputs": []
    }, 
    {
      "op": "FullyConnected", 
      "name": "f_enc_fc1", 
      "attr": {"num_hidden": "256"}, 
      "inputs": [[4, 0, 0], [5, 0, 0], [6, 0, 0]]
    }, 
    {
      "op": "Activation", 
      "name": "f_enc_act1", 
      "attr": {"act_type": "relu"}, 
      "inputs": [[7, 0, 0]]
    }, 
    {
      "op": "null", 
      "name": "f_enc_weight", 
      "attr": {"num_hidden": "128"}, 
      "inputs": []
    }, 
    {
      "op": "null", 
      "name": "f_enc_bias", 
      "attr": {"num_hidden": "128"}, 
      "inputs": []
    }, 
    {
      "op": "FullyConnected", 
      "name": "f_enc", 
      "attr": {"num_hidden": "128"}, 
      "inputs": [[8, 0, 0], [9, 0, 0], [10, 0, 0]]
    }, 
    {
      "op": "null", 
      "name": "curr_prog", 
      "inputs": []
    }, 
    {
      "op": "null", 
      "name": "prog_embedding_weight", 
      "attr": {
        "input_dim": "10", 
        "output_dim": "16"
      }, 
      "inputs": []
    }, 
    {
      "op": "Embedding", 
      "name": "prog_embedding", 
      "attr": {
        "input_dim": "10", 
        "output_dim": "16"
      }, 
      "inputs": [[12, 0, 0], [13, 0, 0]]
    }, 
    {
      "op": "Reshape", 
      "name": "reshape35", 
      "attr": {"shape": "(5000, -1)"}, 
      "inputs": [[14, 0, 0]]
    }, 
    {
      "op": "Concat", 
      "name": "curr_inputs", 
      "attr": {
        "dim": "1", 
        "num_args": "2"
      }, 
      "inputs": [[11, 0, 0], [15, 0, 0]]
    }, 
    {
      "op": "null", 
      "name": "curr_inputs_fc1_weight", 
      "attr": {"num_hidden": "128"}, 
      "inputs": []
    }, 
    {
      "op": "null", 
      "name": "curr_inputs_fc1_bias", 
      "attr": {"num_hidden": "128"}, 
      "inputs": []
    }, 
    {
      "op": "FullyConnected", 
      "name": "curr_inputs_fc1", 
      "attr": {"num_hidden": "128"}, 
      "inputs": [[16, 0, 0], [17, 0, 0], [18, 0, 0]]
    }, 
    {
      "op": "Activation", 
      "name": "curr_inputs_act1", 
      "attr": {"act_type": "relu"}, 
      "inputs": [[19, 0, 0]]
    }, 
    {
      "op": "null", 
      "name": "enc_inputs_weight", 
      "attr": {"num_hidden": "32"}, 
      "inputs": []
    }, 
    {
      "op": "null", 
      "name": "enc_inputs_bias", 
      "attr": {"num_hidden": "32"}, 
      "inputs": []
    }, 
    {
      "op": "FullyConnected", 
      "name": "enc_inputs", 
      "attr": {"num_hidden": "32"}, 
      "inputs": [[20, 0, 0], [21, 0, 0], [22, 0, 0]]
    }, 
    {
      "op": "Reshape", 
      "name": "reshape36", 
      "attr": {"shape": "(100, 50, -1)"}, 
      "inputs": [[23, 0, 0]]
    }, 
    {
      "op": "SliceChannel", 
      "name": "split3", 
      "attr": {
        "axis": "1", 
        "num_outputs": "50", 
        "squeeze_axis": "1"
      }, 
      "inputs": [[24, 0, 0]]
    }, 
    {
      "op": "null", 
      "name": "lstm_l0_i2h_weight", 
      "inputs": []
    }, 
    {
      "op": "null", 
      "name": "lstm_l0_i2h_bias", 
      "attr": {"__init__": "[\"lstmbias\", {\"forget_bias\": 1.0}]"}, 
      "inputs": []
    }, 
    {
      "op": "FullyConnected", 
      "name": "lstm_l0_t0_i2h", 
      "attr": {"num_hidden": "1024"}, 
      "inputs": [[25, 0, 0], [26, 0, 0], [27, 0, 0]]
    }, 
    {
      "op": "_zeros", 
      "name": "lstm_l0_begin_state_0", 
      "attr": {
        "__layout__": "NC", 
        "dtype": "float32", 
        "shape": "(0, 256)"
      }, 
      "inputs": []
    }, 
    {
      "op": "null", 
      "name": "lstm_l0_h2h_weight", 
      "inputs": []
    }, 
    {
      "op": "null", 
      "name": "lstm_l0_h2h_bias", 
      "inputs": []
    }, 
    {
      "op": "FullyConnected", 
      "name": "lstm_l0_t0_h2h", 
      "attr": {"num_hidden": "1024"}, 
      "inputs": [[29, 0, 0], [30, 0, 0], [31, 0, 0]]
    }, 
    {
      "op": "elemwise_add", 
      "name": "_plus400", 
      "inputs": [[28, 0, 0], [32, 0, 0]]
    }, 
    {
      "op": "SliceChannel", 
      "name": "lstm_l0_t0_slice", 
      "attr": {"num_outputs": "4"}, 
      "inputs": [[33, 0, 0]]
    }, 
    {
      "op": "Activation", 
      "name": "lstm_l0_t0_o", 
      "attr": {"act_type": "sigmoid"}, 
      "inputs": [[34, 3, 0]]
    }, 
    {
      "op": "Activation", 
      "name": "lstm_l0_t0_f", 
      "attr": {"act_type": "sigmoid"}, 
      "inputs": [[34, 1, 0]]
    }, 
    {
      "op": "_zeros", 
      "name": "lstm_l0_begin_state_1", 
      "attr": {
        "__layout__": "NC", 
        "dtype": "float32", 
        "shape": "(0, 256)"
      }, 
      "inputs": []
    }, 
    {
      "op": "_mul", 
      "name": "_mul800", 
      "inputs": [[36, 0, 0], [37, 0, 0]]
    }, 
    {
      "op": "Activation", 
      "name": "lstm_l0_t0_i", 
      "attr": {"act_type": "sigmoid"}, 
      "inputs": [[34, 0, 0]]
    }, 
    {
      "op": "Activation", 
      "name": "lstm_l0_t0_c", 
      "attr": {"act_type": "tanh"}, 
      "inputs": [[34, 2, 0]]
    }, 
    {
      "op": "_mul", 
      "name": "_mul801", 
      "inputs": [[39, 0, 0], [40, 0, 0]]
    }, 
    {
      "op": "elemwise_add", 
      "name": "lstm_l0_t0_state", 
      "inputs": [[38, 0, 0], [41, 0, 0]]
    }, 
    {
      "op": "Activation", 
      "name": "activation400", 
      "attr": {"act_type": "tanh"}, 
      "inputs": [[42, 0, 0]]
    }, 
    {
      "op": "_mul", 
      "name": "lstm_l0_t0_out", 
      "inputs": [[35, 0, 0], [43, 0, 0]]
    }, 
    {
      "op": "null", 
      "name": "lstm_l1_i2h_weight", 
      "inputs": []
    }, 
    {
      "op": "null", 
      "name": "lstm_l1_i2h_bias", 
      "attr": {"__init__": "[\"lstmbias\", {\"forget_bias\": 1.0}]"}, 
      "inputs": []
    }, 
    {
      "op": "FullyConnected", 
      "name": "lstm_l1_t0_i2h", 
      "attr": {"num_hidden": "1024"}, 
      "inputs": [[44, 0, 0], [45, 0, 0], [46, 0, 0]]
    }, 
    {
      "op": "_zeros", 
      "name": "lstm_l1_begin_state_0", 
      "attr": {
        "__layout__": "NC", 
        "dtype": "float32", 
        "shape": "(0, 256)"
      }, 
      "inputs": []
    }, 
    {
      "op": "null", 
      "name": "lstm_l1_h2h_weight", 
      "inputs": []
    }, 
    {
      "op": "null", 
      "name": "lstm_l1_h2h_bias", 
      "inputs": []
    }, 
    {
      "op": "FullyConnected", 
      "name": "lstm_l1_t0_h2h", 
      "attr": {"num_hidden": "1024"}, 
      "inputs": [[48, 0, 0], [49, 0, 0], [50, 0, 0]]
    }, 
    {
      "op": "elemwise_add", 
      "name": "_plus450", 
      "inputs": [[47, 0, 0], [51, 0, 0]]
    }, 
    {
      "op": "SliceChannel", 
      "name": "lstm_l1_t0_slice", 
      "attr": {"num_outputs": "4"}, 
      "inputs": [[52, 0, 0]]
    }, 
    {
      "op": "Activation", 
      "name": "lstm_l1_t0_o", 
      "attr": {"act_type": "sigmoid"}, 
      "inputs": [[53, 3, 0]]
    }, 
    {
      "op": "Activation", 
      "name": "lstm_l1_t0_f", 
      "attr": {"act_type": "sigmoid"}, 
      "inputs": [[53, 1, 0]]
    }, 
    {
      "op": "_zeros", 
      "name": "lstm_l1_begin_state_1", 
      "attr": {
        "__layout__": "NC", 
        "dtype": "float32", 
        "shape": "(0, 256)"
      }, 
      "inputs": []
    }, 
    {
      "op": "_mul", 
      "name": "_mul900", 
      "inputs": [[55, 0, 0], [56, 0, 0]]
    }, 
    {
      "op": "Activation", 
      "name": "lstm_l1_t0_i", 
      "attr": {"act_type": "sigmoid"}, 
      "inputs": [[53, 0, 0]]
    }, 
    {
      "op": "Activation", 
      "name": "lstm_l1_t0_c", 
      "attr": {"act_type": "tanh"}, 
      "inputs": [[53, 2, 0]]
    }, 
    {
      "op": "_mul", 
      "name": "_mul901", 
      "inputs": [[58, 0, 0], [59, 0, 0]]
    }, 
    {
      "op": "elemwise_add", 
      "name": "lstm_l1_t0_state", 
      "inputs": [[57, 0, 0], [60, 0, 0]]
    }, 
    {
      "op": "Activation", 
      "name": "activation450", 
      "attr": {"act_type": "tanh"}, 
      "inputs": [[61, 0, 0]]
    }, 
    {
      "op": "_mul", 
      "name": "lstm_l1_t0_out", 
      "inputs": [[54, 0, 0], [62, 0, 0]]
    }, 
    {
      "op": "expand_dims", 
      "name": "expand_dims200", 
      "attr": {"axis": "1"}, 
      "inputs": [[63, 0, 0]]
    }, 
    {
      "op": "FullyConnected", 
      "name": "lstm_l0_t1_i2h", 
      "attr": {"num_hidden": "1024"}, 
      "inputs": [[25, 1, 0], [26, 0, 0], [27, 0, 0]]
    }, 
    {
      "op": "FullyConnected", 
      "name": "lstm_l0_t1_h2h", 
      "attr": {"num_hidden": "1024"}, 
      "inputs": [[44, 0, 0], [30, 0, 0], [31, 0, 0]]
    }, 
    {
      "op": "elemwise_add", 
      "name": "_plus401", 
      "inputs": [[65, 0, 0], [66, 0, 0]]
    }, 
    {
      "op": "SliceChannel", 
      "name": "lstm_l0_t1_slice", 
      "attr": {"num_outputs": "4"}, 
      "inputs": [[67, 0, 0]]
    }, 
    {
      "op": "Activation", 
      "name": "lstm_l0_t1_o", 
      "attr": {"act_type": "sigmoid"}, 
      "inputs": [[68, 3, 0]]
    }, 
    {
      "op": "Activation", 
      "name": "lstm_l0_t1_f", 
      "attr": {"act_type": "sigmoid"}, 
      "inputs": [[68, 1, 0]]
    }, 
    {
      "op": "_mul", 
      "name": "_mul802", 
      "inputs": [[70, 0, 0], [42, 0, 0]]
    }, 
    {
      "op": "Activation", 
      "name": "lstm_l0_t1_i", 
      "attr": {"act_type": "sigmoid"}, 
      "inputs": [[68, 0, 0]]
    }, 
    {
      "op": "Activation", 
      "name": "lstm_l0_t1_c", 
      "attr": {"act_type": "tanh"}, 
      "inputs": [[68, 2, 0]]
    }, 
    {
      "op": "_mul", 
      "name": "_mul803", 
      "inputs": [[72, 0, 0], [73, 0, 0]]
    }, 
    {
      "op": "elemwise_add", 
      "name": "lstm_l0_t1_state", 
      "inputs": [[71, 0, 0], [74, 0, 0]]
    }, 
    {
      "op": "Activation", 
      "name": "activation401", 
      "attr": {"act_type": "tanh"}, 
      "inputs": [[75, 0, 0]]
    }, 
    {
      "op": "_mul", 
      "name": "lstm_l0_t1_out", 
      "inputs": [[69, 0, 0], [76, 0, 0]]
    }, 
    {
      "op": "FullyConnected", 
      "name": "lstm_l1_t1_i2h", 
      "attr": {"num_hidden": "1024"}, 
      "inputs": [[77, 0, 0], [45, 0, 0], [46, 0, 0]]
    }, 
    {
      "op": "FullyConnected", 
      "name": "lstm_l1_t1_h2h", 
      "attr": {"num_hidden": "1024"}, 
      "inputs": [[63, 0, 0], [49, 0, 0], [50, 0, 0]]
    }, 
    {
      "op": "elemwise_add", 
      "name": "_plus451", 
      "inputs": [[78, 0, 0], [79, 0, 0]]
    }, 
    {
      "op": "SliceChannel", 
      "name": "lstm_l1_t1_slice", 
      "attr": {"num_outputs": "4"}, 
      "inputs": [[80, 0, 0]]
    }, 
    {
      "op": "Activation", 
      "name": "lstm_l1_t1_o", 
      "attr": {"act_type": "sigmoid"}, 
      "inputs": [[81, 3, 0]]
    }, 
    {
      "op": "Activation", 
      "name": "lstm_l1_t1_f", 
      "attr": {"act_type": "sigmoid"}, 
      "inputs": [[81, 1, 0]]
    }, 
    {
      "op": "_mul", 
      "name": "_mul902", 
      "inputs": [[83, 0, 0], [61, 0, 0]]
    }, 
    {
      "op": "Activation", 
      "name": "lstm_l1_t1_i", 
      "attr": {"act_type": "sigmoid"}, 
      "inputs": [[81, 0, 0]]
    }, 
    {
      "op": "Activation", 
      "name": "lstm_l1_t1_c", 
      "attr": {"act_type": "tanh"}, 
      "inputs": [[81, 2, 0]]
    }, 
    {
      "op": "_mul", 
      "name": "_mul903", 
      "inputs": [[85, 0, 0], [86, 0, 0]]
    }, 
    {
      "op": "elemwise_add", 
      "name": "lstm_l1_t1_state", 
      "inputs": [[84, 0, 0], [87, 0, 0]]
    }, 
    {
      "op": "Activation", 
      "name": "activation451", 
      "attr": {"act_type": "tanh"}, 
      "inputs": [[88, 0, 0]]
    }, 
    {
      "op": "_mul", 
      "name": "lstm_l1_t1_out", 
      "inputs": [[82, 0, 0], [89, 0, 0]]
    }, 
    {
      "op": "expand_dims", 
      "name": "expand_dims201", 
      "attr": {"axis": "1"}, 
      "inputs": [[90, 0, 0]]
    }, 
    {
      "op": "FullyConnected", 
      "name": "lstm_l0_t2_i2h", 
      "attr": {"num_hidden": "1024"}, 
      "inputs": [[25, 2, 0], [26, 0, 0], [27, 0, 0]]
    }, 
    {
      "op": "FullyConnected", 
      "name": "lstm_l0_t2_h2h", 
      "attr": {"num_hidden": "1024"}, 
      "inputs": [[77, 0, 0], [30, 0, 0], [31, 0, 0]]
    }, 
    {
      "op": "elemwise_add", 
      "name": "_plus402", 
      "inputs": [[92, 0, 0], [93, 0, 0]]
    }, 
    {
      "op": "SliceChannel", 
      "name": "lstm_l0_t2_slice", 
      "attr": {"num_outputs": "4"}, 
      "inputs": [[94, 0, 0]]
    }, 
    {
      "op": "Activation", 
      "name": "lstm_l0_t2_o", 
      "attr": {"act_type": "sigmoid"}, 
      "inputs": [[95, 3, 0]]
    }, 
    {
      "op": "Activation", 
      "name": "lstm_l0_t2_f", 
      "attr": {"act_type": "sigmoid"}, 
      "inputs": [[95, 1, 0]]
    }, 
    {
      "op": "_mul", 
      "name": "_mul804", 
      "inputs": [[97, 0, 0], [75, 0, 0]]
    }, 
    {
      "op": "Activation", 
      "name": "lstm_l0_t2_i", 
      "attr": {"act_type": "sigmoid"}, 
      "inputs": [[95, 0, 0]]
    }, 
    {
      "op": "Activation", 
      "name": "lstm_l0_t2_c", 
      "attr": {"act_type": "tanh"}, 
      "inputs": [[95, 2, 0]]
    }, 
    {
      "op": "_mul", 
      "name": "_mul805", 
      "inputs": [[99, 0, 0], [100, 0, 0]]
    }, 
    {
      "op": "elemwise_add", 
      "name": "lstm_l0_t2_state", 
      "inputs": [[98, 0, 0], [101, 0, 0]]
    }, 
    {
      "op": "Activation", 
      "name": "activation402", 
      "attr": {"act_type": "tanh"}, 
      "inputs": [[102, 0, 0]]
    }, 
    {
      "op": "_mul", 
      "name": "lstm_l0_t2_out", 
      "inputs": [[96, 0, 0], [103, 0, 0]]
    }, 
    {
      "op": "FullyConnected", 
      "name": "lstm_l1_t2_i2h", 
      "attr": {"num_hidden": "1024"}, 
      "inputs": [[104, 0, 0], [45, 0, 0], [46, 0, 0]]
    }, 
    {
      "op": "FullyConnected", 
      "name": "lstm_l1_t2_h2h", 
      "attr": {"num_hidden": "1024"}, 
      "inputs": [[90, 0, 0], [49, 0, 0], [50, 0, 0]]
    }, 
    {
      "op": "elemwise_add", 
      "name": "_plus452", 
      "inputs": [[105, 0, 0], [106, 0, 0]]
    }, 
    {
      "op": "SliceChannel", 
      "name": "lstm_l1_t2_slice", 
      "attr": {"num_outputs": "4"}, 
      "inputs": [[107, 0, 0]]
    }, 
    {
      "op": "Activation", 
      "name": "lstm_l1_t2_o", 
      "attr": {"act_type": "sigmoid"}, 
      "inputs": [[108, 3, 0]]
    }, 
    {
      "op": "Activation", 
      "name": "lstm_l1_t2_f", 
      "attr": {"act_type": "sigmoid"}, 
      "inputs": [[108, 1, 0]]
    }, 
    {
      "op": "_mul", 
      "name": "_mul904", 
      "inputs": [[110, 0, 0], [88, 0, 0]]
    }, 
    {
      "op": "Activation", 
      "name": "lstm_l1_t2_i", 
      "attr": {"act_type": "sigmoid"}, 
      "inputs": [[108, 0, 0]]
    }, 
    {
      "op": "Activation", 
      "name": "lstm_l1_t2_c", 
      "attr": {"act_type": "tanh"}, 
      "inputs": [[108, 2, 0]]
    }, 
    {
      "op": "_mul", 
      "name": "_mul905", 
      "inputs": [[112, 0, 0], [113, 0, 0]]
    }, 
    {
      "op": "elemwise_add", 
      "name": "lstm_l1_t2_state", 
      "inputs": [[111, 0, 0], [114, 0, 0]]
    }, 
    {
      "op": "Activation", 
      "name": "activation452", 
      "attr": {"act_type": "tanh"}, 
      "inputs": [[115, 0, 0]]
    }, 
    {
      "op": "_mul", 
      "name": "lstm_l1_t2_out", 
      "inputs": [[109, 0, 0], [116, 0, 0]]
    }, 
    {
      "op": "expand_dims", 
      "name": "expand_dims202", 
      "attr": {"axis": "1"}, 
      "inputs": [[117, 0, 0]]
    }, 
    {
      "op": "FullyConnected", 
      "name": "lstm_l0_t3_i2h", 
      "attr": {"num_hidden": "1024"}, 
      "inputs": [[25, 3, 0], [26, 0, 0], [27, 0, 0]]
    }, 
    {
      "op": "FullyConnected", 
      "name": "lstm_l0_t3_h2h", 
      "attr": {"num_hidden": "1024"}, 
      "inputs": [[104, 0, 0], [30, 0, 0], [31, 0, 0]]
    }, 
    {
      "op": "elemwise_add", 
      "name": "_plus403", 
      "inputs": [[119, 0, 0], [120, 0, 0]]
    }, 
    {
      "op": "SliceChannel", 
      "name": "lstm_l0_t3_slice", 
      "attr": {"num_outputs": "4"}, 
      "inputs": [[121, 0, 0]]
    }, 
    {
      "op": "Activation", 
      "name": "lstm_l0_t3_o", 
      "attr": {"act_type": "sigmoid"}, 
      "inputs": [[122, 3, 0]]
    }, 
    {
      "op": "Activation", 
      "name": "lstm_l0_t3_f", 
      "attr": {"act_type": "sigmoid"}, 
      "inputs": [[122, 1, 0]]
    }, 
    {
      "op": "_mul", 
      "name": "_mul806", 
      "inputs": [[124, 0, 0], [102, 0, 0]]
    }, 
    {
      "op": "Activation", 
      "name": "lstm_l0_t3_i", 
      "attr": {"act_type": "sigmoid"}, 
      "inputs": [[122, 0, 0]]
    }, 
    {
      "op": "Activation", 
      "name": "lstm_l0_t3_c", 
      "attr": {"act_type": "tanh"}, 
      "inputs": [[122, 2, 0]]
    }, 
    {
      "op": "_mul", 
      "name": "_mul807", 
      "inputs": [[126, 0, 0], [127, 0, 0]]
    }, 
    {
      "op": "elemwise_add", 
      "name": "lstm_l0_t3_state", 
      "inputs": [[125, 0, 0], [128, 0, 0]]
    }, 
    {
      "op": "Activation", 
      "name": "activation403", 
      "attr": {"act_type": "tanh"}, 
      "inputs": [[129, 0, 0]]
    }, 
    {
      "op": "_mul", 
      "name": "lstm_l0_t3_out", 
      "inputs": [[123, 0, 0], [130, 0, 0]]
    }, 
    {
      "op": "FullyConnected", 
      "name": "lstm_l1_t3_i2h", 
      "attr": {"num_hidden": "1024"}, 
      "inputs": [[131, 0, 0], [45, 0, 0], [46, 0, 0]]
    }, 
    {
      "op": "FullyConnected", 
      "name": "lstm_l1_t3_h2h", 
      "attr": {"num_hidden": "1024"}, 
      "inputs": [[117, 0, 0], [49, 0, 0], [50, 0, 0]]
    }, 
    {
      "op": "elemwise_add", 
      "name": "_plus453", 
      "inputs": [[132, 0, 0], [133, 0, 0]]
    }, 
    {
      "op": "SliceChannel", 
      "name": "lstm_l1_t3_slice", 
      "attr": {"num_outputs": "4"}, 
      "inputs": [[134, 0, 0]]
    }, 
    {
      "op": "Activation", 
      "name": "lstm_l1_t3_o", 
      "attr": {"act_type": "sigmoid"}, 
      "inputs": [[135, 3, 0]]
    }, 
    {
      "op": "Activation", 
      "name": "lstm_l1_t3_f", 
      "attr": {"act_type": "sigmoid"}, 
      "inputs": [[135, 1, 0]]
    }, 
    {
      "op": "_mul", 
      "name": "_mul906", 
      "inputs": [[137, 0, 0], [115, 0, 0]]
    }, 
    {
      "op": "Activation", 
      "name": "lstm_l1_t3_i", 
      "attr": {"act_type": "sigmoid"}, 
      "inputs": [[135, 0, 0]]
    }, 
    {
      "op": "Activation", 
      "name": "lstm_l1_t3_c", 
      "attr": {"act_type": "tanh"}, 
      "inputs": [[135, 2, 0]]
    }, 
    {
      "op": "_mul", 
      "name": "_mul907", 
      "inputs": [[139, 0, 0], [140, 0, 0]]
    }, 
    {
      "op": "elemwise_add", 
      "name": "lstm_l1_t3_state", 
      "inputs": [[138, 0, 0], [141, 0, 0]]
    }, 
    {
      "op": "Activation", 
      "name": "activation453", 
      "attr": {"act_type": "tanh"}, 
      "inputs": [[142, 0, 0]]
    }, 
    {
      "op": "_mul", 
      "name": "lstm_l1_t3_out", 
      "inputs": [[136, 0, 0], [143, 0, 0]]
    }, 
    {
      "op": "expand_dims", 
      "name": "expand_dims203", 
      "attr": {"axis": "1"}, 
      "inputs": [[144, 0, 0]]
    }, 
    {
      "op": "FullyConnected", 
      "name": "lstm_l0_t4_i2h", 
      "attr": {"num_hidden": "1024"}, 
      "inputs": [[25, 4, 0], [26, 0, 0], [27, 0, 0]]
    }, 
    {
      "op": "FullyConnected", 
      "name": "lstm_l0_t4_h2h", 
      "attr": {"num_hidden": "1024"}, 
      "inputs": [[131, 0, 0], [30, 0, 0], [31, 0, 0]]
    }, 
    {
      "op": "elemwise_add", 
      "name": "_plus404", 
      "inputs": [[146, 0, 0], [147, 0, 0]]
    }, 
    {
      "op": "SliceChannel", 
      "name": "lstm_l0_t4_slice", 
      "attr": {"num_outputs": "4"}, 
      "inputs": [[148, 0, 0]]
    }, 
    {
      "op": "Activation", 
      "name": "lstm_l0_t4_o", 
      "attr": {"act_type": "sigmoid"}, 
      "inputs": [[149, 3, 0]]
    }, 
    {
      "op": "Activation", 
      "name": "lstm_l0_t4_f", 
      "attr": {"act_type": "sigmoid"}, 
      "inputs": [[149, 1, 0]]
    }, 
    {
      "op": "_mul", 
      "name": "_mul808", 
      "inputs": [[151, 0, 0], [129, 0, 0]]
    }, 
    {
      "op": "Activation", 
      "name": "lstm_l0_t4_i", 
      "attr": {"act_type": "sigmoid"}, 
      "inputs": [[149, 0, 0]]
    }, 
    {
      "op": "Activation", 
      "name": "lstm_l0_t4_c", 
      "attr": {"act_type": "tanh"}, 
      "inputs": [[149, 2, 0]]
    }, 
    {
      "op": "_mul", 
      "name": "_mul809", 
      "inputs": [[153, 0, 0], [154, 0, 0]]
    }, 
    {
      "op": "elemwise_add", 
      "name": "lstm_l0_t4_state", 
      "inputs": [[152, 0, 0], [155, 0, 0]]
    }, 
    {
      "op": "Activation", 
      "name": "activation404", 
      "attr": {"act_type": "tanh"}, 
      "inputs": [[156, 0, 0]]
    }, 
    {
      "op": "_mul", 
      "name": "lstm_l0_t4_out", 
      "inputs": [[150, 0, 0], [157, 0, 0]]
    }, 
    {
      "op": "FullyConnected", 
      "name": "lstm_l1_t4_i2h", 
      "attr": {"num_hidden": "1024"}, 
      "inputs": [[158, 0, 0], [45, 0, 0], [46, 0, 0]]
    }, 
    {
      "op": "FullyConnected", 
      "name": "lstm_l1_t4_h2h", 
      "attr": {"num_hidden": "1024"}, 
      "inputs": [[144, 0, 0], [49, 0, 0], [50, 0, 0]]
    }, 
    {
      "op": "elemwise_add", 
      "name": "_plus454", 
      "inputs": [[159, 0, 0], [160, 0, 0]]
    }, 
    {
      "op": "SliceChannel", 
      "name": "lstm_l1_t4_slice", 
      "attr": {"num_outputs": "4"}, 
      "inputs": [[161, 0, 0]]
    }, 
    {
      "op": "Activation", 
      "name": "lstm_l1_t4_o", 
      "attr": {"act_type": "sigmoid"}, 
      "inputs": [[162, 3, 0]]
    }, 
    {
      "op": "Activation", 
      "name": "lstm_l1_t4_f", 
      "attr": {"act_type": "sigmoid"}, 
      "inputs": [[162, 1, 0]]
    }, 
    {
      "op": "_mul", 
      "name": "_mul908", 
      "inputs": [[164, 0, 0], [142, 0, 0]]
    }, 
    {
      "op": "Activation", 
      "name": "lstm_l1_t4_i", 
      "attr": {"act_type": "sigmoid"}, 
      "inputs": [[162, 0, 0]]
    }, 
    {
      "op": "Activation", 
      "name": "lstm_l1_t4_c", 
      "attr": {"act_type": "tanh"}, 
      "inputs": [[162, 2, 0]]
    }, 
    {
      "op": "_mul", 
      "name": "_mul909", 
      "inputs": [[166, 0, 0], [167, 0, 0]]
    }, 
    {
      "op": "elemwise_add", 
      "name": "lstm_l1_t4_state", 
      "inputs": [[165, 0, 0], [168, 0, 0]]
    }, 
    {
      "op": "Activation", 
      "name": "activation454", 
      "attr": {"act_type": "tanh"}, 
      "inputs": [[169, 0, 0]]
    }, 
    {
      "op": "_mul", 
      "name": "lstm_l1_t4_out", 
      "inputs": [[163, 0, 0], [170, 0, 0]]
    }, 
    {
      "op": "expand_dims", 
      "name": "expand_dims204", 
      "attr": {"axis": "1"}, 
      "inputs": [[171, 0, 0]]
    }, 
    {
      "op": "FullyConnected", 
      "name": "lstm_l0_t5_i2h", 
      "attr": {"num_hidden": "1024"}, 
      "inputs": [[25, 5, 0], [26, 0, 0], [27, 0, 0]]
    }, 
    {
      "op": "FullyConnected", 
      "name": "lstm_l0_t5_h2h", 
      "attr": {"num_hidden": "1024"}, 
      "inputs": [[158, 0, 0], [30, 0, 0], [31, 0, 0]]
    }, 
    {
      "op": "elemwise_add", 
      "name": "_plus405", 
      "inputs": [[173, 0, 0], [174, 0, 0]]
    }, 
    {
      "op": "SliceChannel", 
      "name": "lstm_l0_t5_slice", 
      "attr": {"num_outputs": "4"}, 
      "inputs": [[175, 0, 0]]
    }, 
    {
      "op": "Activation", 
      "name": "lstm_l0_t5_o", 
      "attr": {"act_type": "sigmoid"}, 
      "inputs": [[176, 3, 0]]
    }, 
    {
      "op": "Activation", 
      "name": "lstm_l0_t5_f", 
      "attr": {"act_type": "sigmoid"}, 
      "inputs": [[176, 1, 0]]
    }, 
    {
      "op": "_mul", 
      "name": "_mul810", 
      "inputs": [[178, 0, 0], [156, 0, 0]]
    }, 
    {
      "op": "Activation", 
      "name": "lstm_l0_t5_i", 
      "attr": {"act_type": "sigmoid"}, 
      "inputs": [[176, 0, 0]]
    }, 
    {
      "op": "Activation", 
      "name": "lstm_l0_t5_c", 
      "attr": {"act_type": "tanh"}, 
      "inputs": [[176, 2, 0]]
    }, 
    {
      "op": "_mul", 
      "name": "_mul811", 
      "inputs": [[180, 0, 0], [181, 0, 0]]
    }, 
    {
      "op": "elemwise_add", 
      "name": "lstm_l0_t5_state", 
      "inputs": [[179, 0, 0], [182, 0, 0]]
    }, 
    {
      "op": "Activation", 
      "name": "activation405", 
      "attr": {"act_type": "tanh"}, 
      "inputs": [[183, 0, 0]]
    }, 
    {
      "op": "_mul", 
      "name": "lstm_l0_t5_out", 
      "inputs": [[177, 0, 0], [184, 0, 0]]
    }, 
    {
      "op": "FullyConnected", 
      "name": "lstm_l1_t5_i2h", 
      "attr": {"num_hidden": "1024"}, 
      "inputs": [[185, 0, 0], [45, 0, 0], [46, 0, 0]]
    }, 
    {
      "op": "FullyConnected", 
      "name": "lstm_l1_t5_h2h", 
      "attr": {"num_hidden": "1024"}, 
      "inputs": [[171, 0, 0], [49, 0, 0], [50, 0, 0]]
    }, 
    {
      "op": "elemwise_add", 
      "name": "_plus455", 
      "inputs": [[186, 0, 0], [187, 0, 0]]
    }, 
    {
      "op": "SliceChannel", 
      "name": "lstm_l1_t5_slice", 
      "attr": {"num_outputs": "4"}, 
      "inputs": [[188, 0, 0]]
    }, 
    {
      "op": "Activation", 
      "name": "lstm_l1_t5_o", 
      "attr": {"act_type": "sigmoid"}, 
      "inputs": [[189, 3, 0]]
    }, 
    {
      "op": "Activation", 
      "name": "lstm_l1_t5_f", 
      "attr": {"act_type": "sigmoid"}, 
      "inputs": [[189, 1, 0]]
    }, 
    {
      "op": "_mul", 
      "name": "_mul910", 
      "inputs": [[191, 0, 0], [169, 0, 0]]
    }, 
    {
      "op": "Activation", 
      "name": "lstm_l1_t5_i", 
      "attr": {"act_type": "sigmoid"}, 
      "inputs": [[189, 0, 0]]
    }, 
    {
      "op": "Activation", 
      "name": "lstm_l1_t5_c", 
      "attr": {"act_type": "tanh"}, 
      "inputs": [[189, 2, 0]]
    }, 
    {
      "op": "_mul", 
      "name": "_mul911", 
      "inputs": [[193, 0, 0], [194, 0, 0]]
    }, 
    {
      "op": "elemwise_add", 
      "name": "lstm_l1_t5_state", 
      "inputs": [[192, 0, 0], [195, 0, 0]]
    }, 
    {
      "op": "Activation", 
      "name": "activation455", 
      "attr": {"act_type": "tanh"}, 
      "inputs": [[196, 0, 0]]
    }, 
    {
      "op": "_mul", 
      "name": "lstm_l1_t5_out", 
      "inputs": [[190, 0, 0], [197, 0, 0]]
    }, 
    {
      "op": "expand_dims", 
      "name": "expand_dims205", 
      "attr": {"axis": "1"}, 
      "inputs": [[198, 0, 0]]
    }, 
    {
      "op": "FullyConnected", 
      "name": "lstm_l0_t6_i2h", 
      "attr": {"num_hidden": "1024"}, 
      "inputs": [[25, 6, 0], [26, 0, 0], [27, 0, 0]]
    }, 
    {
      "op": "FullyConnected", 
      "name": "lstm_l0_t6_h2h", 
      "attr": {"num_hidden": "1024"}, 
      "inputs": [[185, 0, 0], [30, 0, 0], [31, 0, 0]]
    }, 
    {
      "op": "elemwise_add", 
      "name": "_plus406", 
      "inputs": [[200, 0, 0], [201, 0, 0]]
    }, 
    {
      "op": "SliceChannel", 
      "name": "lstm_l0_t6_slice", 
      "attr": {"num_outputs": "4"}, 
      "inputs": [[202, 0, 0]]
    }, 
    {
      "op": "Activation", 
      "name": "lstm_l0_t6_o", 
      "attr": {"act_type": "sigmoid"}, 
      "inputs": [[203, 3, 0]]
    }, 
    {
      "op": "Activation", 
      "name": "lstm_l0_t6_f", 
      "attr": {"act_type": "sigmoid"}, 
      "inputs": [[203, 1, 0]]
    }, 
    {
      "op": "_mul", 
      "name": "_mul812", 
      "inputs": [[205, 0, 0], [183, 0, 0]]
    }, 
    {
      "op": "Activation", 
      "name": "lstm_l0_t6_i", 
      "attr": {"act_type": "sigmoid"}, 
      "inputs": [[203, 0, 0]]
    }, 
    {
      "op": "Activation", 
      "name": "lstm_l0_t6_c", 
      "attr": {"act_type": "tanh"}, 
      "inputs": [[203, 2, 0]]
    }, 
    {
      "op": "_mul", 
      "name": "_mul813", 
      "inputs": [[207, 0, 0], [208, 0, 0]]
    }, 
    {
      "op": "elemwise_add", 
      "name": "lstm_l0_t6_state", 
      "inputs": [[206, 0, 0], [209, 0, 0]]
    }, 
    {
      "op": "Activation", 
      "name": "activation406", 
      "attr": {"act_type": "tanh"}, 
      "inputs": [[210, 0, 0]]
    }, 
    {
      "op": "_mul", 
      "name": "lstm_l0_t6_out", 
      "inputs": [[204, 0, 0], [211, 0, 0]]
    }, 
    {
      "op": "FullyConnected", 
      "name": "lstm_l1_t6_i2h", 
      "attr": {"num_hidden": "1024"}, 
      "inputs": [[212, 0, 0], [45, 0, 0], [46, 0, 0]]
    }, 
    {
      "op": "FullyConnected", 
      "name": "lstm_l1_t6_h2h", 
      "attr": {"num_hidden": "1024"}, 
      "inputs": [[198, 0, 0], [49, 0, 0], [50, 0, 0]]
    }, 
    {
      "op": "elemwise_add", 
      "name": "_plus456", 
      "inputs": [[213, 0, 0], [214, 0, 0]]
    }, 
    {
      "op": "SliceChannel", 
      "name": "lstm_l1_t6_slice", 
      "attr": {"num_outputs": "4"}, 
      "inputs": [[215, 0, 0]]
    }, 
    {
      "op": "Activation", 
      "name": "lstm_l1_t6_o", 
      "attr": {"act_type": "sigmoid"}, 
      "inputs": [[216, 3, 0]]
    }, 
    {
      "op": "Activation", 
      "name": "lstm_l1_t6_f", 
      "attr": {"act_type": "sigmoid"}, 
      "inputs": [[216, 1, 0]]
    }, 
    {
      "op": "_mul", 
      "name": "_mul912", 
      "inputs": [[218, 0, 0], [196, 0, 0]]
    }, 
    {
      "op": "Activation", 
      "name": "lstm_l1_t6_i", 
      "attr": {"act_type": "sigmoid"}, 
      "inputs": [[216, 0, 0]]
    }, 
    {
      "op": "Activation", 
      "name": "lstm_l1_t6_c", 
      "attr": {"act_type": "tanh"}, 
      "inputs": [[216, 2, 0]]
    }, 
    {
      "op": "_mul", 
      "name": "_mul913", 
      "inputs": [[220, 0, 0], [221, 0, 0]]
    }, 
    {
      "op": "elemwise_add", 
      "name": "lstm_l1_t6_state", 
      "inputs": [[219, 0, 0], [222, 0, 0]]
    }, 
    {
      "op": "Activation", 
      "name": "activation456", 
      "attr": {"act_type": "tanh"}, 
      "inputs": [[223, 0, 0]]
    }, 
    {
      "op": "_mul", 
      "name": "lstm_l1_t6_out", 
      "inputs": [[217, 0, 0], [224, 0, 0]]
    }, 
    {
      "op": "expand_dims", 
      "name": "expand_dims206", 
      "attr": {"axis": "1"}, 
      "inputs": [[225, 0, 0]]
    }, 
    {
      "op": "FullyConnected", 
      "name": "lstm_l0_t7_i2h", 
      "attr": {"num_hidden": "1024"}, 
      "inputs": [[25, 7, 0], [26, 0, 0], [27, 0, 0]]
    }, 
    {
      "op": "FullyConnected", 
      "name": "lstm_l0_t7_h2h", 
      "attr": {"num_hidden": "1024"}, 
      "inputs": [[212, 0, 0], [30, 0, 0], [31, 0, 0]]
    }, 
    {
      "op": "elemwise_add", 
      "name": "_plus407", 
      "inputs": [[227, 0, 0], [228, 0, 0]]
    }, 
    {
      "op": "SliceChannel", 
      "name": "lstm_l0_t7_slice", 
      "attr": {"num_outputs": "4"}, 
      "inputs": [[229, 0, 0]]
    }, 
    {
      "op": "Activation", 
      "name": "lstm_l0_t7_o", 
      "attr": {"act_type": "sigmoid"}, 
      "inputs": [[230, 3, 0]]
    }, 
    {
      "op": "Activation", 
      "name": "lstm_l0_t7_f", 
      "attr": {"act_type": "sigmoid"}, 
      "inputs": [[230, 1, 0]]
    }, 
    {
      "op": "_mul", 
      "name": "_mul814", 
      "inputs": [[232, 0, 0], [210, 0, 0]]
    }, 
    {
      "op": "Activation", 
      "name": "lstm_l0_t7_i", 
      "attr": {"act_type": "sigmoid"}, 
      "inputs": [[230, 0, 0]]
    }, 
    {
      "op": "Activation", 
      "name": "lstm_l0_t7_c", 
      "attr": {"act_type": "tanh"}, 
      "inputs": [[230, 2, 0]]
    }, 
    {
      "op": "_mul", 
      "name": "_mul815", 
      "inputs": [[234, 0, 0], [235, 0, 0]]
    }, 
    {
      "op": "elemwise_add", 
      "name": "lstm_l0_t7_state", 
      "inputs": [[233, 0, 0], [236, 0, 0]]
    }, 
    {
      "op": "Activation", 
      "name": "activation407", 
      "attr": {"act_type": "tanh"}, 
      "inputs": [[237, 0, 0]]
    }, 
    {
      "op": "_mul", 
      "name": "lstm_l0_t7_out", 
      "inputs": [[231, 0, 0], [238, 0, 0]]
    }, 
    {
      "op": "FullyConnected", 
      "name": "lstm_l1_t7_i2h", 
      "attr": {"num_hidden": "1024"}, 
      "inputs": [[239, 0, 0], [45, 0, 0], [46, 0, 0]]
    }, 
    {
      "op": "FullyConnected", 
      "name": "lstm_l1_t7_h2h", 
      "attr": {"num_hidden": "1024"}, 
      "inputs": [[225, 0, 0], [49, 0, 0], [50, 0, 0]]
    }, 
    {
      "op": "elemwise_add", 
      "name": "_plus457", 
      "inputs": [[240, 0, 0], [241, 0, 0]]
    }, 
    {
      "op": "SliceChannel", 
      "name": "lstm_l1_t7_slice", 
      "attr": {"num_outputs": "4"}, 
      "inputs": [[242, 0, 0]]
    }, 
    {
      "op": "Activation", 
      "name": "lstm_l1_t7_o", 
      "attr": {"act_type": "sigmoid"}, 
      "inputs": [[243, 3, 0]]
    }, 
    {
      "op": "Activation", 
      "name": "lstm_l1_t7_f", 
      "attr": {"act_type": "sigmoid"}, 
      "inputs": [[243, 1, 0]]
    }, 
    {
      "op": "_mul", 
      "name": "_mul914", 
      "inputs": [[245, 0, 0], [223, 0, 0]]
    }, 
    {
      "op": "Activation", 
      "name": "lstm_l1_t7_i", 
      "attr": {"act_type": "sigmoid"}, 
      "inputs": [[243, 0, 0]]
    }, 
    {
      "op": "Activation", 
      "name": "lstm_l1_t7_c", 
      "attr": {"act_type": "tanh"}, 
      "inputs": [[243, 2, 0]]
    }, 
    {
      "op": "_mul", 
      "name": "_mul915", 
      "inputs": [[247, 0, 0], [248, 0, 0]]
    }, 
    {
      "op": "elemwise_add", 
      "name": "lstm_l1_t7_state", 
      "inputs": [[246, 0, 0], [249, 0, 0]]
    }, 
    {
      "op": "Activation", 
      "name": "activation457", 
      "attr": {"act_type": "tanh"}, 
      "inputs": [[250, 0, 0]]
    }, 
    {
      "op": "_mul", 
      "name": "lstm_l1_t7_out", 
      "inputs": [[244, 0, 0], [251, 0, 0]]
    }, 
    {
      "op": "expand_dims", 
      "name": "expand_dims207", 
      "attr": {"axis": "1"}, 
      "inputs": [[252, 0, 0]]
    }, 
    {
      "op": "FullyConnected", 
      "name": "lstm_l0_t8_i2h", 
      "attr": {"num_hidden": "1024"}, 
      "inputs": [[25, 8, 0], [26, 0, 0], [27, 0, 0]]
    }, 
    {
      "op": "FullyConnected", 
      "name": "lstm_l0_t8_h2h", 
      "attr": {"num_hidden": "1024"}, 
      "inputs": [[239, 0, 0], [30, 0, 0], [31, 0, 0]]
    }, 
    {
      "op": "elemwise_add", 
      "name": "_plus408", 
      "inputs": [[254, 0, 0], [255, 0, 0]]
    }, 
    {
      "op": "SliceChannel", 
      "name": "lstm_l0_t8_slice", 
      "attr": {"num_outputs": "4"}, 
      "inputs": [[256, 0, 0]]
    }, 
    {
      "op": "Activation", 
      "name": "lstm_l0_t8_o", 
      "attr": {"act_type": "sigmoid"}, 
      "inputs": [[257, 3, 0]]
    }, 
    {
      "op": "Activation", 
      "name": "lstm_l0_t8_f", 
      "attr": {"act_type": "sigmoid"}, 
      "inputs": [[257, 1, 0]]
    }, 
    {
      "op": "_mul", 
      "name": "_mul816", 
      "inputs": [[259, 0, 0], [237, 0, 0]]
    }, 
    {
      "op": "Activation", 
      "name": "lstm_l0_t8_i", 
      "attr": {"act_type": "sigmoid"}, 
      "inputs": [[257, 0, 0]]
    }, 
    {
      "op": "Activation", 
      "name": "lstm_l0_t8_c", 
      "attr": {"act_type": "tanh"}, 
      "inputs": [[257, 2, 0]]
    }, 
    {
      "op": "_mul", 
      "name": "_mul817", 
      "inputs": [[261, 0, 0], [262, 0, 0]]
    }, 
    {
      "op": "elemwise_add", 
      "name": "lstm_l0_t8_state", 
      "inputs": [[260, 0, 0], [263, 0, 0]]
    }, 
    {
      "op": "Activation", 
      "name": "activation408", 
      "attr": {"act_type": "tanh"}, 
      "inputs": [[264, 0, 0]]
    }, 
    {
      "op": "_mul", 
      "name": "lstm_l0_t8_out", 
      "inputs": [[258, 0, 0], [265, 0, 0]]
    }, 
    {
      "op": "FullyConnected", 
      "name": "lstm_l1_t8_i2h", 
      "attr": {"num_hidden": "1024"}, 
      "inputs": [[266, 0, 0], [45, 0, 0], [46, 0, 0]]
    }, 
    {
      "op": "FullyConnected", 
      "name": "lstm_l1_t8_h2h", 
      "attr": {"num_hidden": "1024"}, 
      "inputs": [[252, 0, 0], [49, 0, 0], [50, 0, 0]]
    }, 
    {
      "op": "elemwise_add", 
      "name": "_plus458", 
      "inputs": [[267, 0, 0], [268, 0, 0]]
    }, 
    {
      "op": "SliceChannel", 
      "name": "lstm_l1_t8_slice", 
      "attr": {"num_outputs": "4"}, 
      "inputs": [[269, 0, 0]]
    }, 
    {
      "op": "Activation", 
      "name": "lstm_l1_t8_o", 
      "attr": {"act_type": "sigmoid"}, 
      "inputs": [[270, 3, 0]]
    }, 
    {
      "op": "Activation", 
      "name": "lstm_l1_t8_f", 
      "attr": {"act_type": "sigmoid"}, 
      "inputs": [[270, 1, 0]]
    }, 
    {
      "op": "_mul", 
      "name": "_mul916", 
      "inputs": [[272, 0, 0], [250, 0, 0]]
    }, 
    {
      "op": "Activation", 
      "name": "lstm_l1_t8_i", 
      "attr": {"act_type": "sigmoid"}, 
      "inputs": [[270, 0, 0]]
    }, 
    {
      "op": "Activation", 
      "name": "lstm_l1_t8_c", 
      "attr": {"act_type": "tanh"}, 
      "inputs": [[270, 2, 0]]
    }, 
    {
      "op": "_mul", 
      "name": "_mul917", 
      "inputs": [[274, 0, 0], [275, 0, 0]]
    }, 
    {
      "op": "elemwise_add", 
      "name": "lstm_l1_t8_state", 
      "inputs": [[273, 0, 0], [276, 0, 0]]
    }, 
    {
      "op": "Activation", 
      "name": "activation458", 
      "attr": {"act_type": "tanh"}, 
      "inputs": [[277, 0, 0]]
    }, 
    {
      "op": "_mul", 
      "name": "lstm_l1_t8_out", 
      "inputs": [[271, 0, 0], [278, 0, 0]]
    }, 
    {
      "op": "expand_dims", 
      "name": "expand_dims208", 
      "attr": {"axis": "1"}, 
      "inputs": [[279, 0, 0]]
    }, 
    {
      "op": "FullyConnected", 
      "name": "lstm_l0_t9_i2h", 
      "attr": {"num_hidden": "1024"}, 
      "inputs": [[25, 9, 0], [26, 0, 0], [27, 0, 0]]
    }, 
    {
      "op": "FullyConnected", 
      "name": "lstm_l0_t9_h2h", 
      "attr": {"num_hidden": "1024"}, 
      "inputs": [[266, 0, 0], [30, 0, 0], [31, 0, 0]]
    }, 
    {
      "op": "elemwise_add", 
      "name": "_plus409", 
      "inputs": [[281, 0, 0], [282, 0, 0]]
    }, 
    {
      "op": "SliceChannel", 
      "name": "lstm_l0_t9_slice", 
      "attr": {"num_outputs": "4"}, 
      "inputs": [[283, 0, 0]]
    }, 
    {
      "op": "Activation", 
      "name": "lstm_l0_t9_o", 
      "attr": {"act_type": "sigmoid"}, 
      "inputs": [[284, 3, 0]]
    }, 
    {
      "op": "Activation", 
      "name": "lstm_l0_t9_f", 
      "attr": {"act_type": "sigmoid"}, 
      "inputs": [[284, 1, 0]]
    }, 
    {
      "op": "_mul", 
      "name": "_mul818", 
      "inputs": [[286, 0, 0], [264, 0, 0]]
    }, 
    {
      "op": "Activation", 
      "name": "lstm_l0_t9_i", 
      "attr": {"act_type": "sigmoid"}, 
      "inputs": [[284, 0, 0]]
    }, 
    {
      "op": "Activation", 
      "name": "lstm_l0_t9_c", 
      "attr": {"act_type": "tanh"}, 
      "inputs": [[284, 2, 0]]
    }, 
    {
      "op": "_mul", 
      "name": "_mul819", 
      "inputs": [[288, 0, 0], [289, 0, 0]]
    }, 
    {
      "op": "elemwise_add", 
      "name": "lstm_l0_t9_state", 
      "inputs": [[287, 0, 0], [290, 0, 0]]
    }, 
    {
      "op": "Activation", 
      "name": "activation409", 
      "attr": {"act_type": "tanh"}, 
      "inputs": [[291, 0, 0]]
    }, 
    {
      "op": "_mul", 
      "name": "lstm_l0_t9_out", 
      "inputs": [[285, 0, 0], [292, 0, 0]]
    }, 
    {
      "op": "FullyConnected", 
      "name": "lstm_l1_t9_i2h", 
      "attr": {"num_hidden": "1024"}, 
      "inputs": [[293, 0, 0], [45, 0, 0], [46, 0, 0]]
    }, 
    {
      "op": "FullyConnected", 
      "name": "lstm_l1_t9_h2h", 
      "attr": {"num_hidden": "1024"}, 
      "inputs": [[279, 0, 0], [49, 0, 0], [50, 0, 0]]
    }, 
    {
      "op": "elemwise_add", 
      "name": "_plus459", 
      "inputs": [[294, 0, 0], [295, 0, 0]]
    }, 
    {
      "op": "SliceChannel", 
      "name": "lstm_l1_t9_slice", 
      "attr": {"num_outputs": "4"}, 
      "inputs": [[296, 0, 0]]
    }, 
    {
      "op": "Activation", 
      "name": "lstm_l1_t9_o", 
      "attr": {"act_type": "sigmoid"}, 
      "inputs": [[297, 3, 0]]
    }, 
    {
      "op": "Activation", 
      "name": "lstm_l1_t9_f", 
      "attr": {"act_type": "sigmoid"}, 
      "inputs": [[297, 1, 0]]
    }, 
    {
      "op": "_mul", 
      "name": "_mul918", 
      "inputs": [[299, 0, 0], [277, 0, 0]]
    }, 
    {
      "op": "Activation", 
      "name": "lstm_l1_t9_i", 
      "attr": {"act_type": "sigmoid"}, 
      "inputs": [[297, 0, 0]]
    }, 
    {
      "op": "Activation", 
      "name": "lstm_l1_t9_c", 
      "attr": {"act_type": "tanh"}, 
      "inputs": [[297, 2, 0]]
    }, 
    {
      "op": "_mul", 
      "name": "_mul919", 
      "inputs": [[301, 0, 0], [302, 0, 0]]
    }, 
    {
      "op": "elemwise_add", 
      "name": "lstm_l1_t9_state", 
      "inputs": [[300, 0, 0], [303, 0, 0]]
    }, 
    {
      "op": "Activation", 
      "name": "activation459", 
      "attr": {"act_type": "tanh"}, 
      "inputs": [[304, 0, 0]]
    }, 
    {
      "op": "_mul", 
      "name": "lstm_l1_t9_out", 
      "inputs": [[298, 0, 0], [305, 0, 0]]
    }, 
    {
      "op": "expand_dims", 
      "name": "expand_dims209", 
      "attr": {"axis": "1"}, 
      "inputs": [[306, 0, 0]]
    }, 
    {
      "op": "FullyConnected", 
      "name": "lstm_l0_t10_i2h", 
      "attr": {"num_hidden": "1024"}, 
      "inputs": [[25, 10, 0], [26, 0, 0], [27, 0, 0]]
    }, 
    {
      "op": "FullyConnected", 
      "name": "lstm_l0_t10_h2h", 
      "attr": {"num_hidden": "1024"}, 
      "inputs": [[293, 0, 0], [30, 0, 0], [31, 0, 0]]
    }, 
    {
      "op": "elemwise_add", 
      "name": "_plus410", 
      "inputs": [[308, 0, 0], [309, 0, 0]]
    }, 
    {
      "op": "SliceChannel", 
      "name": "lstm_l0_t10_slice", 
      "attr": {"num_outputs": "4"}, 
      "inputs": [[310, 0, 0]]
    }, 
    {
      "op": "Activation", 
      "name": "lstm_l0_t10_o", 
      "attr": {"act_type": "sigmoid"}, 
      "inputs": [[311, 3, 0]]
    }, 
    {
      "op": "Activation", 
      "name": "lstm_l0_t10_f", 
      "attr": {"act_type": "sigmoid"}, 
      "inputs": [[311, 1, 0]]
    }, 
    {
      "op": "_mul", 
      "name": "_mul820", 
      "inputs": [[313, 0, 0], [291, 0, 0]]
    }, 
    {
      "op": "Activation", 
      "name": "lstm_l0_t10_i", 
      "attr": {"act_type": "sigmoid"}, 
      "inputs": [[311, 0, 0]]
    }, 
    {
      "op": "Activation", 
      "name": "lstm_l0_t10_c", 
      "attr": {"act_type": "tanh"}, 
      "inputs": [[311, 2, 0]]
    }, 
    {
      "op": "_mul", 
      "name": "_mul821", 
      "inputs": [[315, 0, 0], [316, 0, 0]]
    }, 
    {
      "op": "elemwise_add", 
      "name": "lstm_l0_t10_state", 
      "inputs": [[314, 0, 0], [317, 0, 0]]
    }, 
    {
      "op": "Activation", 
      "name": "activation410", 
      "attr": {"act_type": "tanh"}, 
      "inputs": [[318, 0, 0]]
    }, 
    {
      "op": "_mul", 
      "name": "lstm_l0_t10_out", 
      "inputs": [[312, 0, 0], [319, 0, 0]]
    }, 
    {
      "op": "FullyConnected", 
      "name": "lstm_l1_t10_i2h", 
      "attr": {"num_hidden": "1024"}, 
      "inputs": [[320, 0, 0], [45, 0, 0], [46, 0, 0]]
    }, 
    {
      "op": "FullyConnected", 
      "name": "lstm_l1_t10_h2h", 
      "attr": {"num_hidden": "1024"}, 
      "inputs": [[306, 0, 0], [49, 0, 0], [50, 0, 0]]
    }, 
    {
      "op": "elemwise_add", 
      "name": "_plus460", 
      "inputs": [[321, 0, 0], [322, 0, 0]]
    }, 
    {
      "op": "SliceChannel", 
      "name": "lstm_l1_t10_slice", 
      "attr": {"num_outputs": "4"}, 
      "inputs": [[323, 0, 0]]
    }, 
    {
      "op": "Activation", 
      "name": "lstm_l1_t10_o", 
      "attr": {"act_type": "sigmoid"}, 
      "inputs": [[324, 3, 0]]
    }, 
    {
      "op": "Activation", 
      "name": "lstm_l1_t10_f", 
      "attr": {"act_type": "sigmoid"}, 
      "inputs": [[324, 1, 0]]
    }, 
    {
      "op": "_mul", 
      "name": "_mul920", 
      "inputs": [[326, 0, 0], [304, 0, 0]]
    }, 
    {
      "op": "Activation", 
      "name": "lstm_l1_t10_i", 
      "attr": {"act_type": "sigmoid"}, 
      "inputs": [[324, 0, 0]]
    }, 
    {
      "op": "Activation", 
      "name": "lstm_l1_t10_c", 
      "attr": {"act_type": "tanh"}, 
      "inputs": [[324, 2, 0]]
    }, 
    {
      "op": "_mul", 
      "name": "_mul921", 
      "inputs": [[328, 0, 0], [329, 0, 0]]
    }, 
    {
      "op": "elemwise_add", 
      "name": "lstm_l1_t10_state", 
      "inputs": [[327, 0, 0], [330, 0, 0]]
    }, 
    {
      "op": "Activation", 
      "name": "activation460", 
      "attr": {"act_type": "tanh"}, 
      "inputs": [[331, 0, 0]]
    }, 
    {
      "op": "_mul", 
      "name": "lstm_l1_t10_out", 
      "inputs": [[325, 0, 0], [332, 0, 0]]
    }, 
    {
      "op": "expand_dims", 
      "name": "expand_dims210", 
      "attr": {"axis": "1"}, 
      "inputs": [[333, 0, 0]]
    }, 
    {
      "op": "FullyConnected", 
      "name": "lstm_l0_t11_i2h", 
      "attr": {"num_hidden": "1024"}, 
      "inputs": [[25, 11, 0], [26, 0, 0], [27, 0, 0]]
    }, 
    {
      "op": "FullyConnected", 
      "name": "lstm_l0_t11_h2h", 
      "attr": {"num_hidden": "1024"}, 
      "inputs": [[320, 0, 0], [30, 0, 0], [31, 0, 0]]
    }, 
    {
      "op": "elemwise_add", 
      "name": "_plus411", 
      "inputs": [[335, 0, 0], [336, 0, 0]]
    }, 
    {
      "op": "SliceChannel", 
      "name": "lstm_l0_t11_slice", 
      "attr": {"num_outputs": "4"}, 
      "inputs": [[337, 0, 0]]
    }, 
    {
      "op": "Activation", 
      "name": "lstm_l0_t11_o", 
      "attr": {"act_type": "sigmoid"}, 
      "inputs": [[338, 3, 0]]
    }, 
    {
      "op": "Activation", 
      "name": "lstm_l0_t11_f", 
      "attr": {"act_type": "sigmoid"}, 
      "inputs": [[338, 1, 0]]
    }, 
    {
      "op": "_mul", 
      "name": "_mul822", 
      "inputs": [[340, 0, 0], [318, 0, 0]]
    }, 
    {
      "op": "Activation", 
      "name": "lstm_l0_t11_i", 
      "attr": {"act_type": "sigmoid"}, 
      "inputs": [[338, 0, 0]]
    }, 
    {
      "op": "Activation", 
      "name": "lstm_l0_t11_c", 
      "attr": {"act_type": "tanh"}, 
      "inputs": [[338, 2, 0]]
    }, 
    {
      "op": "_mul", 
      "name": "_mul823", 
      "inputs": [[342, 0, 0], [343, 0, 0]]
    }, 
    {
      "op": "elemwise_add", 
      "name": "lstm_l0_t11_state", 
      "inputs": [[341, 0, 0], [344, 0, 0]]
    }, 
    {
      "op": "Activation", 
      "name": "activation411", 
      "attr": {"act_type": "tanh"}, 
      "inputs": [[345, 0, 0]]
    }, 
    {
      "op": "_mul", 
      "name": "lstm_l0_t11_out", 
      "inputs": [[339, 0, 0], [346, 0, 0]]
    }, 
    {
      "op": "FullyConnected", 
      "name": "lstm_l1_t11_i2h", 
      "attr": {"num_hidden": "1024"}, 
      "inputs": [[347, 0, 0], [45, 0, 0], [46, 0, 0]]
    }, 
    {
      "op": "FullyConnected", 
      "name": "lstm_l1_t11_h2h", 
      "attr": {"num_hidden": "1024"}, 
      "inputs": [[333, 0, 0], [49, 0, 0], [50, 0, 0]]
    }, 
    {
      "op": "elemwise_add", 
      "name": "_plus461", 
      "inputs": [[348, 0, 0], [349, 0, 0]]
    }, 
    {
      "op": "SliceChannel", 
      "name": "lstm_l1_t11_slice", 
      "attr": {"num_outputs": "4"}, 
      "inputs": [[350, 0, 0]]
    }, 
    {
      "op": "Activation", 
      "name": "lstm_l1_t11_o", 
      "attr": {"act_type": "sigmoid"}, 
      "inputs": [[351, 3, 0]]
    }, 
    {
      "op": "Activation", 
      "name": "lstm_l1_t11_f", 
      "attr": {"act_type": "sigmoid"}, 
      "inputs": [[351, 1, 0]]
    }, 
    {
      "op": "_mul", 
      "name": "_mul922", 
      "inputs": [[353, 0, 0], [331, 0, 0]]
    }, 
    {
      "op": "Activation", 
      "name": "lstm_l1_t11_i", 
      "attr": {"act_type": "sigmoid"}, 
      "inputs": [[351, 0, 0]]
    }, 
    {
      "op": "Activation", 
      "name": "lstm_l1_t11_c", 
      "attr": {"act_type": "tanh"}, 
      "inputs": [[351, 2, 0]]
    }, 
    {
      "op": "_mul", 
      "name": "_mul923", 
      "inputs": [[355, 0, 0], [356, 0, 0]]
    }, 
    {
      "op": "elemwise_add", 
      "name": "lstm_l1_t11_state", 
      "inputs": [[354, 0, 0], [357, 0, 0]]
    }, 
    {
      "op": "Activation", 
      "name": "activation461", 
      "attr": {"act_type": "tanh"}, 
      "inputs": [[358, 0, 0]]
    }, 
    {
      "op": "_mul", 
      "name": "lstm_l1_t11_out", 
      "inputs": [[352, 0, 0], [359, 0, 0]]
    }, 
    {
      "op": "expand_dims", 
      "name": "expand_dims211", 
      "attr": {"axis": "1"}, 
      "inputs": [[360, 0, 0]]
    }, 
    {
      "op": "FullyConnected", 
      "name": "lstm_l0_t12_i2h", 
      "attr": {"num_hidden": "1024"}, 
      "inputs": [[25, 12, 0], [26, 0, 0], [27, 0, 0]]
    }, 
    {
      "op": "FullyConnected", 
      "name": "lstm_l0_t12_h2h", 
      "attr": {"num_hidden": "1024"}, 
      "inputs": [[347, 0, 0], [30, 0, 0], [31, 0, 0]]
    }, 
    {
      "op": "elemwise_add", 
      "name": "_plus412", 
      "inputs": [[362, 0, 0], [363, 0, 0]]
    }, 
    {
      "op": "SliceChannel", 
      "name": "lstm_l0_t12_slice", 
      "attr": {"num_outputs": "4"}, 
      "inputs": [[364, 0, 0]]
    }, 
    {
      "op": "Activation", 
      "name": "lstm_l0_t12_o", 
      "attr": {"act_type": "sigmoid"}, 
      "inputs": [[365, 3, 0]]
    }, 
    {
      "op": "Activation", 
      "name": "lstm_l0_t12_f", 
      "attr": {"act_type": "sigmoid"}, 
      "inputs": [[365, 1, 0]]
    }, 
    {
      "op": "_mul", 
      "name": "_mul824", 
      "inputs": [[367, 0, 0], [345, 0, 0]]
    }, 
    {
      "op": "Activation", 
      "name": "lstm_l0_t12_i", 
      "attr": {"act_type": "sigmoid"}, 
      "inputs": [[365, 0, 0]]
    }, 
    {
      "op": "Activation", 
      "name": "lstm_l0_t12_c", 
      "attr": {"act_type": "tanh"}, 
      "inputs": [[365, 2, 0]]
    }, 
    {
      "op": "_mul", 
      "name": "_mul825", 
      "inputs": [[369, 0, 0], [370, 0, 0]]
    }, 
    {
      "op": "elemwise_add", 
      "name": "lstm_l0_t12_state", 
      "inputs": [[368, 0, 0], [371, 0, 0]]
    }, 
    {
      "op": "Activation", 
      "name": "activation412", 
      "attr": {"act_type": "tanh"}, 
      "inputs": [[372, 0, 0]]
    }, 
    {
      "op": "_mul", 
      "name": "lstm_l0_t12_out", 
      "inputs": [[366, 0, 0], [373, 0, 0]]
    }, 
    {
      "op": "FullyConnected", 
      "name": "lstm_l1_t12_i2h", 
      "attr": {"num_hidden": "1024"}, 
      "inputs": [[374, 0, 0], [45, 0, 0], [46, 0, 0]]
    }, 
    {
      "op": "FullyConnected", 
      "name": "lstm_l1_t12_h2h", 
      "attr": {"num_hidden": "1024"}, 
      "inputs": [[360, 0, 0], [49, 0, 0], [50, 0, 0]]
    }, 
    {
      "op": "elemwise_add", 
      "name": "_plus462", 
      "inputs": [[375, 0, 0], [376, 0, 0]]
    }, 
    {
      "op": "SliceChannel", 
      "name": "lstm_l1_t12_slice", 
      "attr": {"num_outputs": "4"}, 
      "inputs": [[377, 0, 0]]
    }, 
    {
      "op": "Activation", 
      "name": "lstm_l1_t12_o", 
      "attr": {"act_type": "sigmoid"}, 
      "inputs": [[378, 3, 0]]
    }, 
    {
      "op": "Activation", 
      "name": "lstm_l1_t12_f", 
      "attr": {"act_type": "sigmoid"}, 
      "inputs": [[378, 1, 0]]
    }, 
    {
      "op": "_mul", 
      "name": "_mul924", 
      "inputs": [[380, 0, 0], [358, 0, 0]]
    }, 
    {
      "op": "Activation", 
      "name": "lstm_l1_t12_i", 
      "attr": {"act_type": "sigmoid"}, 
      "inputs": [[378, 0, 0]]
    }, 
    {
      "op": "Activation", 
      "name": "lstm_l1_t12_c", 
      "attr": {"act_type": "tanh"}, 
      "inputs": [[378, 2, 0]]
    }, 
    {
      "op": "_mul", 
      "name": "_mul925", 
      "inputs": [[382, 0, 0], [383, 0, 0]]
    }, 
    {
      "op": "elemwise_add", 
      "name": "lstm_l1_t12_state", 
      "inputs": [[381, 0, 0], [384, 0, 0]]
    }, 
    {
      "op": "Activation", 
      "name": "activation462", 
      "attr": {"act_type": "tanh"}, 
      "inputs": [[385, 0, 0]]
    }, 
    {
      "op": "_mul", 
      "name": "lstm_l1_t12_out", 
      "inputs": [[379, 0, 0], [386, 0, 0]]
    }, 
    {
      "op": "expand_dims", 
      "name": "expand_dims212", 
      "attr": {"axis": "1"}, 
      "inputs": [[387, 0, 0]]
    }, 
    {
      "op": "FullyConnected", 
      "name": "lstm_l0_t13_i2h", 
      "attr": {"num_hidden": "1024"}, 
      "inputs": [[25, 13, 0], [26, 0, 0], [27, 0, 0]]
    }, 
    {
      "op": "FullyConnected", 
      "name": "lstm_l0_t13_h2h", 
      "attr": {"num_hidden": "1024"}, 
      "inputs": [[374, 0, 0], [30, 0, 0], [31, 0, 0]]
    }, 
    {
      "op": "elemwise_add", 
      "name": "_plus413", 
      "inputs": [[389, 0, 0], [390, 0, 0]]
    }, 
    {
      "op": "SliceChannel", 
      "name": "lstm_l0_t13_slice", 
      "attr": {"num_outputs": "4"}, 
      "inputs": [[391, 0, 0]]
    }, 
    {
      "op": "Activation", 
      "name": "lstm_l0_t13_o", 
      "attr": {"act_type": "sigmoid"}, 
      "inputs": [[392, 3, 0]]
    }, 
    {
      "op": "Activation", 
      "name": "lstm_l0_t13_f", 
      "attr": {"act_type": "sigmoid"}, 
      "inputs": [[392, 1, 0]]
    }, 
    {
      "op": "_mul", 
      "name": "_mul826", 
      "inputs": [[394, 0, 0], [372, 0, 0]]
    }, 
    {
      "op": "Activation", 
      "name": "lstm_l0_t13_i", 
      "attr": {"act_type": "sigmoid"}, 
      "inputs": [[392, 0, 0]]
    }, 
    {
      "op": "Activation", 
      "name": "lstm_l0_t13_c", 
      "attr": {"act_type": "tanh"}, 
      "inputs": [[392, 2, 0]]
    }, 
    {
      "op": "_mul", 
      "name": "_mul827", 
      "inputs": [[396, 0, 0], [397, 0, 0]]
    }, 
    {
      "op": "elemwise_add", 
      "name": "lstm_l0_t13_state", 
      "inputs": [[395, 0, 0], [398, 0, 0]]
    }, 
    {
      "op": "Activation", 
      "name": "activation413", 
      "attr": {"act_type": "tanh"}, 
      "inputs": [[399, 0, 0]]
    }, 
    {
      "op": "_mul", 
      "name": "lstm_l0_t13_out", 
      "inputs": [[393, 0, 0], [400, 0, 0]]
    }, 
    {
      "op": "FullyConnected", 
      "name": "lstm_l1_t13_i2h", 
      "attr": {"num_hidden": "1024"}, 
      "inputs": [[401, 0, 0], [45, 0, 0], [46, 0, 0]]
    }, 
    {
      "op": "FullyConnected", 
      "name": "lstm_l1_t13_h2h", 
      "attr": {"num_hidden": "1024"}, 
      "inputs": [[387, 0, 0], [49, 0, 0], [50, 0, 0]]
    }, 
    {
      "op": "elemwise_add", 
      "name": "_plus463", 
      "inputs": [[402, 0, 0], [403, 0, 0]]
    }, 
    {
      "op": "SliceChannel", 
      "name": "lstm_l1_t13_slice", 
      "attr": {"num_outputs": "4"}, 
      "inputs": [[404, 0, 0]]
    }, 
    {
      "op": "Activation", 
      "name": "lstm_l1_t13_o", 
      "attr": {"act_type": "sigmoid"}, 
      "inputs": [[405, 3, 0]]
    }, 
    {
      "op": "Activation", 
      "name": "lstm_l1_t13_f", 
      "attr": {"act_type": "sigmoid"}, 
      "inputs": [[405, 1, 0]]
    }, 
    {
      "op": "_mul", 
      "name": "_mul926", 
      "inputs": [[407, 0, 0], [385, 0, 0]]
    }, 
    {
      "op": "Activation", 
      "name": "lstm_l1_t13_i", 
      "attr": {"act_type": "sigmoid"}, 
      "inputs": [[405, 0, 0]]
    }, 
    {
      "op": "Activation", 
      "name": "lstm_l1_t13_c", 
      "attr": {"act_type": "tanh"}, 
      "inputs": [[405, 2, 0]]
    }, 
    {
      "op": "_mul", 
      "name": "_mul927", 
      "inputs": [[409, 0, 0], [410, 0, 0]]
    }, 
    {
      "op": "elemwise_add", 
      "name": "lstm_l1_t13_state", 
      "inputs": [[408, 0, 0], [411, 0, 0]]
    }, 
    {
      "op": "Activation", 
      "name": "activation463", 
      "attr": {"act_type": "tanh"}, 
      "inputs": [[412, 0, 0]]
    }, 
    {
      "op": "_mul", 
      "name": "lstm_l1_t13_out", 
      "inputs": [[406, 0, 0], [413, 0, 0]]
    }, 
    {
      "op": "expand_dims", 
      "name": "expand_dims213", 
      "attr": {"axis": "1"}, 
      "inputs": [[414, 0, 0]]
    }, 
    {
      "op": "FullyConnected", 
      "name": "lstm_l0_t14_i2h", 
      "attr": {"num_hidden": "1024"}, 
      "inputs": [[25, 14, 0], [26, 0, 0], [27, 0, 0]]
    }, 
    {
      "op": "FullyConnected", 
      "name": "lstm_l0_t14_h2h", 
      "attr": {"num_hidden": "1024"}, 
      "inputs": [[401, 0, 0], [30, 0, 0], [31, 0, 0]]
    }, 
    {
      "op": "elemwise_add", 
      "name": "_plus414", 
      "inputs": [[416, 0, 0], [417, 0, 0]]
    }, 
    {
      "op": "SliceChannel", 
      "name": "lstm_l0_t14_slice", 
      "attr": {"num_outputs": "4"}, 
      "inputs": [[418, 0, 0]]
    }, 
    {
      "op": "Activation", 
      "name": "lstm_l0_t14_o", 
      "attr": {"act_type": "sigmoid"}, 
      "inputs": [[419, 3, 0]]
    }, 
    {
      "op": "Activation", 
      "name": "lstm_l0_t14_f", 
      "attr": {"act_type": "sigmoid"}, 
      "inputs": [[419, 1, 0]]
    }, 
    {
      "op": "_mul", 
      "name": "_mul828", 
      "inputs": [[421, 0, 0], [399, 0, 0]]
    }, 
    {
      "op": "Activation", 
      "name": "lstm_l0_t14_i", 
      "attr": {"act_type": "sigmoid"}, 
      "inputs": [[419, 0, 0]]
    }, 
    {
      "op": "Activation", 
      "name": "lstm_l0_t14_c", 
      "attr": {"act_type": "tanh"}, 
      "inputs": [[419, 2, 0]]
    }, 
    {
      "op": "_mul", 
      "name": "_mul829", 
      "inputs": [[423, 0, 0], [424, 0, 0]]
    }, 
    {
      "op": "elemwise_add", 
      "name": "lstm_l0_t14_state", 
      "inputs": [[422, 0, 0], [425, 0, 0]]
    }, 
    {
      "op": "Activation", 
      "name": "activation414", 
      "attr": {"act_type": "tanh"}, 
      "inputs": [[426, 0, 0]]
    }, 
    {
      "op": "_mul", 
      "name": "lstm_l0_t14_out", 
      "inputs": [[420, 0, 0], [427, 0, 0]]
    }, 
    {
      "op": "FullyConnected", 
      "name": "lstm_l1_t14_i2h", 
      "attr": {"num_hidden": "1024"}, 
      "inputs": [[428, 0, 0], [45, 0, 0], [46, 0, 0]]
    }, 
    {
      "op": "FullyConnected", 
      "name": "lstm_l1_t14_h2h", 
      "attr": {"num_hidden": "1024"}, 
      "inputs": [[414, 0, 0], [49, 0, 0], [50, 0, 0]]
    }, 
    {
      "op": "elemwise_add", 
      "name": "_plus464", 
      "inputs": [[429, 0, 0], [430, 0, 0]]
    }, 
    {
      "op": "SliceChannel", 
      "name": "lstm_l1_t14_slice", 
      "attr": {"num_outputs": "4"}, 
      "inputs": [[431, 0, 0]]
    }, 
    {
      "op": "Activation", 
      "name": "lstm_l1_t14_o", 
      "attr": {"act_type": "sigmoid"}, 
      "inputs": [[432, 3, 0]]
    }, 
    {
      "op": "Activation", 
      "name": "lstm_l1_t14_f", 
      "attr": {"act_type": "sigmoid"}, 
      "inputs": [[432, 1, 0]]
    }, 
    {
      "op": "_mul", 
      "name": "_mul928", 
      "inputs": [[434, 0, 0], [412, 0, 0]]
    }, 
    {
      "op": "Activation", 
      "name": "lstm_l1_t14_i", 
      "attr": {"act_type": "sigmoid"}, 
      "inputs": [[432, 0, 0]]
    }, 
    {
      "op": "Activation", 
      "name": "lstm_l1_t14_c", 
      "attr": {"act_type": "tanh"}, 
      "inputs": [[432, 2, 0]]
    }, 
    {
      "op": "_mul", 
      "name": "_mul929", 
      "inputs": [[436, 0, 0], [437, 0, 0]]
    }, 
    {
      "op": "elemwise_add", 
      "name": "lstm_l1_t14_state", 
      "inputs": [[435, 0, 0], [438, 0, 0]]
    }, 
    {
      "op": "Activation", 
      "name": "activation464", 
      "attr": {"act_type": "tanh"}, 
      "inputs": [[439, 0, 0]]
    }, 
    {
      "op": "_mul", 
      "name": "lstm_l1_t14_out", 
      "inputs": [[433, 0, 0], [440, 0, 0]]
    }, 
    {
      "op": "expand_dims", 
      "name": "expand_dims214", 
      "attr": {"axis": "1"}, 
      "inputs": [[441, 0, 0]]
    }, 
    {
      "op": "FullyConnected", 
      "name": "lstm_l0_t15_i2h", 
      "attr": {"num_hidden": "1024"}, 
      "inputs": [[25, 15, 0], [26, 0, 0], [27, 0, 0]]
    }, 
    {
      "op": "FullyConnected", 
      "name": "lstm_l0_t15_h2h", 
      "attr": {"num_hidden": "1024"}, 
      "inputs": [[428, 0, 0], [30, 0, 0], [31, 0, 0]]
    }, 
    {
      "op": "elemwise_add", 
      "name": "_plus415", 
      "inputs": [[443, 0, 0], [444, 0, 0]]
    }, 
    {
      "op": "SliceChannel", 
      "name": "lstm_l0_t15_slice", 
      "attr": {"num_outputs": "4"}, 
      "inputs": [[445, 0, 0]]
    }, 
    {
      "op": "Activation", 
      "name": "lstm_l0_t15_o", 
      "attr": {"act_type": "sigmoid"}, 
      "inputs": [[446, 3, 0]]
    }, 
    {
      "op": "Activation", 
      "name": "lstm_l0_t15_f", 
      "attr": {"act_type": "sigmoid"}, 
      "inputs": [[446, 1, 0]]
    }, 
    {
      "op": "_mul", 
      "name": "_mul830", 
      "inputs": [[448, 0, 0], [426, 0, 0]]
    }, 
    {
      "op": "Activation", 
      "name": "lstm_l0_t15_i", 
      "attr": {"act_type": "sigmoid"}, 
      "inputs": [[446, 0, 0]]
    }, 
    {
      "op": "Activation", 
      "name": "lstm_l0_t15_c", 
      "attr": {"act_type": "tanh"}, 
      "inputs": [[446, 2, 0]]
    }, 
    {
      "op": "_mul", 
      "name": "_mul831", 
      "inputs": [[450, 0, 0], [451, 0, 0]]
    }, 
    {
      "op": "elemwise_add", 
      "name": "lstm_l0_t15_state", 
      "inputs": [[449, 0, 0], [452, 0, 0]]
    }, 
    {
      "op": "Activation", 
      "name": "activation415", 
      "attr": {"act_type": "tanh"}, 
      "inputs": [[453, 0, 0]]
    }, 
    {
      "op": "_mul", 
      "name": "lstm_l0_t15_out", 
      "inputs": [[447, 0, 0], [454, 0, 0]]
    }, 
    {
      "op": "FullyConnected", 
      "name": "lstm_l1_t15_i2h", 
      "attr": {"num_hidden": "1024"}, 
      "inputs": [[455, 0, 0], [45, 0, 0], [46, 0, 0]]
    }, 
    {
      "op": "FullyConnected", 
      "name": "lstm_l1_t15_h2h", 
      "attr": {"num_hidden": "1024"}, 
      "inputs": [[441, 0, 0], [49, 0, 0], [50, 0, 0]]
    }, 
    {
      "op": "elemwise_add", 
      "name": "_plus465", 
      "inputs": [[456, 0, 0], [457, 0, 0]]
    }, 
    {
      "op": "SliceChannel", 
      "name": "lstm_l1_t15_slice", 
      "attr": {"num_outputs": "4"}, 
      "inputs": [[458, 0, 0]]
    }, 
    {
      "op": "Activation", 
      "name": "lstm_l1_t15_o", 
      "attr": {"act_type": "sigmoid"}, 
      "inputs": [[459, 3, 0]]
    }, 
    {
      "op": "Activation", 
      "name": "lstm_l1_t15_f", 
      "attr": {"act_type": "sigmoid"}, 
      "inputs": [[459, 1, 0]]
    }, 
    {
      "op": "_mul", 
      "name": "_mul930", 
      "inputs": [[461, 0, 0], [439, 0, 0]]
    }, 
    {
      "op": "Activation", 
      "name": "lstm_l1_t15_i", 
      "attr": {"act_type": "sigmoid"}, 
      "inputs": [[459, 0, 0]]
    }, 
    {
      "op": "Activation", 
      "name": "lstm_l1_t15_c", 
      "attr": {"act_type": "tanh"}, 
      "inputs": [[459, 2, 0]]
    }, 
    {
      "op": "_mul", 
      "name": "_mul931", 
      "inputs": [[463, 0, 0], [464, 0, 0]]
    }, 
    {
      "op": "elemwise_add", 
      "name": "lstm_l1_t15_state", 
      "inputs": [[462, 0, 0], [465, 0, 0]]
    }, 
    {
      "op": "Activation", 
      "name": "activation465", 
      "attr": {"act_type": "tanh"}, 
      "inputs": [[466, 0, 0]]
    }, 
    {
      "op": "_mul", 
      "name": "lstm_l1_t15_out", 
      "inputs": [[460, 0, 0], [467, 0, 0]]
    }, 
    {
      "op": "expand_dims", 
      "name": "expand_dims215", 
      "attr": {"axis": "1"}, 
      "inputs": [[468, 0, 0]]
    }, 
    {
      "op": "FullyConnected", 
      "name": "lstm_l0_t16_i2h", 
      "attr": {"num_hidden": "1024"}, 
      "inputs": [[25, 16, 0], [26, 0, 0], [27, 0, 0]]
    }, 
    {
      "op": "FullyConnected", 
      "name": "lstm_l0_t16_h2h", 
      "attr": {"num_hidden": "1024"}, 
      "inputs": [[455, 0, 0], [30, 0, 0], [31, 0, 0]]
    }, 
    {
      "op": "elemwise_add", 
      "name": "_plus416", 
      "inputs": [[470, 0, 0], [471, 0, 0]]
    }, 
    {
      "op": "SliceChannel", 
      "name": "lstm_l0_t16_slice", 
      "attr": {"num_outputs": "4"}, 
      "inputs": [[472, 0, 0]]
    }, 
    {
      "op": "Activation", 
      "name": "lstm_l0_t16_o", 
      "attr": {"act_type": "sigmoid"}, 
      "inputs": [[473, 3, 0]]
    }, 
    {
      "op": "Activation", 
      "name": "lstm_l0_t16_f", 
      "attr": {"act_type": "sigmoid"}, 
      "inputs": [[473, 1, 0]]
    }, 
    {
      "op": "_mul", 
      "name": "_mul832", 
      "inputs": [[475, 0, 0], [453, 0, 0]]
    }, 
    {
      "op": "Activation", 
      "name": "lstm_l0_t16_i", 
      "attr": {"act_type": "sigmoid"}, 
      "inputs": [[473, 0, 0]]
    }, 
    {
      "op": "Activation", 
      "name": "lstm_l0_t16_c", 
      "attr": {"act_type": "tanh"}, 
      "inputs": [[473, 2, 0]]
    }, 
    {
      "op": "_mul", 
      "name": "_mul833", 
      "inputs": [[477, 0, 0], [478, 0, 0]]
    }, 
    {
      "op": "elemwise_add", 
      "name": "lstm_l0_t16_state", 
      "inputs": [[476, 0, 0], [479, 0, 0]]
    }, 
    {
      "op": "Activation", 
      "name": "activation416", 
      "attr": {"act_type": "tanh"}, 
      "inputs": [[480, 0, 0]]
    }, 
    {
      "op": "_mul", 
      "name": "lstm_l0_t16_out", 
      "inputs": [[474, 0, 0], [481, 0, 0]]
    }, 
    {
      "op": "FullyConnected", 
      "name": "lstm_l1_t16_i2h", 
      "attr": {"num_hidden": "1024"}, 
      "inputs": [[482, 0, 0], [45, 0, 0], [46, 0, 0]]
    }, 
    {
      "op": "FullyConnected", 
      "name": "lstm_l1_t16_h2h", 
      "attr": {"num_hidden": "1024"}, 
      "inputs": [[468, 0, 0], [49, 0, 0], [50, 0, 0]]
    }, 
    {
      "op": "elemwise_add", 
      "name": "_plus466", 
      "inputs": [[483, 0, 0], [484, 0, 0]]
    }, 
    {
      "op": "SliceChannel", 
      "name": "lstm_l1_t16_slice", 
      "attr": {"num_outputs": "4"}, 
      "inputs": [[485, 0, 0]]
    }, 
    {
      "op": "Activation", 
      "name": "lstm_l1_t16_o", 
      "attr": {"act_type": "sigmoid"}, 
      "inputs": [[486, 3, 0]]
    }, 
    {
      "op": "Activation", 
      "name": "lstm_l1_t16_f", 
      "attr": {"act_type": "sigmoid"}, 
      "inputs": [[486, 1, 0]]
    }, 
    {
      "op": "_mul", 
      "name": "_mul932", 
      "inputs": [[488, 0, 0], [466, 0, 0]]
    }, 
    {
      "op": "Activation", 
      "name": "lstm_l1_t16_i", 
      "attr": {"act_type": "sigmoid"}, 
      "inputs": [[486, 0, 0]]
    }, 
    {
      "op": "Activation", 
      "name": "lstm_l1_t16_c", 
      "attr": {"act_type": "tanh"}, 
      "inputs": [[486, 2, 0]]
    }, 
    {
      "op": "_mul", 
      "name": "_mul933", 
      "inputs": [[490, 0, 0], [491, 0, 0]]
    }, 
    {
      "op": "elemwise_add", 
      "name": "lstm_l1_t16_state", 
      "inputs": [[489, 0, 0], [492, 0, 0]]
    }, 
    {
      "op": "Activation", 
      "name": "activation466", 
      "attr": {"act_type": "tanh"}, 
      "inputs": [[493, 0, 0]]
    }, 
    {
      "op": "_mul", 
      "name": "lstm_l1_t16_out", 
      "inputs": [[487, 0, 0], [494, 0, 0]]
    }, 
    {
      "op": "expand_dims", 
      "name": "expand_dims216", 
      "attr": {"axis": "1"}, 
      "inputs": [[495, 0, 0]]
    }, 
    {
      "op": "FullyConnected", 
      "name": "lstm_l0_t17_i2h", 
      "attr": {"num_hidden": "1024"}, 
      "inputs": [[25, 17, 0], [26, 0, 0], [27, 0, 0]]
    }, 
    {
      "op": "FullyConnected", 
      "name": "lstm_l0_t17_h2h", 
      "attr": {"num_hidden": "1024"}, 
      "inputs": [[482, 0, 0], [30, 0, 0], [31, 0, 0]]
    }, 
    {
      "op": "elemwise_add", 
      "name": "_plus417", 
      "inputs": [[497, 0, 0], [498, 0, 0]]
    }, 
    {
      "op": "SliceChannel", 
      "name": "lstm_l0_t17_slice", 
      "attr": {"num_outputs": "4"}, 
      "inputs": [[499, 0, 0]]
    }, 
    {
      "op": "Activation", 
      "name": "lstm_l0_t17_o", 
      "attr": {"act_type": "sigmoid"}, 
      "inputs": [[500, 3, 0]]
    }, 
    {
      "op": "Activation", 
      "name": "lstm_l0_t17_f", 
      "attr": {"act_type": "sigmoid"}, 
      "inputs": [[500, 1, 0]]
    }, 
    {
      "op": "_mul", 
      "name": "_mul834", 
      "inputs": [[502, 0, 0], [480, 0, 0]]
    }, 
    {
      "op": "Activation", 
      "name": "lstm_l0_t17_i", 
      "attr": {"act_type": "sigmoid"}, 
      "inputs": [[500, 0, 0]]
    }, 
    {
      "op": "Activation", 
      "name": "lstm_l0_t17_c", 
      "attr": {"act_type": "tanh"}, 
      "inputs": [[500, 2, 0]]
    }, 
    {
      "op": "_mul", 
      "name": "_mul835", 
      "inputs": [[504, 0, 0], [505, 0, 0]]
    }, 
    {
      "op": "elemwise_add", 
      "name": "lstm_l0_t17_state", 
      "inputs": [[503, 0, 0], [506, 0, 0]]
    }, 
    {
      "op": "Activation", 
      "name": "activation417", 
      "attr": {"act_type": "tanh"}, 
      "inputs": [[507, 0, 0]]
    }, 
    {
      "op": "_mul", 
      "name": "lstm_l0_t17_out", 
      "inputs": [[501, 0, 0], [508, 0, 0]]
    }, 
    {
      "op": "FullyConnected", 
      "name": "lstm_l1_t17_i2h", 
      "attr": {"num_hidden": "1024"}, 
      "inputs": [[509, 0, 0], [45, 0, 0], [46, 0, 0]]
    }, 
    {
      "op": "FullyConnected", 
      "name": "lstm_l1_t17_h2h", 
      "attr": {"num_hidden": "1024"}, 
      "inputs": [[495, 0, 0], [49, 0, 0], [50, 0, 0]]
    }, 
    {
      "op": "elemwise_add", 
      "name": "_plus467", 
      "inputs": [[510, 0, 0], [511, 0, 0]]
    }, 
    {
      "op": "SliceChannel", 
      "name": "lstm_l1_t17_slice", 
      "attr": {"num_outputs": "4"}, 
      "inputs": [[512, 0, 0]]
    }, 
    {
      "op": "Activation", 
      "name": "lstm_l1_t17_o", 
      "attr": {"act_type": "sigmoid"}, 
      "inputs": [[513, 3, 0]]
    }, 
    {
      "op": "Activation", 
      "name": "lstm_l1_t17_f", 
      "attr": {"act_type": "sigmoid"}, 
      "inputs": [[513, 1, 0]]
    }, 
    {
      "op": "_mul", 
      "name": "_mul934", 
      "inputs": [[515, 0, 0], [493, 0, 0]]
    }, 
    {
      "op": "Activation", 
      "name": "lstm_l1_t17_i", 
      "attr": {"act_type": "sigmoid"}, 
      "inputs": [[513, 0, 0]]
    }, 
    {
      "op": "Activation", 
      "name": "lstm_l1_t17_c", 
      "attr": {"act_type": "tanh"}, 
      "inputs": [[513, 2, 0]]
    }, 
    {
      "op": "_mul", 
      "name": "_mul935", 
      "inputs": [[517, 0, 0], [518, 0, 0]]
    }, 
    {
      "op": "elemwise_add", 
      "name": "lstm_l1_t17_state", 
      "inputs": [[516, 0, 0], [519, 0, 0]]
    }, 
    {
      "op": "Activation", 
      "name": "activation467", 
      "attr": {"act_type": "tanh"}, 
      "inputs": [[520, 0, 0]]
    }, 
    {
      "op": "_mul", 
      "name": "lstm_l1_t17_out", 
      "inputs": [[514, 0, 0], [521, 0, 0]]
    }, 
    {
      "op": "expand_dims", 
      "name": "expand_dims217", 
      "attr": {"axis": "1"}, 
      "inputs": [[522, 0, 0]]
    }, 
    {
      "op": "FullyConnected", 
      "name": "lstm_l0_t18_i2h", 
      "attr": {"num_hidden": "1024"}, 
      "inputs": [[25, 18, 0], [26, 0, 0], [27, 0, 0]]
    }, 
    {
      "op": "FullyConnected", 
      "name": "lstm_l0_t18_h2h", 
      "attr": {"num_hidden": "1024"}, 
      "inputs": [[509, 0, 0], [30, 0, 0], [31, 0, 0]]
    }, 
    {
      "op": "elemwise_add", 
      "name": "_plus418", 
      "inputs": [[524, 0, 0], [525, 0, 0]]
    }, 
    {
      "op": "SliceChannel", 
      "name": "lstm_l0_t18_slice", 
      "attr": {"num_outputs": "4"}, 
      "inputs": [[526, 0, 0]]
    }, 
    {
      "op": "Activation", 
      "name": "lstm_l0_t18_o", 
      "attr": {"act_type": "sigmoid"}, 
      "inputs": [[527, 3, 0]]
    }, 
    {
      "op": "Activation", 
      "name": "lstm_l0_t18_f", 
      "attr": {"act_type": "sigmoid"}, 
      "inputs": [[527, 1, 0]]
    }, 
    {
      "op": "_mul", 
      "name": "_mul836", 
      "inputs": [[529, 0, 0], [507, 0, 0]]
    }, 
    {
      "op": "Activation", 
      "name": "lstm_l0_t18_i", 
      "attr": {"act_type": "sigmoid"}, 
      "inputs": [[527, 0, 0]]
    }, 
    {
      "op": "Activation", 
      "name": "lstm_l0_t18_c", 
      "attr": {"act_type": "tanh"}, 
      "inputs": [[527, 2, 0]]
    }, 
    {
      "op": "_mul", 
      "name": "_mul837", 
      "inputs": [[531, 0, 0], [532, 0, 0]]
    }, 
    {
      "op": "elemwise_add", 
      "name": "lstm_l0_t18_state", 
      "inputs": [[530, 0, 0], [533, 0, 0]]
    }, 
    {
      "op": "Activation", 
      "name": "activation418", 
      "attr": {"act_type": "tanh"}, 
      "inputs": [[534, 0, 0]]
    }, 
    {
      "op": "_mul", 
      "name": "lstm_l0_t18_out", 
      "inputs": [[528, 0, 0], [535, 0, 0]]
    }, 
    {
      "op": "FullyConnected", 
      "name": "lstm_l1_t18_i2h", 
      "attr": {"num_hidden": "1024"}, 
      "inputs": [[536, 0, 0], [45, 0, 0], [46, 0, 0]]
    }, 
    {
      "op": "FullyConnected", 
      "name": "lstm_l1_t18_h2h", 
      "attr": {"num_hidden": "1024"}, 
      "inputs": [[522, 0, 0], [49, 0, 0], [50, 0, 0]]
    }, 
    {
      "op": "elemwise_add", 
      "name": "_plus468", 
      "inputs": [[537, 0, 0], [538, 0, 0]]
    }, 
    {
      "op": "SliceChannel", 
      "name": "lstm_l1_t18_slice", 
      "attr": {"num_outputs": "4"}, 
      "inputs": [[539, 0, 0]]
    }, 
    {
      "op": "Activation", 
      "name": "lstm_l1_t18_o", 
      "attr": {"act_type": "sigmoid"}, 
      "inputs": [[540, 3, 0]]
    }, 
    {
      "op": "Activation", 
      "name": "lstm_l1_t18_f", 
      "attr": {"act_type": "sigmoid"}, 
      "inputs": [[540, 1, 0]]
    }, 
    {
      "op": "_mul", 
      "name": "_mul936", 
      "inputs": [[542, 0, 0], [520, 0, 0]]
    }, 
    {
      "op": "Activation", 
      "name": "lstm_l1_t18_i", 
      "attr": {"act_type": "sigmoid"}, 
      "inputs": [[540, 0, 0]]
    }, 
    {
      "op": "Activation", 
      "name": "lstm_l1_t18_c", 
      "attr": {"act_type": "tanh"}, 
      "inputs": [[540, 2, 0]]
    }, 
    {
      "op": "_mul", 
      "name": "_mul937", 
      "inputs": [[544, 0, 0], [545, 0, 0]]
    }, 
    {
      "op": "elemwise_add", 
      "name": "lstm_l1_t18_state", 
      "inputs": [[543, 0, 0], [546, 0, 0]]
    }, 
    {
      "op": "Activation", 
      "name": "activation468", 
      "attr": {"act_type": "tanh"}, 
      "inputs": [[547, 0, 0]]
    }, 
    {
      "op": "_mul", 
      "name": "lstm_l1_t18_out", 
      "inputs": [[541, 0, 0], [548, 0, 0]]
    }, 
    {
      "op": "expand_dims", 
      "name": "expand_dims218", 
      "attr": {"axis": "1"}, 
      "inputs": [[549, 0, 0]]
    }, 
    {
      "op": "FullyConnected", 
      "name": "lstm_l0_t19_i2h", 
      "attr": {"num_hidden": "1024"}, 
      "inputs": [[25, 19, 0], [26, 0, 0], [27, 0, 0]]
    }, 
    {
      "op": "FullyConnected", 
      "name": "lstm_l0_t19_h2h", 
      "attr": {"num_hidden": "1024"}, 
      "inputs": [[536, 0, 0], [30, 0, 0], [31, 0, 0]]
    }, 
    {
      "op": "elemwise_add", 
      "name": "_plus419", 
      "inputs": [[551, 0, 0], [552, 0, 0]]
    }, 
    {
      "op": "SliceChannel", 
      "name": "lstm_l0_t19_slice", 
      "attr": {"num_outputs": "4"}, 
      "inputs": [[553, 0, 0]]
    }, 
    {
      "op": "Activation", 
      "name": "lstm_l0_t19_o", 
      "attr": {"act_type": "sigmoid"}, 
      "inputs": [[554, 3, 0]]
    }, 
    {
      "op": "Activation", 
      "name": "lstm_l0_t19_f", 
      "attr": {"act_type": "sigmoid"}, 
      "inputs": [[554, 1, 0]]
    }, 
    {
      "op": "_mul", 
      "name": "_mul838", 
      "inputs": [[556, 0, 0], [534, 0, 0]]
    }, 
    {
      "op": "Activation", 
      "name": "lstm_l0_t19_i", 
      "attr": {"act_type": "sigmoid"}, 
      "inputs": [[554, 0, 0]]
    }, 
    {
      "op": "Activation", 
      "name": "lstm_l0_t19_c", 
      "attr": {"act_type": "tanh"}, 
      "inputs": [[554, 2, 0]]
    }, 
    {
      "op": "_mul", 
      "name": "_mul839", 
      "inputs": [[558, 0, 0], [559, 0, 0]]
    }, 
    {
      "op": "elemwise_add", 
      "name": "lstm_l0_t19_state", 
      "inputs": [[557, 0, 0], [560, 0, 0]]
    }, 
    {
      "op": "Activation", 
      "name": "activation419", 
      "attr": {"act_type": "tanh"}, 
      "inputs": [[561, 0, 0]]
    }, 
    {
      "op": "_mul", 
      "name": "lstm_l0_t19_out", 
      "inputs": [[555, 0, 0], [562, 0, 0]]
    }, 
    {
      "op": "FullyConnected", 
      "name": "lstm_l1_t19_i2h", 
      "attr": {"num_hidden": "1024"}, 
      "inputs": [[563, 0, 0], [45, 0, 0], [46, 0, 0]]
    }, 
    {
      "op": "FullyConnected", 
      "name": "lstm_l1_t19_h2h", 
      "attr": {"num_hidden": "1024"}, 
      "inputs": [[549, 0, 0], [49, 0, 0], [50, 0, 0]]
    }, 
    {
      "op": "elemwise_add", 
      "name": "_plus469", 
      "inputs": [[564, 0, 0], [565, 0, 0]]
    }, 
    {
      "op": "SliceChannel", 
      "name": "lstm_l1_t19_slice", 
      "attr": {"num_outputs": "4"}, 
      "inputs": [[566, 0, 0]]
    }, 
    {
      "op": "Activation", 
      "name": "lstm_l1_t19_o", 
      "attr": {"act_type": "sigmoid"}, 
      "inputs": [[567, 3, 0]]
    }, 
    {
      "op": "Activation", 
      "name": "lstm_l1_t19_f", 
      "attr": {"act_type": "sigmoid"}, 
      "inputs": [[567, 1, 0]]
    }, 
    {
      "op": "_mul", 
      "name": "_mul938", 
      "inputs": [[569, 0, 0], [547, 0, 0]]
    }, 
    {
      "op": "Activation", 
      "name": "lstm_l1_t19_i", 
      "attr": {"act_type": "sigmoid"}, 
      "inputs": [[567, 0, 0]]
    }, 
    {
      "op": "Activation", 
      "name": "lstm_l1_t19_c", 
      "attr": {"act_type": "tanh"}, 
      "inputs": [[567, 2, 0]]
    }, 
    {
      "op": "_mul", 
      "name": "_mul939", 
      "inputs": [[571, 0, 0], [572, 0, 0]]
    }, 
    {
      "op": "elemwise_add", 
      "name": "lstm_l1_t19_state", 
      "inputs": [[570, 0, 0], [573, 0, 0]]
    }, 
    {
      "op": "Activation", 
      "name": "activation469", 
      "attr": {"act_type": "tanh"}, 
      "inputs": [[574, 0, 0]]
    }, 
    {
      "op": "_mul", 
      "name": "lstm_l1_t19_out", 
      "inputs": [[568, 0, 0], [575, 0, 0]]
    }, 
    {
      "op": "expand_dims", 
      "name": "expand_dims219", 
      "attr": {"axis": "1"}, 
      "inputs": [[576, 0, 0]]
    }, 
    {
      "op": "FullyConnected", 
      "name": "lstm_l0_t20_i2h", 
      "attr": {"num_hidden": "1024"}, 
      "inputs": [[25, 20, 0], [26, 0, 0], [27, 0, 0]]
    }, 
    {
      "op": "FullyConnected", 
      "name": "lstm_l0_t20_h2h", 
      "attr": {"num_hidden": "1024"}, 
      "inputs": [[563, 0, 0], [30, 0, 0], [31, 0, 0]]
    }, 
    {
      "op": "elemwise_add", 
      "name": "_plus420", 
      "inputs": [[578, 0, 0], [579, 0, 0]]
    }, 
    {
      "op": "SliceChannel", 
      "name": "lstm_l0_t20_slice", 
      "attr": {"num_outputs": "4"}, 
      "inputs": [[580, 0, 0]]
    }, 
    {
      "op": "Activation", 
      "name": "lstm_l0_t20_o", 
      "attr": {"act_type": "sigmoid"}, 
      "inputs": [[581, 3, 0]]
    }, 
    {
      "op": "Activation", 
      "name": "lstm_l0_t20_f", 
      "attr": {"act_type": "sigmoid"}, 
      "inputs": [[581, 1, 0]]
    }, 
    {
      "op": "_mul", 
      "name": "_mul840", 
      "inputs": [[583, 0, 0], [561, 0, 0]]
    }, 
    {
      "op": "Activation", 
      "name": "lstm_l0_t20_i", 
      "attr": {"act_type": "sigmoid"}, 
      "inputs": [[581, 0, 0]]
    }, 
    {
      "op": "Activation", 
      "name": "lstm_l0_t20_c", 
      "attr": {"act_type": "tanh"}, 
      "inputs": [[581, 2, 0]]
    }, 
    {
      "op": "_mul", 
      "name": "_mul841", 
      "inputs": [[585, 0, 0], [586, 0, 0]]
    }, 
    {
      "op": "elemwise_add", 
      "name": "lstm_l0_t20_state", 
      "inputs": [[584, 0, 0], [587, 0, 0]]
    }, 
    {
      "op": "Activation", 
      "name": "activation420", 
      "attr": {"act_type": "tanh"}, 
      "inputs": [[588, 0, 0]]
    }, 
    {
      "op": "_mul", 
      "name": "lstm_l0_t20_out", 
      "inputs": [[582, 0, 0], [589, 0, 0]]
    }, 
    {
      "op": "FullyConnected", 
      "name": "lstm_l1_t20_i2h", 
      "attr": {"num_hidden": "1024"}, 
      "inputs": [[590, 0, 0], [45, 0, 0], [46, 0, 0]]
    }, 
    {
      "op": "FullyConnected", 
      "name": "lstm_l1_t20_h2h", 
      "attr": {"num_hidden": "1024"}, 
      "inputs": [[576, 0, 0], [49, 0, 0], [50, 0, 0]]
    }, 
    {
      "op": "elemwise_add", 
      "name": "_plus470", 
      "inputs": [[591, 0, 0], [592, 0, 0]]
    }, 
    {
      "op": "SliceChannel", 
      "name": "lstm_l1_t20_slice", 
      "attr": {"num_outputs": "4"}, 
      "inputs": [[593, 0, 0]]
    }, 
    {
      "op": "Activation", 
      "name": "lstm_l1_t20_o", 
      "attr": {"act_type": "sigmoid"}, 
      "inputs": [[594, 3, 0]]
    }, 
    {
      "op": "Activation", 
      "name": "lstm_l1_t20_f", 
      "attr": {"act_type": "sigmoid"}, 
      "inputs": [[594, 1, 0]]
    }, 
    {
      "op": "_mul", 
      "name": "_mul940", 
      "inputs": [[596, 0, 0], [574, 0, 0]]
    }, 
    {
      "op": "Activation", 
      "name": "lstm_l1_t20_i", 
      "attr": {"act_type": "sigmoid"}, 
      "inputs": [[594, 0, 0]]
    }, 
    {
      "op": "Activation", 
      "name": "lstm_l1_t20_c", 
      "attr": {"act_type": "tanh"}, 
      "inputs": [[594, 2, 0]]
    }, 
    {
      "op": "_mul", 
      "name": "_mul941", 
      "inputs": [[598, 0, 0], [599, 0, 0]]
    }, 
    {
      "op": "elemwise_add", 
      "name": "lstm_l1_t20_state", 
      "inputs": [[597, 0, 0], [600, 0, 0]]
    }, 
    {
      "op": "Activation", 
      "name": "activation470", 
      "attr": {"act_type": "tanh"}, 
      "inputs": [[601, 0, 0]]
    }, 
    {
      "op": "_mul", 
      "name": "lstm_l1_t20_out", 
      "inputs": [[595, 0, 0], [602, 0, 0]]
    }, 
    {
      "op": "expand_dims", 
      "name": "expand_dims220", 
      "attr": {"axis": "1"}, 
      "inputs": [[603, 0, 0]]
    }, 
    {
      "op": "FullyConnected", 
      "name": "lstm_l0_t21_i2h", 
      "attr": {"num_hidden": "1024"}, 
      "inputs": [[25, 21, 0], [26, 0, 0], [27, 0, 0]]
    }, 
    {
      "op": "FullyConnected", 
      "name": "lstm_l0_t21_h2h", 
      "attr": {"num_hidden": "1024"}, 
      "inputs": [[590, 0, 0], [30, 0, 0], [31, 0, 0]]
    }, 
    {
      "op": "elemwise_add", 
      "name": "_plus421", 
      "inputs": [[605, 0, 0], [606, 0, 0]]
    }, 
    {
      "op": "SliceChannel", 
      "name": "lstm_l0_t21_slice", 
      "attr": {"num_outputs": "4"}, 
      "inputs": [[607, 0, 0]]
    }, 
    {
      "op": "Activation", 
      "name": "lstm_l0_t21_o", 
      "attr": {"act_type": "sigmoid"}, 
      "inputs": [[608, 3, 0]]
    }, 
    {
      "op": "Activation", 
      "name": "lstm_l0_t21_f", 
      "attr": {"act_type": "sigmoid"}, 
      "inputs": [[608, 1, 0]]
    }, 
    {
      "op": "_mul", 
      "name": "_mul842", 
      "inputs": [[610, 0, 0], [588, 0, 0]]
    }, 
    {
      "op": "Activation", 
      "name": "lstm_l0_t21_i", 
      "attr": {"act_type": "sigmoid"}, 
      "inputs": [[608, 0, 0]]
    }, 
    {
      "op": "Activation", 
      "name": "lstm_l0_t21_c", 
      "attr": {"act_type": "tanh"}, 
      "inputs": [[608, 2, 0]]
    }, 
    {
      "op": "_mul", 
      "name": "_mul843", 
      "inputs": [[612, 0, 0], [613, 0, 0]]
    }, 
    {
      "op": "elemwise_add", 
      "name": "lstm_l0_t21_state", 
      "inputs": [[611, 0, 0], [614, 0, 0]]
    }, 
    {
      "op": "Activation", 
      "name": "activation421", 
      "attr": {"act_type": "tanh"}, 
      "inputs": [[615, 0, 0]]
    }, 
    {
      "op": "_mul", 
      "name": "lstm_l0_t21_out", 
      "inputs": [[609, 0, 0], [616, 0, 0]]
    }, 
    {
      "op": "FullyConnected", 
      "name": "lstm_l1_t21_i2h", 
      "attr": {"num_hidden": "1024"}, 
      "inputs": [[617, 0, 0], [45, 0, 0], [46, 0, 0]]
    }, 
    {
      "op": "FullyConnected", 
      "name": "lstm_l1_t21_h2h", 
      "attr": {"num_hidden": "1024"}, 
      "inputs": [[603, 0, 0], [49, 0, 0], [50, 0, 0]]
    }, 
    {
      "op": "elemwise_add", 
      "name": "_plus471", 
      "inputs": [[618, 0, 0], [619, 0, 0]]
    }, 
    {
      "op": "SliceChannel", 
      "name": "lstm_l1_t21_slice", 
      "attr": {"num_outputs": "4"}, 
      "inputs": [[620, 0, 0]]
    }, 
    {
      "op": "Activation", 
      "name": "lstm_l1_t21_o", 
      "attr": {"act_type": "sigmoid"}, 
      "inputs": [[621, 3, 0]]
    }, 
    {
      "op": "Activation", 
      "name": "lstm_l1_t21_f", 
      "attr": {"act_type": "sigmoid"}, 
      "inputs": [[621, 1, 0]]
    }, 
    {
      "op": "_mul", 
      "name": "_mul942", 
      "inputs": [[623, 0, 0], [601, 0, 0]]
    }, 
    {
      "op": "Activation", 
      "name": "lstm_l1_t21_i", 
      "attr": {"act_type": "sigmoid"}, 
      "inputs": [[621, 0, 0]]
    }, 
    {
      "op": "Activation", 
      "name": "lstm_l1_t21_c", 
      "attr": {"act_type": "tanh"}, 
      "inputs": [[621, 2, 0]]
    }, 
    {
      "op": "_mul", 
      "name": "_mul943", 
      "inputs": [[625, 0, 0], [626, 0, 0]]
    }, 
    {
      "op": "elemwise_add", 
      "name": "lstm_l1_t21_state", 
      "inputs": [[624, 0, 0], [627, 0, 0]]
    }, 
    {
      "op": "Activation", 
      "name": "activation471", 
      "attr": {"act_type": "tanh"}, 
      "inputs": [[628, 0, 0]]
    }, 
    {
      "op": "_mul", 
      "name": "lstm_l1_t21_out", 
      "inputs": [[622, 0, 0], [629, 0, 0]]
    }, 
    {
      "op": "expand_dims", 
      "name": "expand_dims221", 
      "attr": {"axis": "1"}, 
      "inputs": [[630, 0, 0]]
    }, 
    {
      "op": "FullyConnected", 
      "name": "lstm_l0_t22_i2h", 
      "attr": {"num_hidden": "1024"}, 
      "inputs": [[25, 22, 0], [26, 0, 0], [27, 0, 0]]
    }, 
    {
      "op": "FullyConnected", 
      "name": "lstm_l0_t22_h2h", 
      "attr": {"num_hidden": "1024"}, 
      "inputs": [[617, 0, 0], [30, 0, 0], [31, 0, 0]]
    }, 
    {
      "op": "elemwise_add", 
      "name": "_plus422", 
      "inputs": [[632, 0, 0], [633, 0, 0]]
    }, 
    {
      "op": "SliceChannel", 
      "name": "lstm_l0_t22_slice", 
      "attr": {"num_outputs": "4"}, 
      "inputs": [[634, 0, 0]]
    }, 
    {
      "op": "Activation", 
      "name": "lstm_l0_t22_o", 
      "attr": {"act_type": "sigmoid"}, 
      "inputs": [[635, 3, 0]]
    }, 
    {
      "op": "Activation", 
      "name": "lstm_l0_t22_f", 
      "attr": {"act_type": "sigmoid"}, 
      "inputs": [[635, 1, 0]]
    }, 
    {
      "op": "_mul", 
      "name": "_mul844", 
      "inputs": [[637, 0, 0], [615, 0, 0]]
    }, 
    {
      "op": "Activation", 
      "name": "lstm_l0_t22_i", 
      "attr": {"act_type": "sigmoid"}, 
      "inputs": [[635, 0, 0]]
    }, 
    {
      "op": "Activation", 
      "name": "lstm_l0_t22_c", 
      "attr": {"act_type": "tanh"}, 
      "inputs": [[635, 2, 0]]
    }, 
    {
      "op": "_mul", 
      "name": "_mul845", 
      "inputs": [[639, 0, 0], [640, 0, 0]]
    }, 
    {
      "op": "elemwise_add", 
      "name": "lstm_l0_t22_state", 
      "inputs": [[638, 0, 0], [641, 0, 0]]
    }, 
    {
      "op": "Activation", 
      "name": "activation422", 
      "attr": {"act_type": "tanh"}, 
      "inputs": [[642, 0, 0]]
    }, 
    {
      "op": "_mul", 
      "name": "lstm_l0_t22_out", 
      "inputs": [[636, 0, 0], [643, 0, 0]]
    }, 
    {
      "op": "FullyConnected", 
      "name": "lstm_l1_t22_i2h", 
      "attr": {"num_hidden": "1024"}, 
      "inputs": [[644, 0, 0], [45, 0, 0], [46, 0, 0]]
    }, 
    {
      "op": "FullyConnected", 
      "name": "lstm_l1_t22_h2h", 
      "attr": {"num_hidden": "1024"}, 
      "inputs": [[630, 0, 0], [49, 0, 0], [50, 0, 0]]
    }, 
    {
      "op": "elemwise_add", 
      "name": "_plus472", 
      "inputs": [[645, 0, 0], [646, 0, 0]]
    }, 
    {
      "op": "SliceChannel", 
      "name": "lstm_l1_t22_slice", 
      "attr": {"num_outputs": "4"}, 
      "inputs": [[647, 0, 0]]
    }, 
    {
      "op": "Activation", 
      "name": "lstm_l1_t22_o", 
      "attr": {"act_type": "sigmoid"}, 
      "inputs": [[648, 3, 0]]
    }, 
    {
      "op": "Activation", 
      "name": "lstm_l1_t22_f", 
      "attr": {"act_type": "sigmoid"}, 
      "inputs": [[648, 1, 0]]
    }, 
    {
      "op": "_mul", 
      "name": "_mul944", 
      "inputs": [[650, 0, 0], [628, 0, 0]]
    }, 
    {
      "op": "Activation", 
      "name": "lstm_l1_t22_i", 
      "attr": {"act_type": "sigmoid"}, 
      "inputs": [[648, 0, 0]]
    }, 
    {
      "op": "Activation", 
      "name": "lstm_l1_t22_c", 
      "attr": {"act_type": "tanh"}, 
      "inputs": [[648, 2, 0]]
    }, 
    {
      "op": "_mul", 
      "name": "_mul945", 
      "inputs": [[652, 0, 0], [653, 0, 0]]
    }, 
    {
      "op": "elemwise_add", 
      "name": "lstm_l1_t22_state", 
      "inputs": [[651, 0, 0], [654, 0, 0]]
    }, 
    {
      "op": "Activation", 
      "name": "activation472", 
      "attr": {"act_type": "tanh"}, 
      "inputs": [[655, 0, 0]]
    }, 
    {
      "op": "_mul", 
      "name": "lstm_l1_t22_out", 
      "inputs": [[649, 0, 0], [656, 0, 0]]
    }, 
    {
      "op": "expand_dims", 
      "name": "expand_dims222", 
      "attr": {"axis": "1"}, 
      "inputs": [[657, 0, 0]]
    }, 
    {
      "op": "FullyConnected", 
      "name": "lstm_l0_t23_i2h", 
      "attr": {"num_hidden": "1024"}, 
      "inputs": [[25, 23, 0], [26, 0, 0], [27, 0, 0]]
    }, 
    {
      "op": "FullyConnected", 
      "name": "lstm_l0_t23_h2h", 
      "attr": {"num_hidden": "1024"}, 
      "inputs": [[644, 0, 0], [30, 0, 0], [31, 0, 0]]
    }, 
    {
      "op": "elemwise_add", 
      "name": "_plus423", 
      "inputs": [[659, 0, 0], [660, 0, 0]]
    }, 
    {
      "op": "SliceChannel", 
      "name": "lstm_l0_t23_slice", 
      "attr": {"num_outputs": "4"}, 
      "inputs": [[661, 0, 0]]
    }, 
    {
      "op": "Activation", 
      "name": "lstm_l0_t23_o", 
      "attr": {"act_type": "sigmoid"}, 
      "inputs": [[662, 3, 0]]
    }, 
    {
      "op": "Activation", 
      "name": "lstm_l0_t23_f", 
      "attr": {"act_type": "sigmoid"}, 
      "inputs": [[662, 1, 0]]
    }, 
    {
      "op": "_mul", 
      "name": "_mul846", 
      "inputs": [[664, 0, 0], [642, 0, 0]]
    }, 
    {
      "op": "Activation", 
      "name": "lstm_l0_t23_i", 
      "attr": {"act_type": "sigmoid"}, 
      "inputs": [[662, 0, 0]]
    }, 
    {
      "op": "Activation", 
      "name": "lstm_l0_t23_c", 
      "attr": {"act_type": "tanh"}, 
      "inputs": [[662, 2, 0]]
    }, 
    {
      "op": "_mul", 
      "name": "_mul847", 
      "inputs": [[666, 0, 0], [667, 0, 0]]
    }, 
    {
      "op": "elemwise_add", 
      "name": "lstm_l0_t23_state", 
      "inputs": [[665, 0, 0], [668, 0, 0]]
    }, 
    {
      "op": "Activation", 
      "name": "activation423", 
      "attr": {"act_type": "tanh"}, 
      "inputs": [[669, 0, 0]]
    }, 
    {
      "op": "_mul", 
      "name": "lstm_l0_t23_out", 
      "inputs": [[663, 0, 0], [670, 0, 0]]
    }, 
    {
      "op": "FullyConnected", 
      "name": "lstm_l1_t23_i2h", 
      "attr": {"num_hidden": "1024"}, 
      "inputs": [[671, 0, 0], [45, 0, 0], [46, 0, 0]]
    }, 
    {
      "op": "FullyConnected", 
      "name": "lstm_l1_t23_h2h", 
      "attr": {"num_hidden": "1024"}, 
      "inputs": [[657, 0, 0], [49, 0, 0], [50, 0, 0]]
    }, 
    {
      "op": "elemwise_add", 
      "name": "_plus473", 
      "inputs": [[672, 0, 0], [673, 0, 0]]
    }, 
    {
      "op": "SliceChannel", 
      "name": "lstm_l1_t23_slice", 
      "attr": {"num_outputs": "4"}, 
      "inputs": [[674, 0, 0]]
    }, 
    {
      "op": "Activation", 
      "name": "lstm_l1_t23_o", 
      "attr": {"act_type": "sigmoid"}, 
      "inputs": [[675, 3, 0]]
    }, 
    {
      "op": "Activation", 
      "name": "lstm_l1_t23_f", 
      "attr": {"act_type": "sigmoid"}, 
      "inputs": [[675, 1, 0]]
    }, 
    {
      "op": "_mul", 
      "name": "_mul946", 
      "inputs": [[677, 0, 0], [655, 0, 0]]
    }, 
    {
      "op": "Activation", 
      "name": "lstm_l1_t23_i", 
      "attr": {"act_type": "sigmoid"}, 
      "inputs": [[675, 0, 0]]
    }, 
    {
      "op": "Activation", 
      "name": "lstm_l1_t23_c", 
      "attr": {"act_type": "tanh"}, 
      "inputs": [[675, 2, 0]]
    }, 
    {
      "op": "_mul", 
      "name": "_mul947", 
      "inputs": [[679, 0, 0], [680, 0, 0]]
    }, 
    {
      "op": "elemwise_add", 
      "name": "lstm_l1_t23_state", 
      "inputs": [[678, 0, 0], [681, 0, 0]]
    }, 
    {
      "op": "Activation", 
      "name": "activation473", 
      "attr": {"act_type": "tanh"}, 
      "inputs": [[682, 0, 0]]
    }, 
    {
      "op": "_mul", 
      "name": "lstm_l1_t23_out", 
      "inputs": [[676, 0, 0], [683, 0, 0]]
    }, 
    {
      "op": "expand_dims", 
      "name": "expand_dims223", 
      "attr": {"axis": "1"}, 
      "inputs": [[684, 0, 0]]
    }, 
    {
      "op": "FullyConnected", 
      "name": "lstm_l0_t24_i2h", 
      "attr": {"num_hidden": "1024"}, 
      "inputs": [[25, 24, 0], [26, 0, 0], [27, 0, 0]]
    }, 
    {
      "op": "FullyConnected", 
      "name": "lstm_l0_t24_h2h", 
      "attr": {"num_hidden": "1024"}, 
      "inputs": [[671, 0, 0], [30, 0, 0], [31, 0, 0]]
    }, 
    {
      "op": "elemwise_add", 
      "name": "_plus424", 
      "inputs": [[686, 0, 0], [687, 0, 0]]
    }, 
    {
      "op": "SliceChannel", 
      "name": "lstm_l0_t24_slice", 
      "attr": {"num_outputs": "4"}, 
      "inputs": [[688, 0, 0]]
    }, 
    {
      "op": "Activation", 
      "name": "lstm_l0_t24_o", 
      "attr": {"act_type": "sigmoid"}, 
      "inputs": [[689, 3, 0]]
    }, 
    {
      "op": "Activation", 
      "name": "lstm_l0_t24_f", 
      "attr": {"act_type": "sigmoid"}, 
      "inputs": [[689, 1, 0]]
    }, 
    {
      "op": "_mul", 
      "name": "_mul848", 
      "inputs": [[691, 0, 0], [669, 0, 0]]
    }, 
    {
      "op": "Activation", 
      "name": "lstm_l0_t24_i", 
      "attr": {"act_type": "sigmoid"}, 
      "inputs": [[689, 0, 0]]
    }, 
    {
      "op": "Activation", 
      "name": "lstm_l0_t24_c", 
      "attr": {"act_type": "tanh"}, 
      "inputs": [[689, 2, 0]]
    }, 
    {
      "op": "_mul", 
      "name": "_mul849", 
      "inputs": [[693, 0, 0], [694, 0, 0]]
    }, 
    {
      "op": "elemwise_add", 
      "name": "lstm_l0_t24_state", 
      "inputs": [[692, 0, 0], [695, 0, 0]]
    }, 
    {
      "op": "Activation", 
      "name": "activation424", 
      "attr": {"act_type": "tanh"}, 
      "inputs": [[696, 0, 0]]
    }, 
    {
      "op": "_mul", 
      "name": "lstm_l0_t24_out", 
      "inputs": [[690, 0, 0], [697, 0, 0]]
    }, 
    {
      "op": "FullyConnected", 
      "name": "lstm_l1_t24_i2h", 
      "attr": {"num_hidden": "1024"}, 
      "inputs": [[698, 0, 0], [45, 0, 0], [46, 0, 0]]
    }, 
    {
      "op": "FullyConnected", 
      "name": "lstm_l1_t24_h2h", 
      "attr": {"num_hidden": "1024"}, 
      "inputs": [[684, 0, 0], [49, 0, 0], [50, 0, 0]]
    }, 
    {
      "op": "elemwise_add", 
      "name": "_plus474", 
      "inputs": [[699, 0, 0], [700, 0, 0]]
    }, 
    {
      "op": "SliceChannel", 
      "name": "lstm_l1_t24_slice", 
      "attr": {"num_outputs": "4"}, 
      "inputs": [[701, 0, 0]]
    }, 
    {
      "op": "Activation", 
      "name": "lstm_l1_t24_o", 
      "attr": {"act_type": "sigmoid"}, 
      "inputs": [[702, 3, 0]]
    }, 
    {
      "op": "Activation", 
      "name": "lstm_l1_t24_f", 
      "attr": {"act_type": "sigmoid"}, 
      "inputs": [[702, 1, 0]]
    }, 
    {
      "op": "_mul", 
      "name": "_mul948", 
      "inputs": [[704, 0, 0], [682, 0, 0]]
    }, 
    {
      "op": "Activation", 
      "name": "lstm_l1_t24_i", 
      "attr": {"act_type": "sigmoid"}, 
      "inputs": [[702, 0, 0]]
    }, 
    {
      "op": "Activation", 
      "name": "lstm_l1_t24_c", 
      "attr": {"act_type": "tanh"}, 
      "inputs": [[702, 2, 0]]
    }, 
    {
      "op": "_mul", 
      "name": "_mul949", 
      "inputs": [[706, 0, 0], [707, 0, 0]]
    }, 
    {
      "op": "elemwise_add", 
      "name": "lstm_l1_t24_state", 
      "inputs": [[705, 0, 0], [708, 0, 0]]
    }, 
    {
      "op": "Activation", 
      "name": "activation474", 
      "attr": {"act_type": "tanh"}, 
      "inputs": [[709, 0, 0]]
    }, 
    {
      "op": "_mul", 
      "name": "lstm_l1_t24_out", 
      "inputs": [[703, 0, 0], [710, 0, 0]]
    }, 
    {
      "op": "expand_dims", 
      "name": "expand_dims224", 
      "attr": {"axis": "1"}, 
      "inputs": [[711, 0, 0]]
    }, 
    {
      "op": "FullyConnected", 
      "name": "lstm_l0_t25_i2h", 
      "attr": {"num_hidden": "1024"}, 
      "inputs": [[25, 25, 0], [26, 0, 0], [27, 0, 0]]
    }, 
    {
      "op": "FullyConnected", 
      "name": "lstm_l0_t25_h2h", 
      "attr": {"num_hidden": "1024"}, 
      "inputs": [[698, 0, 0], [30, 0, 0], [31, 0, 0]]
    }, 
    {
      "op": "elemwise_add", 
      "name": "_plus425", 
      "inputs": [[713, 0, 0], [714, 0, 0]]
    }, 
    {
      "op": "SliceChannel", 
      "name": "lstm_l0_t25_slice", 
      "attr": {"num_outputs": "4"}, 
      "inputs": [[715, 0, 0]]
    }, 
    {
      "op": "Activation", 
      "name": "lstm_l0_t25_o", 
      "attr": {"act_type": "sigmoid"}, 
      "inputs": [[716, 3, 0]]
    }, 
    {
      "op": "Activation", 
      "name": "lstm_l0_t25_f", 
      "attr": {"act_type": "sigmoid"}, 
      "inputs": [[716, 1, 0]]
    }, 
    {
      "op": "_mul", 
      "name": "_mul850", 
      "inputs": [[718, 0, 0], [696, 0, 0]]
    }, 
    {
      "op": "Activation", 
      "name": "lstm_l0_t25_i", 
      "attr": {"act_type": "sigmoid"}, 
      "inputs": [[716, 0, 0]]
    }, 
    {
      "op": "Activation", 
      "name": "lstm_l0_t25_c", 
      "attr": {"act_type": "tanh"}, 
      "inputs": [[716, 2, 0]]
    }, 
    {
      "op": "_mul", 
      "name": "_mul851", 
      "inputs": [[720, 0, 0], [721, 0, 0]]
    }, 
    {
      "op": "elemwise_add", 
      "name": "lstm_l0_t25_state", 
      "inputs": [[719, 0, 0], [722, 0, 0]]
    }, 
    {
      "op": "Activation", 
      "name": "activation425", 
      "attr": {"act_type": "tanh"}, 
      "inputs": [[723, 0, 0]]
    }, 
    {
      "op": "_mul", 
      "name": "lstm_l0_t25_out", 
      "inputs": [[717, 0, 0], [724, 0, 0]]
    }, 
    {
      "op": "FullyConnected", 
      "name": "lstm_l1_t25_i2h", 
      "attr": {"num_hidden": "1024"}, 
      "inputs": [[725, 0, 0], [45, 0, 0], [46, 0, 0]]
    }, 
    {
      "op": "FullyConnected", 
      "name": "lstm_l1_t25_h2h", 
      "attr": {"num_hidden": "1024"}, 
      "inputs": [[711, 0, 0], [49, 0, 0], [50, 0, 0]]
    }, 
    {
      "op": "elemwise_add", 
      "name": "_plus475", 
      "inputs": [[726, 0, 0], [727, 0, 0]]
    }, 
    {
      "op": "SliceChannel", 
      "name": "lstm_l1_t25_slice", 
      "attr": {"num_outputs": "4"}, 
      "inputs": [[728, 0, 0]]
    }, 
    {
      "op": "Activation", 
      "name": "lstm_l1_t25_o", 
      "attr": {"act_type": "sigmoid"}, 
      "inputs": [[729, 3, 0]]
    }, 
    {
      "op": "Activation", 
      "name": "lstm_l1_t25_f", 
      "attr": {"act_type": "sigmoid"}, 
      "inputs": [[729, 1, 0]]
    }, 
    {
      "op": "_mul", 
      "name": "_mul950", 
      "inputs": [[731, 0, 0], [709, 0, 0]]
    }, 
    {
      "op": "Activation", 
      "name": "lstm_l1_t25_i", 
      "attr": {"act_type": "sigmoid"}, 
      "inputs": [[729, 0, 0]]
    }, 
    {
      "op": "Activation", 
      "name": "lstm_l1_t25_c", 
      "attr": {"act_type": "tanh"}, 
      "inputs": [[729, 2, 0]]
    }, 
    {
      "op": "_mul", 
      "name": "_mul951", 
      "inputs": [[733, 0, 0], [734, 0, 0]]
    }, 
    {
      "op": "elemwise_add", 
      "name": "lstm_l1_t25_state", 
      "inputs": [[732, 0, 0], [735, 0, 0]]
    }, 
    {
      "op": "Activation", 
      "name": "activation475", 
      "attr": {"act_type": "tanh"}, 
      "inputs": [[736, 0, 0]]
    }, 
    {
      "op": "_mul", 
      "name": "lstm_l1_t25_out", 
      "inputs": [[730, 0, 0], [737, 0, 0]]
    }, 
    {
      "op": "expand_dims", 
      "name": "expand_dims225", 
      "attr": {"axis": "1"}, 
      "inputs": [[738, 0, 0]]
    }, 
    {
      "op": "FullyConnected", 
      "name": "lstm_l0_t26_i2h", 
      "attr": {"num_hidden": "1024"}, 
      "inputs": [[25, 26, 0], [26, 0, 0], [27, 0, 0]]
    }, 
    {
      "op": "FullyConnected", 
      "name": "lstm_l0_t26_h2h", 
      "attr": {"num_hidden": "1024"}, 
      "inputs": [[725, 0, 0], [30, 0, 0], [31, 0, 0]]
    }, 
    {
      "op": "elemwise_add", 
      "name": "_plus426", 
      "inputs": [[740, 0, 0], [741, 0, 0]]
    }, 
    {
      "op": "SliceChannel", 
      "name": "lstm_l0_t26_slice", 
      "attr": {"num_outputs": "4"}, 
      "inputs": [[742, 0, 0]]
    }, 
    {
      "op": "Activation", 
      "name": "lstm_l0_t26_o", 
      "attr": {"act_type": "sigmoid"}, 
      "inputs": [[743, 3, 0]]
    }, 
    {
      "op": "Activation", 
      "name": "lstm_l0_t26_f", 
      "attr": {"act_type": "sigmoid"}, 
      "inputs": [[743, 1, 0]]
    }, 
    {
      "op": "_mul", 
      "name": "_mul852", 
      "inputs": [[745, 0, 0], [723, 0, 0]]
    }, 
    {
      "op": "Activation", 
      "name": "lstm_l0_t26_i", 
      "attr": {"act_type": "sigmoid"}, 
      "inputs": [[743, 0, 0]]
    }, 
    {
      "op": "Activation", 
      "name": "lstm_l0_t26_c", 
      "attr": {"act_type": "tanh"}, 
      "inputs": [[743, 2, 0]]
    }, 
    {
      "op": "_mul", 
      "name": "_mul853", 
      "inputs": [[747, 0, 0], [748, 0, 0]]
    }, 
    {
      "op": "elemwise_add", 
      "name": "lstm_l0_t26_state", 
      "inputs": [[746, 0, 0], [749, 0, 0]]
    }, 
    {
      "op": "Activation", 
      "name": "activation426", 
      "attr": {"act_type": "tanh"}, 
      "inputs": [[750, 0, 0]]
    }, 
    {
      "op": "_mul", 
      "name": "lstm_l0_t26_out", 
      "inputs": [[744, 0, 0], [751, 0, 0]]
    }, 
    {
      "op": "FullyConnected", 
      "name": "lstm_l1_t26_i2h", 
      "attr": {"num_hidden": "1024"}, 
      "inputs": [[752, 0, 0], [45, 0, 0], [46, 0, 0]]
    }, 
    {
      "op": "FullyConnected", 
      "name": "lstm_l1_t26_h2h", 
      "attr": {"num_hidden": "1024"}, 
      "inputs": [[738, 0, 0], [49, 0, 0], [50, 0, 0]]
    }, 
    {
      "op": "elemwise_add", 
      "name": "_plus476", 
      "inputs": [[753, 0, 0], [754, 0, 0]]
    }, 
    {
      "op": "SliceChannel", 
      "name": "lstm_l1_t26_slice", 
      "attr": {"num_outputs": "4"}, 
      "inputs": [[755, 0, 0]]
    }, 
    {
      "op": "Activation", 
      "name": "lstm_l1_t26_o", 
      "attr": {"act_type": "sigmoid"}, 
      "inputs": [[756, 3, 0]]
    }, 
    {
      "op": "Activation", 
      "name": "lstm_l1_t26_f", 
      "attr": {"act_type": "sigmoid"}, 
      "inputs": [[756, 1, 0]]
    }, 
    {
      "op": "_mul", 
      "name": "_mul952", 
      "inputs": [[758, 0, 0], [736, 0, 0]]
    }, 
    {
      "op": "Activation", 
      "name": "lstm_l1_t26_i", 
      "attr": {"act_type": "sigmoid"}, 
      "inputs": [[756, 0, 0]]
    }, 
    {
      "op": "Activation", 
      "name": "lstm_l1_t26_c", 
      "attr": {"act_type": "tanh"}, 
      "inputs": [[756, 2, 0]]
    }, 
    {
      "op": "_mul", 
      "name": "_mul953", 
      "inputs": [[760, 0, 0], [761, 0, 0]]
    }, 
    {
      "op": "elemwise_add", 
      "name": "lstm_l1_t26_state", 
      "inputs": [[759, 0, 0], [762, 0, 0]]
    }, 
    {
      "op": "Activation", 
      "name": "activation476", 
      "attr": {"act_type": "tanh"}, 
      "inputs": [[763, 0, 0]]
    }, 
    {
      "op": "_mul", 
      "name": "lstm_l1_t26_out", 
      "inputs": [[757, 0, 0], [764, 0, 0]]
    }, 
    {
      "op": "expand_dims", 
      "name": "expand_dims226", 
      "attr": {"axis": "1"}, 
      "inputs": [[765, 0, 0]]
    }, 
    {
      "op": "FullyConnected", 
      "name": "lstm_l0_t27_i2h", 
      "attr": {"num_hidden": "1024"}, 
      "inputs": [[25, 27, 0], [26, 0, 0], [27, 0, 0]]
    }, 
    {
      "op": "FullyConnected", 
      "name": "lstm_l0_t27_h2h", 
      "attr": {"num_hidden": "1024"}, 
      "inputs": [[752, 0, 0], [30, 0, 0], [31, 0, 0]]
    }, 
    {
      "op": "elemwise_add", 
      "name": "_plus427", 
      "inputs": [[767, 0, 0], [768, 0, 0]]
    }, 
    {
      "op": "SliceChannel", 
      "name": "lstm_l0_t27_slice", 
      "attr": {"num_outputs": "4"}, 
      "inputs": [[769, 0, 0]]
    }, 
    {
      "op": "Activation", 
      "name": "lstm_l0_t27_o", 
      "attr": {"act_type": "sigmoid"}, 
      "inputs": [[770, 3, 0]]
    }, 
    {
      "op": "Activation", 
      "name": "lstm_l0_t27_f", 
      "attr": {"act_type": "sigmoid"}, 
      "inputs": [[770, 1, 0]]
    }, 
    {
      "op": "_mul", 
      "name": "_mul854", 
      "inputs": [[772, 0, 0], [750, 0, 0]]
    }, 
    {
      "op": "Activation", 
      "name": "lstm_l0_t27_i", 
      "attr": {"act_type": "sigmoid"}, 
      "inputs": [[770, 0, 0]]
    }, 
    {
      "op": "Activation", 
      "name": "lstm_l0_t27_c", 
      "attr": {"act_type": "tanh"}, 
      "inputs": [[770, 2, 0]]
    }, 
    {
      "op": "_mul", 
      "name": "_mul855", 
      "inputs": [[774, 0, 0], [775, 0, 0]]
    }, 
    {
      "op": "elemwise_add", 
      "name": "lstm_l0_t27_state", 
      "inputs": [[773, 0, 0], [776, 0, 0]]
    }, 
    {
      "op": "Activation", 
      "name": "activation427", 
      "attr": {"act_type": "tanh"}, 
      "inputs": [[777, 0, 0]]
    }, 
    {
      "op": "_mul", 
      "name": "lstm_l0_t27_out", 
      "inputs": [[771, 0, 0], [778, 0, 0]]
    }, 
    {
      "op": "FullyConnected", 
      "name": "lstm_l1_t27_i2h", 
      "attr": {"num_hidden": "1024"}, 
      "inputs": [[779, 0, 0], [45, 0, 0], [46, 0, 0]]
    }, 
    {
      "op": "FullyConnected", 
      "name": "lstm_l1_t27_h2h", 
      "attr": {"num_hidden": "1024"}, 
      "inputs": [[765, 0, 0], [49, 0, 0], [50, 0, 0]]
    }, 
    {
      "op": "elemwise_add", 
      "name": "_plus477", 
      "inputs": [[780, 0, 0], [781, 0, 0]]
    }, 
    {
      "op": "SliceChannel", 
      "name": "lstm_l1_t27_slice", 
      "attr": {"num_outputs": "4"}, 
      "inputs": [[782, 0, 0]]
    }, 
    {
      "op": "Activation", 
      "name": "lstm_l1_t27_o", 
      "attr": {"act_type": "sigmoid"}, 
      "inputs": [[783, 3, 0]]
    }, 
    {
      "op": "Activation", 
      "name": "lstm_l1_t27_f", 
      "attr": {"act_type": "sigmoid"}, 
      "inputs": [[783, 1, 0]]
    }, 
    {
      "op": "_mul", 
      "name": "_mul954", 
      "inputs": [[785, 0, 0], [763, 0, 0]]
    }, 
    {
      "op": "Activation", 
      "name": "lstm_l1_t27_i", 
      "attr": {"act_type": "sigmoid"}, 
      "inputs": [[783, 0, 0]]
    }, 
    {
      "op": "Activation", 
      "name": "lstm_l1_t27_c", 
      "attr": {"act_type": "tanh"}, 
      "inputs": [[783, 2, 0]]
    }, 
    {
      "op": "_mul", 
      "name": "_mul955", 
      "inputs": [[787, 0, 0], [788, 0, 0]]
    }, 
    {
      "op": "elemwise_add", 
      "name": "lstm_l1_t27_state", 
      "inputs": [[786, 0, 0], [789, 0, 0]]
    }, 
    {
      "op": "Activation", 
      "name": "activation477", 
      "attr": {"act_type": "tanh"}, 
      "inputs": [[790, 0, 0]]
    }, 
    {
      "op": "_mul", 
      "name": "lstm_l1_t27_out", 
      "inputs": [[784, 0, 0], [791, 0, 0]]
    }, 
    {
      "op": "expand_dims", 
      "name": "expand_dims227", 
      "attr": {"axis": "1"}, 
      "inputs": [[792, 0, 0]]
    }, 
    {
      "op": "FullyConnected", 
      "name": "lstm_l0_t28_i2h", 
      "attr": {"num_hidden": "1024"}, 
      "inputs": [[25, 28, 0], [26, 0, 0], [27, 0, 0]]
    }, 
    {
      "op": "FullyConnected", 
      "name": "lstm_l0_t28_h2h", 
      "attr": {"num_hidden": "1024"}, 
      "inputs": [[779, 0, 0], [30, 0, 0], [31, 0, 0]]
    }, 
    {
      "op": "elemwise_add", 
      "name": "_plus428", 
      "inputs": [[794, 0, 0], [795, 0, 0]]
    }, 
    {
      "op": "SliceChannel", 
      "name": "lstm_l0_t28_slice", 
      "attr": {"num_outputs": "4"}, 
      "inputs": [[796, 0, 0]]
    }, 
    {
      "op": "Activation", 
      "name": "lstm_l0_t28_o", 
      "attr": {"act_type": "sigmoid"}, 
      "inputs": [[797, 3, 0]]
    }, 
    {
      "op": "Activation", 
      "name": "lstm_l0_t28_f", 
      "attr": {"act_type": "sigmoid"}, 
      "inputs": [[797, 1, 0]]
    }, 
    {
      "op": "_mul", 
      "name": "_mul856", 
      "inputs": [[799, 0, 0], [777, 0, 0]]
    }, 
    {
      "op": "Activation", 
      "name": "lstm_l0_t28_i", 
      "attr": {"act_type": "sigmoid"}, 
      "inputs": [[797, 0, 0]]
    }, 
    {
      "op": "Activation", 
      "name": "lstm_l0_t28_c", 
      "attr": {"act_type": "tanh"}, 
      "inputs": [[797, 2, 0]]
    }, 
    {
      "op": "_mul", 
      "name": "_mul857", 
      "inputs": [[801, 0, 0], [802, 0, 0]]
    }, 
    {
      "op": "elemwise_add", 
      "name": "lstm_l0_t28_state", 
      "inputs": [[800, 0, 0], [803, 0, 0]]
    }, 
    {
      "op": "Activation", 
      "name": "activation428", 
      "attr": {"act_type": "tanh"}, 
      "inputs": [[804, 0, 0]]
    }, 
    {
      "op": "_mul", 
      "name": "lstm_l0_t28_out", 
      "inputs": [[798, 0, 0], [805, 0, 0]]
    }, 
    {
      "op": "FullyConnected", 
      "name": "lstm_l1_t28_i2h", 
      "attr": {"num_hidden": "1024"}, 
      "inputs": [[806, 0, 0], [45, 0, 0], [46, 0, 0]]
    }, 
    {
      "op": "FullyConnected", 
      "name": "lstm_l1_t28_h2h", 
      "attr": {"num_hidden": "1024"}, 
      "inputs": [[792, 0, 0], [49, 0, 0], [50, 0, 0]]
    }, 
    {
      "op": "elemwise_add", 
      "name": "_plus478", 
      "inputs": [[807, 0, 0], [808, 0, 0]]
    }, 
    {
      "op": "SliceChannel", 
      "name": "lstm_l1_t28_slice", 
      "attr": {"num_outputs": "4"}, 
      "inputs": [[809, 0, 0]]
    }, 
    {
      "op": "Activation", 
      "name": "lstm_l1_t28_o", 
      "attr": {"act_type": "sigmoid"}, 
      "inputs": [[810, 3, 0]]
    }, 
    {
      "op": "Activation", 
      "name": "lstm_l1_t28_f", 
      "attr": {"act_type": "sigmoid"}, 
      "inputs": [[810, 1, 0]]
    }, 
    {
      "op": "_mul", 
      "name": "_mul956", 
      "inputs": [[812, 0, 0], [790, 0, 0]]
    }, 
    {
      "op": "Activation", 
      "name": "lstm_l1_t28_i", 
      "attr": {"act_type": "sigmoid"}, 
      "inputs": [[810, 0, 0]]
    }, 
    {
      "op": "Activation", 
      "name": "lstm_l1_t28_c", 
      "attr": {"act_type": "tanh"}, 
      "inputs": [[810, 2, 0]]
    }, 
    {
      "op": "_mul", 
      "name": "_mul957", 
      "inputs": [[814, 0, 0], [815, 0, 0]]
    }, 
    {
      "op": "elemwise_add", 
      "name": "lstm_l1_t28_state", 
      "inputs": [[813, 0, 0], [816, 0, 0]]
    }, 
    {
      "op": "Activation", 
      "name": "activation478", 
      "attr": {"act_type": "tanh"}, 
      "inputs": [[817, 0, 0]]
    }, 
    {
      "op": "_mul", 
      "name": "lstm_l1_t28_out", 
      "inputs": [[811, 0, 0], [818, 0, 0]]
    }, 
    {
      "op": "expand_dims", 
      "name": "expand_dims228", 
      "attr": {"axis": "1"}, 
      "inputs": [[819, 0, 0]]
    }, 
    {
      "op": "FullyConnected", 
      "name": "lstm_l0_t29_i2h", 
      "attr": {"num_hidden": "1024"}, 
      "inputs": [[25, 29, 0], [26, 0, 0], [27, 0, 0]]
    }, 
    {
      "op": "FullyConnected", 
      "name": "lstm_l0_t29_h2h", 
      "attr": {"num_hidden": "1024"}, 
      "inputs": [[806, 0, 0], [30, 0, 0], [31, 0, 0]]
    }, 
    {
      "op": "elemwise_add", 
      "name": "_plus429", 
      "inputs": [[821, 0, 0], [822, 0, 0]]
    }, 
    {
      "op": "SliceChannel", 
      "name": "lstm_l0_t29_slice", 
      "attr": {"num_outputs": "4"}, 
      "inputs": [[823, 0, 0]]
    }, 
    {
      "op": "Activation", 
      "name": "lstm_l0_t29_o", 
      "attr": {"act_type": "sigmoid"}, 
      "inputs": [[824, 3, 0]]
    }, 
    {
      "op": "Activation", 
      "name": "lstm_l0_t29_f", 
      "attr": {"act_type": "sigmoid"}, 
      "inputs": [[824, 1, 0]]
    }, 
    {
      "op": "_mul", 
      "name": "_mul858", 
      "inputs": [[826, 0, 0], [804, 0, 0]]
    }, 
    {
      "op": "Activation", 
      "name": "lstm_l0_t29_i", 
      "attr": {"act_type": "sigmoid"}, 
      "inputs": [[824, 0, 0]]
    }, 
    {
      "op": "Activation", 
      "name": "lstm_l0_t29_c", 
      "attr": {"act_type": "tanh"}, 
      "inputs": [[824, 2, 0]]
    }, 
    {
      "op": "_mul", 
      "name": "_mul859", 
      "inputs": [[828, 0, 0], [829, 0, 0]]
    }, 
    {
      "op": "elemwise_add", 
      "name": "lstm_l0_t29_state", 
      "inputs": [[827, 0, 0], [830, 0, 0]]
    }, 
    {
      "op": "Activation", 
      "name": "activation429", 
      "attr": {"act_type": "tanh"}, 
      "inputs": [[831, 0, 0]]
    }, 
    {
      "op": "_mul", 
      "name": "lstm_l0_t29_out", 
      "inputs": [[825, 0, 0], [832, 0, 0]]
    }, 
    {
      "op": "FullyConnected", 
      "name": "lstm_l1_t29_i2h", 
      "attr": {"num_hidden": "1024"}, 
      "inputs": [[833, 0, 0], [45, 0, 0], [46, 0, 0]]
    }, 
    {
      "op": "FullyConnected", 
      "name": "lstm_l1_t29_h2h", 
      "attr": {"num_hidden": "1024"}, 
      "inputs": [[819, 0, 0], [49, 0, 0], [50, 0, 0]]
    }, 
    {
      "op": "elemwise_add", 
      "name": "_plus479", 
      "inputs": [[834, 0, 0], [835, 0, 0]]
    }, 
    {
      "op": "SliceChannel", 
      "name": "lstm_l1_t29_slice", 
      "attr": {"num_outputs": "4"}, 
      "inputs": [[836, 0, 0]]
    }, 
    {
      "op": "Activation", 
      "name": "lstm_l1_t29_o", 
      "attr": {"act_type": "sigmoid"}, 
      "inputs": [[837, 3, 0]]
    }, 
    {
      "op": "Activation", 
      "name": "lstm_l1_t29_f", 
      "attr": {"act_type": "sigmoid"}, 
      "inputs": [[837, 1, 0]]
    }, 
    {
      "op": "_mul", 
      "name": "_mul958", 
      "inputs": [[839, 0, 0], [817, 0, 0]]
    }, 
    {
      "op": "Activation", 
      "name": "lstm_l1_t29_i", 
      "attr": {"act_type": "sigmoid"}, 
      "inputs": [[837, 0, 0]]
    }, 
    {
      "op": "Activation", 
      "name": "lstm_l1_t29_c", 
      "attr": {"act_type": "tanh"}, 
      "inputs": [[837, 2, 0]]
    }, 
    {
      "op": "_mul", 
      "name": "_mul959", 
      "inputs": [[841, 0, 0], [842, 0, 0]]
    }, 
    {
      "op": "elemwise_add", 
      "name": "lstm_l1_t29_state", 
      "inputs": [[840, 0, 0], [843, 0, 0]]
    }, 
    {
      "op": "Activation", 
      "name": "activation479", 
      "attr": {"act_type": "tanh"}, 
      "inputs": [[844, 0, 0]]
    }, 
    {
      "op": "_mul", 
      "name": "lstm_l1_t29_out", 
      "inputs": [[838, 0, 0], [845, 0, 0]]
    }, 
    {
      "op": "expand_dims", 
      "name": "expand_dims229", 
      "attr": {"axis": "1"}, 
      "inputs": [[846, 0, 0]]
    }, 
    {
      "op": "FullyConnected", 
      "name": "lstm_l0_t30_i2h", 
      "attr": {"num_hidden": "1024"}, 
      "inputs": [[25, 30, 0], [26, 0, 0], [27, 0, 0]]
    }, 
    {
      "op": "FullyConnected", 
      "name": "lstm_l0_t30_h2h", 
      "attr": {"num_hidden": "1024"}, 
      "inputs": [[833, 0, 0], [30, 0, 0], [31, 0, 0]]
    }, 
    {
      "op": "elemwise_add", 
      "name": "_plus430", 
      "inputs": [[848, 0, 0], [849, 0, 0]]
    }, 
    {
      "op": "SliceChannel", 
      "name": "lstm_l0_t30_slice", 
      "attr": {"num_outputs": "4"}, 
      "inputs": [[850, 0, 0]]
    }, 
    {
      "op": "Activation", 
      "name": "lstm_l0_t30_o", 
      "attr": {"act_type": "sigmoid"}, 
      "inputs": [[851, 3, 0]]
    }, 
    {
      "op": "Activation", 
      "name": "lstm_l0_t30_f", 
      "attr": {"act_type": "sigmoid"}, 
      "inputs": [[851, 1, 0]]
    }, 
    {
      "op": "_mul", 
      "name": "_mul860", 
      "inputs": [[853, 0, 0], [831, 0, 0]]
    }, 
    {
      "op": "Activation", 
      "name": "lstm_l0_t30_i", 
      "attr": {"act_type": "sigmoid"}, 
      "inputs": [[851, 0, 0]]
    }, 
    {
      "op": "Activation", 
      "name": "lstm_l0_t30_c", 
      "attr": {"act_type": "tanh"}, 
      "inputs": [[851, 2, 0]]
    }, 
    {
      "op": "_mul", 
      "name": "_mul861", 
      "inputs": [[855, 0, 0], [856, 0, 0]]
    }, 
    {
      "op": "elemwise_add", 
      "name": "lstm_l0_t30_state", 
      "inputs": [[854, 0, 0], [857, 0, 0]]
    }, 
    {
      "op": "Activation", 
      "name": "activation430", 
      "attr": {"act_type": "tanh"}, 
      "inputs": [[858, 0, 0]]
    }, 
    {
      "op": "_mul", 
      "name": "lstm_l0_t30_out", 
      "inputs": [[852, 0, 0], [859, 0, 0]]
    }, 
    {
      "op": "FullyConnected", 
      "name": "lstm_l1_t30_i2h", 
      "attr": {"num_hidden": "1024"}, 
      "inputs": [[860, 0, 0], [45, 0, 0], [46, 0, 0]]
    }, 
    {
      "op": "FullyConnected", 
      "name": "lstm_l1_t30_h2h", 
      "attr": {"num_hidden": "1024"}, 
      "inputs": [[846, 0, 0], [49, 0, 0], [50, 0, 0]]
    }, 
    {
      "op": "elemwise_add", 
      "name": "_plus480", 
      "inputs": [[861, 0, 0], [862, 0, 0]]
    }, 
    {
      "op": "SliceChannel", 
      "name": "lstm_l1_t30_slice", 
      "attr": {"num_outputs": "4"}, 
      "inputs": [[863, 0, 0]]
    }, 
    {
      "op": "Activation", 
      "name": "lstm_l1_t30_o", 
      "attr": {"act_type": "sigmoid"}, 
      "inputs": [[864, 3, 0]]
    }, 
    {
      "op": "Activation", 
      "name": "lstm_l1_t30_f", 
      "attr": {"act_type": "sigmoid"}, 
      "inputs": [[864, 1, 0]]
    }, 
    {
      "op": "_mul", 
      "name": "_mul960", 
      "inputs": [[866, 0, 0], [844, 0, 0]]
    }, 
    {
      "op": "Activation", 
      "name": "lstm_l1_t30_i", 
      "attr": {"act_type": "sigmoid"}, 
      "inputs": [[864, 0, 0]]
    }, 
    {
      "op": "Activation", 
      "name": "lstm_l1_t30_c", 
      "attr": {"act_type": "tanh"}, 
      "inputs": [[864, 2, 0]]
    }, 
    {
      "op": "_mul", 
      "name": "_mul961", 
      "inputs": [[868, 0, 0], [869, 0, 0]]
    }, 
    {
      "op": "elemwise_add", 
      "name": "lstm_l1_t30_state", 
      "inputs": [[867, 0, 0], [870, 0, 0]]
    }, 
    {
      "op": "Activation", 
      "name": "activation480", 
      "attr": {"act_type": "tanh"}, 
      "inputs": [[871, 0, 0]]
    }, 
    {
      "op": "_mul", 
      "name": "lstm_l1_t30_out", 
      "inputs": [[865, 0, 0], [872, 0, 0]]
    }, 
    {
      "op": "expand_dims", 
      "name": "expand_dims230", 
      "attr": {"axis": "1"}, 
      "inputs": [[873, 0, 0]]
    }, 
    {
      "op": "FullyConnected", 
      "name": "lstm_l0_t31_i2h", 
      "attr": {"num_hidden": "1024"}, 
      "inputs": [[25, 31, 0], [26, 0, 0], [27, 0, 0]]
    }, 
    {
      "op": "FullyConnected", 
      "name": "lstm_l0_t31_h2h", 
      "attr": {"num_hidden": "1024"}, 
      "inputs": [[860, 0, 0], [30, 0, 0], [31, 0, 0]]
    }, 
    {
      "op": "elemwise_add", 
      "name": "_plus431", 
      "inputs": [[875, 0, 0], [876, 0, 0]]
    }, 
    {
      "op": "SliceChannel", 
      "name": "lstm_l0_t31_slice", 
      "attr": {"num_outputs": "4"}, 
      "inputs": [[877, 0, 0]]
    }, 
    {
      "op": "Activation", 
      "name": "lstm_l0_t31_o", 
      "attr": {"act_type": "sigmoid"}, 
      "inputs": [[878, 3, 0]]
    }, 
    {
      "op": "Activation", 
      "name": "lstm_l0_t31_f", 
      "attr": {"act_type": "sigmoid"}, 
      "inputs": [[878, 1, 0]]
    }, 
    {
      "op": "_mul", 
      "name": "_mul862", 
      "inputs": [[880, 0, 0], [858, 0, 0]]
    }, 
    {
      "op": "Activation", 
      "name": "lstm_l0_t31_i", 
      "attr": {"act_type": "sigmoid"}, 
      "inputs": [[878, 0, 0]]
    }, 
    {
      "op": "Activation", 
      "name": "lstm_l0_t31_c", 
      "attr": {"act_type": "tanh"}, 
      "inputs": [[878, 2, 0]]
    }, 
    {
      "op": "_mul", 
      "name": "_mul863", 
      "inputs": [[882, 0, 0], [883, 0, 0]]
    }, 
    {
      "op": "elemwise_add", 
      "name": "lstm_l0_t31_state", 
      "inputs": [[881, 0, 0], [884, 0, 0]]
    }, 
    {
      "op": "Activation", 
      "name": "activation431", 
      "attr": {"act_type": "tanh"}, 
      "inputs": [[885, 0, 0]]
    }, 
    {
      "op": "_mul", 
      "name": "lstm_l0_t31_out", 
      "inputs": [[879, 0, 0], [886, 0, 0]]
    }, 
    {
      "op": "FullyConnected", 
      "name": "lstm_l1_t31_i2h", 
      "attr": {"num_hidden": "1024"}, 
      "inputs": [[887, 0, 0], [45, 0, 0], [46, 0, 0]]
    }, 
    {
      "op": "FullyConnected", 
      "name": "lstm_l1_t31_h2h", 
      "attr": {"num_hidden": "1024"}, 
      "inputs": [[873, 0, 0], [49, 0, 0], [50, 0, 0]]
    }, 
    {
      "op": "elemwise_add", 
      "name": "_plus481", 
      "inputs": [[888, 0, 0], [889, 0, 0]]
    }, 
    {
      "op": "SliceChannel", 
      "name": "lstm_l1_t31_slice", 
      "attr": {"num_outputs": "4"}, 
      "inputs": [[890, 0, 0]]
    }, 
    {
      "op": "Activation", 
      "name": "lstm_l1_t31_o", 
      "attr": {"act_type": "sigmoid"}, 
      "inputs": [[891, 3, 0]]
    }, 
    {
      "op": "Activation", 
      "name": "lstm_l1_t31_f", 
      "attr": {"act_type": "sigmoid"}, 
      "inputs": [[891, 1, 0]]
    }, 
    {
      "op": "_mul", 
      "name": "_mul962", 
      "inputs": [[893, 0, 0], [871, 0, 0]]
    }, 
    {
      "op": "Activation", 
      "name": "lstm_l1_t31_i", 
      "attr": {"act_type": "sigmoid"}, 
      "inputs": [[891, 0, 0]]
    }, 
    {
      "op": "Activation", 
      "name": "lstm_l1_t31_c", 
      "attr": {"act_type": "tanh"}, 
      "inputs": [[891, 2, 0]]
    }, 
    {
      "op": "_mul", 
      "name": "_mul963", 
      "inputs": [[895, 0, 0], [896, 0, 0]]
    }, 
    {
      "op": "elemwise_add", 
      "name": "lstm_l1_t31_state", 
      "inputs": [[894, 0, 0], [897, 0, 0]]
    }, 
    {
      "op": "Activation", 
      "name": "activation481", 
      "attr": {"act_type": "tanh"}, 
      "inputs": [[898, 0, 0]]
    }, 
    {
      "op": "_mul", 
      "name": "lstm_l1_t31_out", 
      "inputs": [[892, 0, 0], [899, 0, 0]]
    }, 
    {
      "op": "expand_dims", 
      "name": "expand_dims231", 
      "attr": {"axis": "1"}, 
      "inputs": [[900, 0, 0]]
    }, 
    {
      "op": "FullyConnected", 
      "name": "lstm_l0_t32_i2h", 
      "attr": {"num_hidden": "1024"}, 
      "inputs": [[25, 32, 0], [26, 0, 0], [27, 0, 0]]
    }, 
    {
      "op": "FullyConnected", 
      "name": "lstm_l0_t32_h2h", 
      "attr": {"num_hidden": "1024"}, 
      "inputs": [[887, 0, 0], [30, 0, 0], [31, 0, 0]]
    }, 
    {
      "op": "elemwise_add", 
      "name": "_plus432", 
      "inputs": [[902, 0, 0], [903, 0, 0]]
    }, 
    {
      "op": "SliceChannel", 
      "name": "lstm_l0_t32_slice", 
      "attr": {"num_outputs": "4"}, 
      "inputs": [[904, 0, 0]]
    }, 
    {
      "op": "Activation", 
      "name": "lstm_l0_t32_o", 
      "attr": {"act_type": "sigmoid"}, 
      "inputs": [[905, 3, 0]]
    }, 
    {
      "op": "Activation", 
      "name": "lstm_l0_t32_f", 
      "attr": {"act_type": "sigmoid"}, 
      "inputs": [[905, 1, 0]]
    }, 
    {
      "op": "_mul", 
      "name": "_mul864", 
      "inputs": [[907, 0, 0], [885, 0, 0]]
    }, 
    {
      "op": "Activation", 
      "name": "lstm_l0_t32_i", 
      "attr": {"act_type": "sigmoid"}, 
      "inputs": [[905, 0, 0]]
    }, 
    {
      "op": "Activation", 
      "name": "lstm_l0_t32_c", 
      "attr": {"act_type": "tanh"}, 
      "inputs": [[905, 2, 0]]
    }, 
    {
      "op": "_mul", 
      "name": "_mul865", 
      "inputs": [[909, 0, 0], [910, 0, 0]]
    }, 
    {
      "op": "elemwise_add", 
      "name": "lstm_l0_t32_state", 
      "inputs": [[908, 0, 0], [911, 0, 0]]
    }, 
    {
      "op": "Activation", 
      "name": "activation432", 
      "attr": {"act_type": "tanh"}, 
      "inputs": [[912, 0, 0]]
    }, 
    {
      "op": "_mul", 
      "name": "lstm_l0_t32_out", 
      "inputs": [[906, 0, 0], [913, 0, 0]]
    }, 
    {
      "op": "FullyConnected", 
      "name": "lstm_l1_t32_i2h", 
      "attr": {"num_hidden": "1024"}, 
      "inputs": [[914, 0, 0], [45, 0, 0], [46, 0, 0]]
    }, 
    {
      "op": "FullyConnected", 
      "name": "lstm_l1_t32_h2h", 
      "attr": {"num_hidden": "1024"}, 
      "inputs": [[900, 0, 0], [49, 0, 0], [50, 0, 0]]
    }, 
    {
      "op": "elemwise_add", 
      "name": "_plus482", 
      "inputs": [[915, 0, 0], [916, 0, 0]]
    }, 
    {
      "op": "SliceChannel", 
      "name": "lstm_l1_t32_slice", 
      "attr": {"num_outputs": "4"}, 
      "inputs": [[917, 0, 0]]
    }, 
    {
      "op": "Activation", 
      "name": "lstm_l1_t32_o", 
      "attr": {"act_type": "sigmoid"}, 
      "inputs": [[918, 3, 0]]
    }, 
    {
      "op": "Activation", 
      "name": "lstm_l1_t32_f", 
      "attr": {"act_type": "sigmoid"}, 
      "inputs": [[918, 1, 0]]
    }, 
    {
      "op": "_mul", 
      "name": "_mul964", 
      "inputs": [[920, 0, 0], [898, 0, 0]]
    }, 
    {
      "op": "Activation", 
      "name": "lstm_l1_t32_i", 
      "attr": {"act_type": "sigmoid"}, 
      "inputs": [[918, 0, 0]]
    }, 
    {
      "op": "Activation", 
      "name": "lstm_l1_t32_c", 
      "attr": {"act_type": "tanh"}, 
      "inputs": [[918, 2, 0]]
    }, 
    {
      "op": "_mul", 
      "name": "_mul965", 
      "inputs": [[922, 0, 0], [923, 0, 0]]
    }, 
    {
      "op": "elemwise_add", 
      "name": "lstm_l1_t32_state", 
      "inputs": [[921, 0, 0], [924, 0, 0]]
    }, 
    {
      "op": "Activation", 
      "name": "activation482", 
      "attr": {"act_type": "tanh"}, 
      "inputs": [[925, 0, 0]]
    }, 
    {
      "op": "_mul", 
      "name": "lstm_l1_t32_out", 
      "inputs": [[919, 0, 0], [926, 0, 0]]
    }, 
    {
      "op": "expand_dims", 
      "name": "expand_dims232", 
      "attr": {"axis": "1"}, 
      "inputs": [[927, 0, 0]]
    }, 
    {
      "op": "FullyConnected", 
      "name": "lstm_l0_t33_i2h", 
      "attr": {"num_hidden": "1024"}, 
      "inputs": [[25, 33, 0], [26, 0, 0], [27, 0, 0]]
    }, 
    {
      "op": "FullyConnected", 
      "name": "lstm_l0_t33_h2h", 
      "attr": {"num_hidden": "1024"}, 
      "inputs": [[914, 0, 0], [30, 0, 0], [31, 0, 0]]
    }, 
    {
      "op": "elemwise_add", 
      "name": "_plus433", 
      "inputs": [[929, 0, 0], [930, 0, 0]]
    }, 
    {
      "op": "SliceChannel", 
      "name": "lstm_l0_t33_slice", 
      "attr": {"num_outputs": "4"}, 
      "inputs": [[931, 0, 0]]
    }, 
    {
      "op": "Activation", 
      "name": "lstm_l0_t33_o", 
      "attr": {"act_type": "sigmoid"}, 
      "inputs": [[932, 3, 0]]
    }, 
    {
      "op": "Activation", 
      "name": "lstm_l0_t33_f", 
      "attr": {"act_type": "sigmoid"}, 
      "inputs": [[932, 1, 0]]
    }, 
    {
      "op": "_mul", 
      "name": "_mul866", 
      "inputs": [[934, 0, 0], [912, 0, 0]]
    }, 
    {
      "op": "Activation", 
      "name": "lstm_l0_t33_i", 
      "attr": {"act_type": "sigmoid"}, 
      "inputs": [[932, 0, 0]]
    }, 
    {
      "op": "Activation", 
      "name": "lstm_l0_t33_c", 
      "attr": {"act_type": "tanh"}, 
      "inputs": [[932, 2, 0]]
    }, 
    {
      "op": "_mul", 
      "name": "_mul867", 
      "inputs": [[936, 0, 0], [937, 0, 0]]
    }, 
    {
      "op": "elemwise_add", 
      "name": "lstm_l0_t33_state", 
      "inputs": [[935, 0, 0], [938, 0, 0]]
    }, 
    {
      "op": "Activation", 
      "name": "activation433", 
      "attr": {"act_type": "tanh"}, 
      "inputs": [[939, 0, 0]]
    }, 
    {
      "op": "_mul", 
      "name": "lstm_l0_t33_out", 
      "inputs": [[933, 0, 0], [940, 0, 0]]
    }, 
    {
      "op": "FullyConnected", 
      "name": "lstm_l1_t33_i2h", 
      "attr": {"num_hidden": "1024"}, 
      "inputs": [[941, 0, 0], [45, 0, 0], [46, 0, 0]]
    }, 
    {
      "op": "FullyConnected", 
      "name": "lstm_l1_t33_h2h", 
      "attr": {"num_hidden": "1024"}, 
      "inputs": [[927, 0, 0], [49, 0, 0], [50, 0, 0]]
    }, 
    {
      "op": "elemwise_add", 
      "name": "_plus483", 
      "inputs": [[942, 0, 0], [943, 0, 0]]
    }, 
    {
      "op": "SliceChannel", 
      "name": "lstm_l1_t33_slice", 
      "attr": {"num_outputs": "4"}, 
      "inputs": [[944, 0, 0]]
    }, 
    {
      "op": "Activation", 
      "name": "lstm_l1_t33_o", 
      "attr": {"act_type": "sigmoid"}, 
      "inputs": [[945, 3, 0]]
    }, 
    {
      "op": "Activation", 
      "name": "lstm_l1_t33_f", 
      "attr": {"act_type": "sigmoid"}, 
      "inputs": [[945, 1, 0]]
    }, 
    {
      "op": "_mul", 
      "name": "_mul966", 
      "inputs": [[947, 0, 0], [925, 0, 0]]
    }, 
    {
      "op": "Activation", 
      "name": "lstm_l1_t33_i", 
      "attr": {"act_type": "sigmoid"}, 
      "inputs": [[945, 0, 0]]
    }, 
    {
      "op": "Activation", 
      "name": "lstm_l1_t33_c", 
      "attr": {"act_type": "tanh"}, 
      "inputs": [[945, 2, 0]]
    }, 
    {
      "op": "_mul", 
      "name": "_mul967", 
      "inputs": [[949, 0, 0], [950, 0, 0]]
    }, 
    {
      "op": "elemwise_add", 
      "name": "lstm_l1_t33_state", 
      "inputs": [[948, 0, 0], [951, 0, 0]]
    }, 
    {
      "op": "Activation", 
      "name": "activation483", 
      "attr": {"act_type": "tanh"}, 
      "inputs": [[952, 0, 0]]
    }, 
    {
      "op": "_mul", 
      "name": "lstm_l1_t33_out", 
      "inputs": [[946, 0, 0], [953, 0, 0]]
    }, 
    {
      "op": "expand_dims", 
      "name": "expand_dims233", 
      "attr": {"axis": "1"}, 
      "inputs": [[954, 0, 0]]
    }, 
    {
      "op": "FullyConnected", 
      "name": "lstm_l0_t34_i2h", 
      "attr": {"num_hidden": "1024"}, 
      "inputs": [[25, 34, 0], [26, 0, 0], [27, 0, 0]]
    }, 
    {
      "op": "FullyConnected", 
      "name": "lstm_l0_t34_h2h", 
      "attr": {"num_hidden": "1024"}, 
      "inputs": [[941, 0, 0], [30, 0, 0], [31, 0, 0]]
    }, 
    {
      "op": "elemwise_add", 
      "name": "_plus434", 
      "inputs": [[956, 0, 0], [957, 0, 0]]
    }, 
    {
      "op": "SliceChannel", 
      "name": "lstm_l0_t34_slice", 
      "attr": {"num_outputs": "4"}, 
      "inputs": [[958, 0, 0]]
    }, 
    {
      "op": "Activation", 
      "name": "lstm_l0_t34_o", 
      "attr": {"act_type": "sigmoid"}, 
      "inputs": [[959, 3, 0]]
    }, 
    {
      "op": "Activation", 
      "name": "lstm_l0_t34_f", 
      "attr": {"act_type": "sigmoid"}, 
      "inputs": [[959, 1, 0]]
    }, 
    {
      "op": "_mul", 
      "name": "_mul868", 
      "inputs": [[961, 0, 0], [939, 0, 0]]
    }, 
    {
      "op": "Activation", 
      "name": "lstm_l0_t34_i", 
      "attr": {"act_type": "sigmoid"}, 
      "inputs": [[959, 0, 0]]
    }, 
    {
      "op": "Activation", 
      "name": "lstm_l0_t34_c", 
      "attr": {"act_type": "tanh"}, 
      "inputs": [[959, 2, 0]]
    }, 
    {
      "op": "_mul", 
      "name": "_mul869", 
      "inputs": [[963, 0, 0], [964, 0, 0]]
    }, 
    {
      "op": "elemwise_add", 
      "name": "lstm_l0_t34_state", 
      "inputs": [[962, 0, 0], [965, 0, 0]]
    }, 
    {
      "op": "Activation", 
      "name": "activation434", 
      "attr": {"act_type": "tanh"}, 
      "inputs": [[966, 0, 0]]
    }, 
    {
      "op": "_mul", 
      "name": "lstm_l0_t34_out", 
      "inputs": [[960, 0, 0], [967, 0, 0]]
    }, 
    {
      "op": "FullyConnected", 
      "name": "lstm_l1_t34_i2h", 
      "attr": {"num_hidden": "1024"}, 
      "inputs": [[968, 0, 0], [45, 0, 0], [46, 0, 0]]
    }, 
    {
      "op": "FullyConnected", 
      "name": "lstm_l1_t34_h2h", 
      "attr": {"num_hidden": "1024"}, 
      "inputs": [[954, 0, 0], [49, 0, 0], [50, 0, 0]]
    }, 
    {
      "op": "elemwise_add", 
      "name": "_plus484", 
      "inputs": [[969, 0, 0], [970, 0, 0]]
    }, 
    {
      "op": "SliceChannel", 
      "name": "lstm_l1_t34_slice", 
      "attr": {"num_outputs": "4"}, 
      "inputs": [[971, 0, 0]]
    }, 
    {
      "op": "Activation", 
      "name": "lstm_l1_t34_o", 
      "attr": {"act_type": "sigmoid"}, 
      "inputs": [[972, 3, 0]]
    }, 
    {
      "op": "Activation", 
      "name": "lstm_l1_t34_f", 
      "attr": {"act_type": "sigmoid"}, 
      "inputs": [[972, 1, 0]]
    }, 
    {
      "op": "_mul", 
      "name": "_mul968", 
      "inputs": [[974, 0, 0], [952, 0, 0]]
    }, 
    {
      "op": "Activation", 
      "name": "lstm_l1_t34_i", 
      "attr": {"act_type": "sigmoid"}, 
      "inputs": [[972, 0, 0]]
    }, 
    {
      "op": "Activation", 
      "name": "lstm_l1_t34_c", 
      "attr": {"act_type": "tanh"}, 
      "inputs": [[972, 2, 0]]
    }, 
    {
      "op": "_mul", 
      "name": "_mul969", 
      "inputs": [[976, 0, 0], [977, 0, 0]]
    }, 
    {
      "op": "elemwise_add", 
      "name": "lstm_l1_t34_state", 
      "inputs": [[975, 0, 0], [978, 0, 0]]
    }, 
    {
      "op": "Activation", 
      "name": "activation484", 
      "attr": {"act_type": "tanh"}, 
      "inputs": [[979, 0, 0]]
    }, 
    {
      "op": "_mul", 
      "name": "lstm_l1_t34_out", 
      "inputs": [[973, 0, 0], [980, 0, 0]]
    }, 
    {
      "op": "expand_dims", 
      "name": "expand_dims234", 
      "attr": {"axis": "1"}, 
      "inputs": [[981, 0, 0]]
    }, 
    {
      "op": "FullyConnected", 
      "name": "lstm_l0_t35_i2h", 
      "attr": {"num_hidden": "1024"}, 
      "inputs": [[25, 35, 0], [26, 0, 0], [27, 0, 0]]
    }, 
    {
      "op": "FullyConnected", 
      "name": "lstm_l0_t35_h2h", 
      "attr": {"num_hidden": "1024"}, 
      "inputs": [[968, 0, 0], [30, 0, 0], [31, 0, 0]]
    }, 
    {
      "op": "elemwise_add", 
      "name": "_plus435", 
      "inputs": [[983, 0, 0], [984, 0, 0]]
    }, 
    {
      "op": "SliceChannel", 
      "name": "lstm_l0_t35_slice", 
      "attr": {"num_outputs": "4"}, 
      "inputs": [[985, 0, 0]]
    }, 
    {
      "op": "Activation", 
      "name": "lstm_l0_t35_o", 
      "attr": {"act_type": "sigmoid"}, 
      "inputs": [[986, 3, 0]]
    }, 
    {
      "op": "Activation", 
      "name": "lstm_l0_t35_f", 
      "attr": {"act_type": "sigmoid"}, 
      "inputs": [[986, 1, 0]]
    }, 
    {
      "op": "_mul", 
      "name": "_mul870", 
      "inputs": [[988, 0, 0], [966, 0, 0]]
    }, 
    {
      "op": "Activation", 
      "name": "lstm_l0_t35_i", 
      "attr": {"act_type": "sigmoid"}, 
      "inputs": [[986, 0, 0]]
    }, 
    {
      "op": "Activation", 
      "name": "lstm_l0_t35_c", 
      "attr": {"act_type": "tanh"}, 
      "inputs": [[986, 2, 0]]
    }, 
    {
      "op": "_mul", 
      "name": "_mul871", 
      "inputs": [[990, 0, 0], [991, 0, 0]]
    }, 
    {
      "op": "elemwise_add", 
      "name": "lstm_l0_t35_state", 
      "inputs": [[989, 0, 0], [992, 0, 0]]
    }, 
    {
      "op": "Activation", 
      "name": "activation435", 
      "attr": {"act_type": "tanh"}, 
      "inputs": [[993, 0, 0]]
    }, 
    {
      "op": "_mul", 
      "name": "lstm_l0_t35_out", 
      "inputs": [[987, 0, 0], [994, 0, 0]]
    }, 
    {
      "op": "FullyConnected", 
      "name": "lstm_l1_t35_i2h", 
      "attr": {"num_hidden": "1024"}, 
      "inputs": [[995, 0, 0], [45, 0, 0], [46, 0, 0]]
    }, 
    {
      "op": "FullyConnected", 
      "name": "lstm_l1_t35_h2h", 
      "attr": {"num_hidden": "1024"}, 
      "inputs": [[981, 0, 0], [49, 0, 0], [50, 0, 0]]
    }, 
    {
      "op": "elemwise_add", 
      "name": "_plus485", 
      "inputs": [[996, 0, 0], [997, 0, 0]]
    }, 
    {
      "op": "SliceChannel", 
      "name": "lstm_l1_t35_slice", 
      "attr": {"num_outputs": "4"}, 
      "inputs": [[998, 0, 0]]
    }, 
    {
      "op": "Activation", 
      "name": "lstm_l1_t35_o", 
      "attr": {"act_type": "sigmoid"}, 
      "inputs": [[999, 3, 0]]
    }, 
    {
      "op": "Activation", 
      "name": "lstm_l1_t35_f", 
      "attr": {"act_type": "sigmoid"}, 
      "inputs": [[999, 1, 0]]
    }, 
    {
      "op": "_mul", 
      "name": "_mul970", 
      "inputs": [[1001, 0, 0], [979, 0, 0]]
    }, 
    {
      "op": "Activation", 
      "name": "lstm_l1_t35_i", 
      "attr": {"act_type": "sigmoid"}, 
      "inputs": [[999, 0, 0]]
    }, 
    {
      "op": "Activation", 
      "name": "lstm_l1_t35_c", 
      "attr": {"act_type": "tanh"}, 
      "inputs": [[999, 2, 0]]
    }, 
    {
      "op": "_mul", 
      "name": "_mul971", 
      "inputs": [[1003, 0, 0], [1004, 0, 0]]
    }, 
    {
      "op": "elemwise_add", 
      "name": "lstm_l1_t35_state", 
      "inputs": [[1002, 0, 0], [1005, 0, 0]]
    }, 
    {
      "op": "Activation", 
      "name": "activation485", 
      "attr": {"act_type": "tanh"}, 
      "inputs": [[1006, 0, 0]]
    }, 
    {
      "op": "_mul", 
      "name": "lstm_l1_t35_out", 
      "inputs": [[1000, 0, 0], [1007, 0, 0]]
    }, 
    {
      "op": "expand_dims", 
      "name": "expand_dims235", 
      "attr": {"axis": "1"}, 
      "inputs": [[1008, 0, 0]]
    }, 
    {
      "op": "FullyConnected", 
      "name": "lstm_l0_t36_i2h", 
      "attr": {"num_hidden": "1024"}, 
      "inputs": [[25, 36, 0], [26, 0, 0], [27, 0, 0]]
    }, 
    {
      "op": "FullyConnected", 
      "name": "lstm_l0_t36_h2h", 
      "attr": {"num_hidden": "1024"}, 
      "inputs": [[995, 0, 0], [30, 0, 0], [31, 0, 0]]
    }, 
    {
      "op": "elemwise_add", 
      "name": "_plus436", 
      "inputs": [[1010, 0, 0], [1011, 0, 0]]
    }, 
    {
      "op": "SliceChannel", 
      "name": "lstm_l0_t36_slice", 
      "attr": {"num_outputs": "4"}, 
      "inputs": [[1012, 0, 0]]
    }, 
    {
      "op": "Activation", 
      "name": "lstm_l0_t36_o", 
      "attr": {"act_type": "sigmoid"}, 
      "inputs": [[1013, 3, 0]]
    }, 
    {
      "op": "Activation", 
      "name": "lstm_l0_t36_f", 
      "attr": {"act_type": "sigmoid"}, 
      "inputs": [[1013, 1, 0]]
    }, 
    {
      "op": "_mul", 
      "name": "_mul872", 
      "inputs": [[1015, 0, 0], [993, 0, 0]]
    }, 
    {
      "op": "Activation", 
      "name": "lstm_l0_t36_i", 
      "attr": {"act_type": "sigmoid"}, 
      "inputs": [[1013, 0, 0]]
    }, 
    {
      "op": "Activation", 
      "name": "lstm_l0_t36_c", 
      "attr": {"act_type": "tanh"}, 
      "inputs": [[1013, 2, 0]]
    }, 
    {
      "op": "_mul", 
      "name": "_mul873", 
      "inputs": [[1017, 0, 0], [1018, 0, 0]]
    }, 
    {
      "op": "elemwise_add", 
      "name": "lstm_l0_t36_state", 
      "inputs": [[1016, 0, 0], [1019, 0, 0]]
    }, 
    {
      "op": "Activation", 
      "name": "activation436", 
      "attr": {"act_type": "tanh"}, 
      "inputs": [[1020, 0, 0]]
    }, 
    {
      "op": "_mul", 
      "name": "lstm_l0_t36_out", 
      "inputs": [[1014, 0, 0], [1021, 0, 0]]
    }, 
    {
      "op": "FullyConnected", 
      "name": "lstm_l1_t36_i2h", 
      "attr": {"num_hidden": "1024"}, 
      "inputs": [[1022, 0, 0], [45, 0, 0], [46, 0, 0]]
    }, 
    {
      "op": "FullyConnected", 
      "name": "lstm_l1_t36_h2h", 
      "attr": {"num_hidden": "1024"}, 
      "inputs": [[1008, 0, 0], [49, 0, 0], [50, 0, 0]]
    }, 
    {
      "op": "elemwise_add", 
      "name": "_plus486", 
      "inputs": [[1023, 0, 0], [1024, 0, 0]]
    }, 
    {
      "op": "SliceChannel", 
      "name": "lstm_l1_t36_slice", 
      "attr": {"num_outputs": "4"}, 
      "inputs": [[1025, 0, 0]]
    }, 
    {
      "op": "Activation", 
      "name": "lstm_l1_t36_o", 
      "attr": {"act_type": "sigmoid"}, 
      "inputs": [[1026, 3, 0]]
    }, 
    {
      "op": "Activation", 
      "name": "lstm_l1_t36_f", 
      "attr": {"act_type": "sigmoid"}, 
      "inputs": [[1026, 1, 0]]
    }, 
    {
      "op": "_mul", 
      "name": "_mul972", 
      "inputs": [[1028, 0, 0], [1006, 0, 0]]
    }, 
    {
      "op": "Activation", 
      "name": "lstm_l1_t36_i", 
      "attr": {"act_type": "sigmoid"}, 
      "inputs": [[1026, 0, 0]]
    }, 
    {
      "op": "Activation", 
      "name": "lstm_l1_t36_c", 
      "attr": {"act_type": "tanh"}, 
      "inputs": [[1026, 2, 0]]
    }, 
    {
      "op": "_mul", 
      "name": "_mul973", 
      "inputs": [[1030, 0, 0], [1031, 0, 0]]
    }, 
    {
      "op": "elemwise_add", 
      "name": "lstm_l1_t36_state", 
      "inputs": [[1029, 0, 0], [1032, 0, 0]]
    }, 
    {
      "op": "Activation", 
      "name": "activation486", 
      "attr": {"act_type": "tanh"}, 
      "inputs": [[1033, 0, 0]]
    }, 
    {
      "op": "_mul", 
      "name": "lstm_l1_t36_out", 
      "inputs": [[1027, 0, 0], [1034, 0, 0]]
    }, 
    {
      "op": "expand_dims", 
      "name": "expand_dims236", 
      "attr": {"axis": "1"}, 
      "inputs": [[1035, 0, 0]]
    }, 
    {
      "op": "FullyConnected", 
      "name": "lstm_l0_t37_i2h", 
      "attr": {"num_hidden": "1024"}, 
      "inputs": [[25, 37, 0], [26, 0, 0], [27, 0, 0]]
    }, 
    {
      "op": "FullyConnected", 
      "name": "lstm_l0_t37_h2h", 
      "attr": {"num_hidden": "1024"}, 
      "inputs": [[1022, 0, 0], [30, 0, 0], [31, 0, 0]]
    }, 
    {
      "op": "elemwise_add", 
      "name": "_plus437", 
      "inputs": [[1037, 0, 0], [1038, 0, 0]]
    }, 
    {
      "op": "SliceChannel", 
      "name": "lstm_l0_t37_slice", 
      "attr": {"num_outputs": "4"}, 
      "inputs": [[1039, 0, 0]]
    }, 
    {
      "op": "Activation", 
      "name": "lstm_l0_t37_o", 
      "attr": {"act_type": "sigmoid"}, 
      "inputs": [[1040, 3, 0]]
    }, 
    {
      "op": "Activation", 
      "name": "lstm_l0_t37_f", 
      "attr": {"act_type": "sigmoid"}, 
      "inputs": [[1040, 1, 0]]
    }, 
    {
      "op": "_mul", 
      "name": "_mul874", 
      "inputs": [[1042, 0, 0], [1020, 0, 0]]
    }, 
    {
      "op": "Activation", 
      "name": "lstm_l0_t37_i", 
      "attr": {"act_type": "sigmoid"}, 
      "inputs": [[1040, 0, 0]]
    }, 
    {
      "op": "Activation", 
      "name": "lstm_l0_t37_c", 
      "attr": {"act_type": "tanh"}, 
      "inputs": [[1040, 2, 0]]
    }, 
    {
      "op": "_mul", 
      "name": "_mul875", 
      "inputs": [[1044, 0, 0], [1045, 0, 0]]
    }, 
    {
      "op": "elemwise_add", 
      "name": "lstm_l0_t37_state", 
      "inputs": [[1043, 0, 0], [1046, 0, 0]]
    }, 
    {
      "op": "Activation", 
      "name": "activation437", 
      "attr": {"act_type": "tanh"}, 
      "inputs": [[1047, 0, 0]]
    }, 
    {
      "op": "_mul", 
      "name": "lstm_l0_t37_out", 
      "inputs": [[1041, 0, 0], [1048, 0, 0]]
    }, 
    {
      "op": "FullyConnected", 
      "name": "lstm_l1_t37_i2h", 
      "attr": {"num_hidden": "1024"}, 
      "inputs": [[1049, 0, 0], [45, 0, 0], [46, 0, 0]]
    }, 
    {
      "op": "FullyConnected", 
      "name": "lstm_l1_t37_h2h", 
      "attr": {"num_hidden": "1024"}, 
      "inputs": [[1035, 0, 0], [49, 0, 0], [50, 0, 0]]
    }, 
    {
      "op": "elemwise_add", 
      "name": "_plus487", 
      "inputs": [[1050, 0, 0], [1051, 0, 0]]
    }, 
    {
      "op": "SliceChannel", 
      "name": "lstm_l1_t37_slice", 
      "attr": {"num_outputs": "4"}, 
      "inputs": [[1052, 0, 0]]
    }, 
    {
      "op": "Activation", 
      "name": "lstm_l1_t37_o", 
      "attr": {"act_type": "sigmoid"}, 
      "inputs": [[1053, 3, 0]]
    }, 
    {
      "op": "Activation", 
      "name": "lstm_l1_t37_f", 
      "attr": {"act_type": "sigmoid"}, 
      "inputs": [[1053, 1, 0]]
    }, 
    {
      "op": "_mul", 
      "name": "_mul974", 
      "inputs": [[1055, 0, 0], [1033, 0, 0]]
    }, 
    {
      "op": "Activation", 
      "name": "lstm_l1_t37_i", 
      "attr": {"act_type": "sigmoid"}, 
      "inputs": [[1053, 0, 0]]
    }, 
    {
      "op": "Activation", 
      "name": "lstm_l1_t37_c", 
      "attr": {"act_type": "tanh"}, 
      "inputs": [[1053, 2, 0]]
    }, 
    {
      "op": "_mul", 
      "name": "_mul975", 
      "inputs": [[1057, 0, 0], [1058, 0, 0]]
    }, 
    {
      "op": "elemwise_add", 
      "name": "lstm_l1_t37_state", 
      "inputs": [[1056, 0, 0], [1059, 0, 0]]
    }, 
    {
      "op": "Activation", 
      "name": "activation487", 
      "attr": {"act_type": "tanh"}, 
      "inputs": [[1060, 0, 0]]
    }, 
    {
      "op": "_mul", 
      "name": "lstm_l1_t37_out", 
      "inputs": [[1054, 0, 0], [1061, 0, 0]]
    }, 
    {
      "op": "expand_dims", 
      "name": "expand_dims237", 
      "attr": {"axis": "1"}, 
      "inputs": [[1062, 0, 0]]
    }, 
    {
      "op": "FullyConnected", 
      "name": "lstm_l0_t38_i2h", 
      "attr": {"num_hidden": "1024"}, 
      "inputs": [[25, 38, 0], [26, 0, 0], [27, 0, 0]]
    }, 
    {
      "op": "FullyConnected", 
      "name": "lstm_l0_t38_h2h", 
      "attr": {"num_hidden": "1024"}, 
      "inputs": [[1049, 0, 0], [30, 0, 0], [31, 0, 0]]
    }, 
    {
      "op": "elemwise_add", 
      "name": "_plus438", 
      "inputs": [[1064, 0, 0], [1065, 0, 0]]
    }, 
    {
      "op": "SliceChannel", 
      "name": "lstm_l0_t38_slice", 
      "attr": {"num_outputs": "4"}, 
      "inputs": [[1066, 0, 0]]
    }, 
    {
      "op": "Activation", 
      "name": "lstm_l0_t38_o", 
      "attr": {"act_type": "sigmoid"}, 
      "inputs": [[1067, 3, 0]]
    }, 
    {
      "op": "Activation", 
      "name": "lstm_l0_t38_f", 
      "attr": {"act_type": "sigmoid"}, 
      "inputs": [[1067, 1, 0]]
    }, 
    {
      "op": "_mul", 
      "name": "_mul876", 
      "inputs": [[1069, 0, 0], [1047, 0, 0]]
    }, 
    {
      "op": "Activation", 
      "name": "lstm_l0_t38_i", 
      "attr": {"act_type": "sigmoid"}, 
      "inputs": [[1067, 0, 0]]
    }, 
    {
      "op": "Activation", 
      "name": "lstm_l0_t38_c", 
      "attr": {"act_type": "tanh"}, 
      "inputs": [[1067, 2, 0]]
    }, 
    {
      "op": "_mul", 
      "name": "_mul877", 
      "inputs": [[1071, 0, 0], [1072, 0, 0]]
    }, 
    {
      "op": "elemwise_add", 
      "name": "lstm_l0_t38_state", 
      "inputs": [[1070, 0, 0], [1073, 0, 0]]
    }, 
    {
      "op": "Activation", 
      "name": "activation438", 
      "attr": {"act_type": "tanh"}, 
      "inputs": [[1074, 0, 0]]
    }, 
    {
      "op": "_mul", 
      "name": "lstm_l0_t38_out", 
      "inputs": [[1068, 0, 0], [1075, 0, 0]]
    }, 
    {
      "op": "FullyConnected", 
      "name": "lstm_l1_t38_i2h", 
      "attr": {"num_hidden": "1024"}, 
      "inputs": [[1076, 0, 0], [45, 0, 0], [46, 0, 0]]
    }, 
    {
      "op": "FullyConnected", 
      "name": "lstm_l1_t38_h2h", 
      "attr": {"num_hidden": "1024"}, 
      "inputs": [[1062, 0, 0], [49, 0, 0], [50, 0, 0]]
    }, 
    {
      "op": "elemwise_add", 
      "name": "_plus488", 
      "inputs": [[1077, 0, 0], [1078, 0, 0]]
    }, 
    {
      "op": "SliceChannel", 
      "name": "lstm_l1_t38_slice", 
      "attr": {"num_outputs": "4"}, 
      "inputs": [[1079, 0, 0]]
    }, 
    {
      "op": "Activation", 
      "name": "lstm_l1_t38_o", 
      "attr": {"act_type": "sigmoid"}, 
      "inputs": [[1080, 3, 0]]
    }, 
    {
      "op": "Activation", 
      "name": "lstm_l1_t38_f", 
      "attr": {"act_type": "sigmoid"}, 
      "inputs": [[1080, 1, 0]]
    }, 
    {
      "op": "_mul", 
      "name": "_mul976", 
      "inputs": [[1082, 0, 0], [1060, 0, 0]]
    }, 
    {
      "op": "Activation", 
      "name": "lstm_l1_t38_i", 
      "attr": {"act_type": "sigmoid"}, 
      "inputs": [[1080, 0, 0]]
    }, 
    {
      "op": "Activation", 
      "name": "lstm_l1_t38_c", 
      "attr": {"act_type": "tanh"}, 
      "inputs": [[1080, 2, 0]]
    }, 
    {
      "op": "_mul", 
      "name": "_mul977", 
      "inputs": [[1084, 0, 0], [1085, 0, 0]]
    }, 
    {
      "op": "elemwise_add", 
      "name": "lstm_l1_t38_state", 
      "inputs": [[1083, 0, 0], [1086, 0, 0]]
    }, 
    {
      "op": "Activation", 
      "name": "activation488", 
      "attr": {"act_type": "tanh"}, 
      "inputs": [[1087, 0, 0]]
    }, 
    {
      "op": "_mul", 
      "name": "lstm_l1_t38_out", 
      "inputs": [[1081, 0, 0], [1088, 0, 0]]
    }, 
    {
      "op": "expand_dims", 
      "name": "expand_dims238", 
      "attr": {"axis": "1"}, 
      "inputs": [[1089, 0, 0]]
    }, 
    {
      "op": "FullyConnected", 
      "name": "lstm_l0_t39_i2h", 
      "attr": {"num_hidden": "1024"}, 
      "inputs": [[25, 39, 0], [26, 0, 0], [27, 0, 0]]
    }, 
    {
      "op": "FullyConnected", 
      "name": "lstm_l0_t39_h2h", 
      "attr": {"num_hidden": "1024"}, 
      "inputs": [[1076, 0, 0], [30, 0, 0], [31, 0, 0]]
    }, 
    {
      "op": "elemwise_add", 
      "name": "_plus439", 
      "inputs": [[1091, 0, 0], [1092, 0, 0]]
    }, 
    {
      "op": "SliceChannel", 
      "name": "lstm_l0_t39_slice", 
      "attr": {"num_outputs": "4"}, 
      "inputs": [[1093, 0, 0]]
    }, 
    {
      "op": "Activation", 
      "name": "lstm_l0_t39_o", 
      "attr": {"act_type": "sigmoid"}, 
      "inputs": [[1094, 3, 0]]
    }, 
    {
      "op": "Activation", 
      "name": "lstm_l0_t39_f", 
      "attr": {"act_type": "sigmoid"}, 
      "inputs": [[1094, 1, 0]]
    }, 
    {
      "op": "_mul", 
      "name": "_mul878", 
      "inputs": [[1096, 0, 0], [1074, 0, 0]]
    }, 
    {
      "op": "Activation", 
      "name": "lstm_l0_t39_i", 
      "attr": {"act_type": "sigmoid"}, 
      "inputs": [[1094, 0, 0]]
    }, 
    {
      "op": "Activation", 
      "name": "lstm_l0_t39_c", 
      "attr": {"act_type": "tanh"}, 
      "inputs": [[1094, 2, 0]]
    }, 
    {
      "op": "_mul", 
      "name": "_mul879", 
      "inputs": [[1098, 0, 0], [1099, 0, 0]]
    }, 
    {
      "op": "elemwise_add", 
      "name": "lstm_l0_t39_state", 
      "inputs": [[1097, 0, 0], [1100, 0, 0]]
    }, 
    {
      "op": "Activation", 
      "name": "activation439", 
      "attr": {"act_type": "tanh"}, 
      "inputs": [[1101, 0, 0]]
    }, 
    {
      "op": "_mul", 
      "name": "lstm_l0_t39_out", 
      "inputs": [[1095, 0, 0], [1102, 0, 0]]
    }, 
    {
      "op": "FullyConnected", 
      "name": "lstm_l1_t39_i2h", 
      "attr": {"num_hidden": "1024"}, 
      "inputs": [[1103, 0, 0], [45, 0, 0], [46, 0, 0]]
    }, 
    {
      "op": "FullyConnected", 
      "name": "lstm_l1_t39_h2h", 
      "attr": {"num_hidden": "1024"}, 
      "inputs": [[1089, 0, 0], [49, 0, 0], [50, 0, 0]]
    }, 
    {
      "op": "elemwise_add", 
      "name": "_plus489", 
      "inputs": [[1104, 0, 0], [1105, 0, 0]]
    }, 
    {
      "op": "SliceChannel", 
      "name": "lstm_l1_t39_slice", 
      "attr": {"num_outputs": "4"}, 
      "inputs": [[1106, 0, 0]]
    }, 
    {
      "op": "Activation", 
      "name": "lstm_l1_t39_o", 
      "attr": {"act_type": "sigmoid"}, 
      "inputs": [[1107, 3, 0]]
    }, 
    {
      "op": "Activation", 
      "name": "lstm_l1_t39_f", 
      "attr": {"act_type": "sigmoid"}, 
      "inputs": [[1107, 1, 0]]
    }, 
    {
      "op": "_mul", 
      "name": "_mul978", 
…
      "inputs": [[1175, 2, 0]]
    }, 
    {
      "op": "_mul", 
      "name": "_mul885", 
      "inputs": [[1179, 0, 0], [1180, 0, 0]]
    }, 
    {
      "op": "elemwise_add", 
      "name": "lstm_l0_t42_state", 
      "inputs": [[1178, 0, 0], [1181, 0, 0]]
    }, 
    {
      "op": "Activation", 
      "name": "activation442", 
      "attr": {"act_type": "tanh"}, 
      "inputs": [[1182, 0, 0]]
    }, 
    {
      "op": "_mul", 
      "name": "lstm_l0_t42_out", 
      "inputs": [[1176, 0, 0], [1183, 0, 0]]
    }, 
    {
      "op": "FullyConnected", 
      "name": "lstm_l1_t42_i2h", 
      "attr": {"num_hidden": "1024"}, 
      "inputs": [[1184, 0, 0], [45, 0, 0], [46, 0, 0]]
    }, 
    {
      "op": "FullyConnected", 
      "name": "lstm_l1_t42_h2h", 
      "attr": {"num_hidden": "1024"}, 
      "inputs": [[1170, 0, 0], [49, 0, 0], [50, 0, 0]]
    }, 
    {
      "op": "elemwise_add", 
      "name": "_plus492", 
      "inputs": [[1185, 0, 0], [1186, 0, 0]]
    }, 
    {
      "op": "SliceChannel", 
      "name": "lstm_l1_t42_slice", 
      "attr": {"num_outputs": "4"}, 
      "inputs": [[1187, 0, 0]]
    }, 
    {
      "op": "Activation", 
      "name": "lstm_l1_t42_o", 
      "attr": {"act_type": "sigmoid"}, 
      "inputs": [[1188, 3, 0]]
    }, 
    {
      "op": "Activation", 
      "name": "lstm_l1_t42_f", 
      "attr": {"act_type": "sigmoid"}, 
      "inputs": [[1188, 1, 0]]
    }, 
    {
      "op": "_mul", 
      "name": "_mul984", 
      "inputs": [[1190, 0, 0], [1168, 0, 0]]
    }, 
    {
      "op": "Activation", 
      "name": "lstm_l1_t42_i", 
      "attr": {"act_type": "sigmoid"}, 
      "inputs": [[1188, 0, 0]]
    }, 
    {
      "op": "Activation", 
      "name": "lstm_l1_t42_c", 
      "attr": {"act_type": "tanh"}, 
      "inputs": [[1188, 2, 0]]
    }, 
    {
      "op": "_mul", 
      "name": "_mul985", 
      "inputs": [[1192, 0, 0], [1193, 0, 0]]
    }, 
    {
      "op": "elemwise_add", 
      "name": "lstm_l1_t42_state", 
      "inputs": [[1191, 0, 0], [1194, 0, 0]]
    }, 
    {
      "op": "Activation", 
      "name": "activation492", 
      "attr": {"act_type": "tanh"}, 
      "inputs": [[1195, 0, 0]]
    }, 
    {
      "op": "_mul", 
      "name": "lstm_l1_t42_out", 
      "inputs": [[1189, 0, 0], [1196, 0, 0]]
    }, 
    {
      "op": "expand_dims", 
      "name": "expand_dims242", 
      "attr": {"axis": "1"}, 
      "inputs": [[1197, 0, 0]]
    }, 
    {
      "op": "FullyConnected", 
      "name": "lstm_l0_t43_i2h", 
      "attr": {"num_hidden": "1024"}, 
      "inputs": [[25, 43, 0], [26, 0, 0], [27, 0, 0]]
    }, 
    {
      "op": "FullyConnected", 
      "name": "lstm_l0_t43_h2h", 
      "attr": {"num_hidden": "1024"}, 
      "inputs": [[1184, 0, 0], [30, 0, 0], [31, 0, 0]]
    }, 
    {
      "op": "elemwise_add", 
      "name": "_plus443", 
      "inputs": [[1199, 0, 0], [1200, 0, 0]]
    }, 
    {
      "op": "SliceChannel", 
      "name": "lstm_l0_t43_slice", 
      "attr": {"num_outputs": "4"}, 
      "inputs": [[1201, 0, 0]]
    }, 
    {
      "op": "Activation", 
      "name": "lstm_l0_t43_o", 
      "attr": {"act_type": "sigmoid"}, 
      "inputs": [[1202, 3, 0]]
    }, 
    {
      "op": "Activation", 
      "name": "lstm_l0_t43_f", 
      "attr": {"act_type": "sigmoid"}, 
      "inputs": [[1202, 1, 0]]
    }, 
    {
      "op": "_mul", 
      "name": "_mul886", 
      "inputs": [[1204, 0, 0], [1182, 0, 0]]
    }, 
    {
      "op": "Activation", 
      "name": "lstm_l0_t43_i", 
      "attr": {"act_type": "sigmoid"}, 
      "inputs": [[1202, 0, 0]]
    }, 
    {
      "op": "Activation", 
      "name": "lstm_l0_t43_c", 
      "attr": {"act_type": "tanh"}, 
      "inputs": [[1202, 2, 0]]
    }, 
    {
      "op": "_mul", 
      "name": "_mul887", 
      "inputs": [[1206, 0, 0], [1207, 0, 0]]
    }, 
    {
      "op": "elemwise_add", 
      "name": "lstm_l0_t43_state", 
      "inputs": [[1205, 0, 0], [1208, 0, 0]]
    }, 
    {
      "op": "Activation", 
      "name": "activation443", 
      "attr": {"act_type": "tanh"}, 
      "inputs": [[1209, 0, 0]]
    }, 
    {
      "op": "_mul", 
      "name": "lstm_l0_t43_out", 
      "inputs": [[1203, 0, 0], [1210, 0, 0]]
    }, 
    {
      "op": "FullyConnected", 
      "name": "lstm_l1_t43_i2h", 
      "attr": {"num_hidden": "1024"}, 
      "inputs": [[1211, 0, 0], [45, 0, 0], [46, 0, 0]]
    }, 
    {
      "op": "FullyConnected", 
      "name": "lstm_l1_t43_h2h", 
      "attr": {"num_hidden": "1024"}, 
      "inputs": [[1197, 0, 0], [49, 0, 0], [50, 0, 0]]
    }, 
    {
      "op": "elemwise_add", 
      "name": "_plus493", 
      "inputs": [[1212, 0, 0], [1213, 0, 0]]
    }, 
    {
      "op": "SliceChannel", 
      "name": "lstm_l1_t43_slice", 
      "attr": {"num_outputs": "4"}, 
      "inputs": [[1214, 0, 0]]
    }, 
    {
      "op": "Activation", 
      "name": "lstm_l1_t43_o", 
      "attr": {"act_type": "sigmoid"}, 
      "inputs": [[1215, 3, 0]]
    }, 
    {
      "op": "Activation", 
      "name": "lstm_l1_t43_f", 
      "attr": {"act_type": "sigmoid"}, 
      "inputs": [[1215, 1, 0]]
    }, 
    {
      "op": "_mul", 
      "name": "_mul986", 
      "inputs": [[1217, 0, 0], [1195, 0, 0]]
    }, 
    {
      "op": "Activation", 
      "name": "lstm_l1_t43_i", 
      "attr": {"act_type": "sigmoid"}, 
      "inputs": [[1215, 0, 0]]
    }, 
    {
      "op": "Activation", 
      "name": "lstm_l1_t43_c", 
      "attr": {"act_type": "tanh"}, 
      "inputs": [[1215, 2, 0]]
    }, 
    {
      "op": "_mul", 
      "name": "_mul987", 
      "inputs": [[1219, 0, 0], [1220, 0, 0]]
    }, 
    {
      "op": "elemwise_add", 
      "name": "lstm_l1_t43_state", 
      "inputs": [[1218, 0, 0], [1221, 0, 0]]
    }, 
    {
      "op": "Activation", 
      "name": "activation493", 
      "attr": {"act_type": "tanh"}, 
      "inputs": [[1222, 0, 0]]
    }, 
    {
      "op": "_mul", 
      "name": "lstm_l1_t43_out", 
      "inputs": [[1216, 0, 0], [1223, 0, 0]]
    }, 
    {
      "op": "expand_dims", 
      "name": "expand_dims243", 
      "attr": {"axis": "1"}, 
      "inputs": [[1224, 0, 0]]
    }, 
    {
      "op": "FullyConnected", 
      "name": "lstm_l0_t44_i2h", 
      "attr": {"num_hidden": "1024"}, 
      "inputs": [[25, 44, 0], [26, 0, 0], [27, 0, 0]]
    }, 
    {
      "op": "FullyConnected", 
      "name": "lstm_l0_t44_h2h", 
      "attr": {"num_hidden": "1024"}, 
      "inputs": [[1211, 0, 0], [30, 0, 0], [31, 0, 0]]
    }, 
    {
      "op": "elemwise_add", 
      "name": "_plus444", 
      "inputs": [[1226, 0, 0], [1227, 0, 0]]
    }, 
    {
      "op": "SliceChannel", 
      "name": "lstm_l0_t44_slice", 
      "attr": {"num_outputs": "4"}, 
      "inputs": [[1228, 0, 0]]
    }, 
    {
      "op": "Activation", 
      "name": "lstm_l0_t44_o", 
      "attr": {"act_type": "sigmoid"}, 
      "inputs": [[1229, 3, 0]]
    }, 
    {
      "op": "Activation", 
      "name": "lstm_l0_t44_f", 
      "attr": {"act_type": "sigmoid"}, 
      "inputs": [[1229, 1, 0]]
    }, 
    {
      "op": "_mul", 
      "name": "_mul888", 
      "inputs": [[1231, 0, 0], [1209, 0, 0]]
    }, 
    {
      "op": "Activation", 
      "name": "lstm_l0_t44_i", 
      "attr": {"act_type": "sigmoid"}, 
      "inputs": [[1229, 0, 0]]
    }, 
    {
      "op": "Activation", 
      "name": "lstm_l0_t44_c", 
      "attr": {"act_type": "tanh"}, 
      "inputs": [[1229, 2, 0]]
    }, 
    {
      "op": "_mul", 
      "name": "_mul889", 
      "inputs": [[1233, 0, 0], [1234, 0, 0]]
    }, 
    {
      "op": "elemwise_add", 
      "name": "lstm_l0_t44_state", 
      "inputs": [[1232, 0, 0], [1235, 0, 0]]
    }, 
    {
      "op": "Activation", 
      "name": "activation444", 
      "attr": {"act_type": "tanh"}, 
      "inputs": [[1236, 0, 0]]
    }, 
    {
      "op": "_mul", 
      "name": "lstm_l0_t44_out", 
      "inputs": [[1230, 0, 0], [1237, 0, 0]]
    }, 
    {
      "op": "FullyConnected", 
      "name": "lstm_l1_t44_i2h", 
      "attr": {"num_hidden": "1024"}, 
      "inputs": [[1238, 0, 0], [45, 0, 0], [46, 0, 0]]
    }, 
    {
      "op": "FullyConnected", 
      "name": "lstm_l1_t44_h2h", 
      "attr": {"num_hidden": "1024"}, 
      "inputs": [[1224, 0, 0], [49, 0, 0], [50, 0, 0]]
    }, 
    {
      "op": "elemwise_add", 
      "name": "_plus494", 
      "inputs": [[1239, 0, 0], [1240, 0, 0]]
    }, 
    {
      "op": "SliceChannel", 
      "name": "lstm_l1_t44_slice", 
      "attr": {"num_outputs": "4"}, 
      "inputs": [[1241, 0, 0]]
    }, 
    {
      "op": "Activation", 
      "name": "lstm_l1_t44_o", 
      "attr": {"act_type": "sigmoid"}, 
      "inputs": [[1242, 3, 0]]
    }, 
    {
      "op": "Activation", 
      "name": "lstm_l1_t44_f", 
      "attr": {"act_type": "sigmoid"}, 
      "inputs": [[1242, 1, 0]]
    }, 
    {
      "op": "_mul", 
      "name": "_mul988", 
      "inputs": [[1244, 0, 0], [1222, 0, 0]]
    }, 
    {
      "op": "Activation", 
      "name": "lstm_l1_t44_i", 
      "attr": {"act_type": "sigmoid"}, 
      "inputs": [[1242, 0, 0]]
    }, 
    {
      "op": "Activation", 
      "name": "lstm_l1_t44_c", 
      "attr": {"act_type": "tanh"}, 
      "inputs": [[1242, 2, 0]]
    }, 
    {
      "op": "_mul", 
      "name": "_mul989", 
      "inputs": [[1246, 0, 0], [1247, 0, 0]]
    }, 
    {
      "op": "elemwise_add", 
      "name": "lstm_l1_t44_state", 
      "inputs": [[1245, 0, 0], [1248, 0, 0]]
    }, 
    {
      "op": "Activation", 
      "name": "activation494", 
      "attr": {"act_type": "tanh"}, 
      "inputs": [[1249, 0, 0]]
    }, 
    {
      "op": "_mul", 
      "name": "lstm_l1_t44_out", 
      "inputs": [[1243, 0, 0], [1250, 0, 0]]
    }, 
    {
      "op": "expand_dims", 
      "name": "expand_dims244", 
      "attr": {"axis": "1"}, 
      "inputs": [[1251, 0, 0]]
    }, 
    {
      "op": "FullyConnected", 
      "name": "lstm_l0_t45_i2h", 
      "attr": {"num_hidden": "1024"}, 
      "inputs": [[25, 45, 0], [26, 0, 0], [27, 0, 0]]
    }, 
    {
      "op": "FullyConnected", 
      "name": "lstm_l0_t45_h2h", 
      "attr": {"num_hidden": "1024"}, 
      "inputs": [[1238, 0, 0], [30, 0, 0], [31, 0, 0]]
    }, 
    {
      "op": "elemwise_add", 
      "name": "_plus445", 
      "inputs": [[1253, 0, 0], [1254, 0, 0]]
    }, 
    {
      "op": "SliceChannel", 
      "name": "lstm_l0_t45_slice", 
      "attr": {"num_outputs": "4"}, 
      "inputs": [[1255, 0, 0]]
    }, 
    {
      "op": "Activation", 
      "name": "lstm_l0_t45_o", 
      "attr": {"act_type": "sigmoid"}, 
      "inputs": [[1256, 3, 0]]
    }, 
    {
      "op": "Activation", 
      "name": "lstm_l0_t45_f", 
      "attr": {"act_type": "sigmoid"}, 
      "inputs": [[1256, 1, 0]]
    }, 
    {
      "op": "_mul", 
      "name": "_mul890", 
      "inputs": [[1258, 0, 0], [1236, 0, 0]]
    }, 
    {
      "op": "Activation", 
      "name": "lstm_l0_t45_i", 
      "attr": {"act_type": "sigmoid"}, 
      "inputs": [[1256, 0, 0]]
    }, 
    {
      "op": "Activation", 
      "name": "lstm_l0_t45_c", 
      "attr": {"act_type": "tanh"}, 
      "inputs": [[1256, 2, 0]]
    }, 
    {
      "op": "_mul", 
      "name": "_mul891", 
      "inputs": [[1260, 0, 0], [1261, 0, 0]]
    }, 
    {
      "op": "elemwise_add", 
      "name": "lstm_l0_t45_state", 
      "inputs": [[1259, 0, 0], [1262, 0, 0]]
    }, 
    {
      "op": "Activation", 
      "name": "activation445", 
      "attr": {"act_type": "tanh"}, 
      "inputs": [[1263, 0, 0]]
    }, 
    {
      "op": "_mul", 
      "name": "lstm_l0_t45_out", 
      "inputs": [[1257, 0, 0], [1264, 0, 0]]
    }, 
    {
      "op": "FullyConnected", 
      "name": "lstm_l1_t45_i2h", 
      "attr": {"num_hidden": "1024"}, 
      "inputs": [[1265, 0, 0], [45, 0, 0], [46, 0, 0]]
    }, 
    {
      "op": "FullyConnected", 
      "name": "lstm_l1_t45_h2h", 
      "attr": {"num_hidden": "1024"}, 
      "inputs": [[1251, 0, 0], [49, 0, 0], [50, 0, 0]]
    }, 
    {
      "op": "elemwise_add", 
      "name": "_plus495", 
      "inputs": [[1266, 0, 0], [1267, 0, 0]]
    }, 
    {
      "op": "SliceChannel", 
      "name": "lstm_l1_t45_slice", 
      "attr": {"num_outputs": "4"}, 
      "inputs": [[1268, 0, 0]]
    }, 
    {
      "op": "Activation", 
      "name": "lstm_l1_t45_o", 
      "attr": {"act_type": "sigmoid"}, 
      "inputs": [[1269, 3, 0]]
    }, 
    {
      "op": "Activation", 
      "name": "lstm_l1_t45_f", 
      "attr": {"act_type": "sigmoid"}, 
      "inputs": [[1269, 1, 0]]
    }, 
    {
      "op": "_mul", 
      "name": "_mul990", 
      "inputs": [[1271, 0, 0], [1249, 0, 0]]
    }, 
    {
      "op": "Activation", 
      "name": "lstm_l1_t45_i", 
      "attr": {"act_type": "sigmoid"}, 
      "inputs": [[1269, 0, 0]]
    }, 
    {
      "op": "Activation", 
      "name": "lstm_l1_t45_c", 
      "attr": {"act_type": "tanh"}, 
      "inputs": [[1269, 2, 0]]
    }, 
    {
      "op": "_mul", 
      "name": "_mul991", 
      "inputs": [[1273, 0, 0], [1274, 0, 0]]
    }, 
    {
      "op": "elemwise_add", 
      "name": "lstm_l1_t45_state", 
      "inputs": [[1272, 0, 0], [1275, 0, 0]]
    }, 
    {
      "op": "Activation", 
      "name": "activation495", 
      "attr": {"act_type": "tanh"}, 
      "inputs": [[1276, 0, 0]]
    }, 
    {
      "op": "_mul", 
      "name": "lstm_l1_t45_out", 
      "inputs": [[1270, 0, 0], [1277, 0, 0]]
    }, 
    {
      "op": "expand_dims", 
      "name": "expand_dims245", 
      "attr": {"axis": "1"}, 
      "inputs": [[1278, 0, 0]]
    }, 
    {
      "op": "FullyConnected", 
      "name": "lstm_l0_t46_i2h", 
      "attr": {"num_hidden": "1024"}, 
      "inputs": [[25, 46, 0], [26, 0, 0], [27, 0, 0]]
    }, 
    {
      "op": "FullyConnected", 
      "name": "lstm_l0_t46_h2h", 
      "attr": {"num_hidden": "1024"}, 
      "inputs": [[1265, 0, 0], [30, 0, 0], [31, 0, 0]]
    }, 
    {
      "op": "elemwise_add", 
      "name": "_plus446", 
      "inputs": [[1280, 0, 0], [1281, 0, 0]]
    }, 
    {
      "op": "SliceChannel", 
      "name": "lstm_l0_t46_slice", 
      "attr": {"num_outputs": "4"}, 
      "inputs": [[1282, 0, 0]]
    }, 
    {
      "op": "Activation", 
      "name": "lstm_l0_t46_o", 
      "attr": {"act_type": "sigmoid"}, 
      "inputs": [[1283, 3, 0]]
    }, 
    {
      "op": "Activation", 
      "name": "lstm_l0_t46_f", 
      "attr": {"act_type": "sigmoid"}, 
      "inputs": [[1283, 1, 0]]
    }, 
    {
      "op": "_mul", 
      "name": "_mul892", 
      "inputs": [[1285, 0, 0], [1263, 0, 0]]
    }, 
    {
      "op": "Activation", 
      "name": "lstm_l0_t46_i", 
      "attr": {"act_type": "sigmoid"}, 
      "inputs": [[1283, 0, 0]]
    }, 
    {
      "op": "Activation", 
      "name": "lstm_l0_t46_c", 
      "attr": {"act_type": "tanh"}, 
      "inputs": [[1283, 2, 0]]
    }, 
    {
      "op": "_mul", 
      "name": "_mul893", 
      "inputs": [[1287, 0, 0], [1288, 0, 0]]
    }, 
    {
      "op": "elemwise_add", 
      "name": "lstm_l0_t46_state", 
      "inputs": [[1286, 0, 0], [1289, 0, 0]]
    }, 
    {
      "op": "Activation", 
      "name": "activation446", 
      "attr": {"act_type": "tanh"}, 
      "inputs": [[1290, 0, 0]]
    }, 
    {
      "op": "_mul", 
      "name": "lstm_l0_t46_out", 
      "inputs": [[1284, 0, 0], [1291, 0, 0]]
    }, 
    {
      "op": "FullyConnected", 
      "name": "lstm_l1_t46_i2h", 
      "attr": {"num_hidden": "1024"}, 
      "inputs": [[1292, 0, 0], [45, 0, 0], [46, 0, 0]]
    }, 
    {
      "op": "FullyConnected", 
      "name": "lstm_l1_t46_h2h", 
      "attr": {"num_hidden": "1024"}, 
      "inputs": [[1278, 0, 0], [49, 0, 0], [50, 0, 0]]
    }, 
    {
      "op": "elemwise_add", 
      "name": "_plus496", 
      "inputs": [[1293, 0, 0], [1294, 0, 0]]
    }, 
    {
      "op": "SliceChannel", 
      "name": "lstm_l1_t46_slice", 
      "attr": {"num_outputs": "4"}, 
      "inputs": [[1295, 0, 0]]
    }, 
    {
      "op": "Activation", 
      "name": "lstm_l1_t46_o", 
      "attr": {"act_type": "sigmoid"}, 
      "inputs": [[1296, 3, 0]]
    }, 
    {
      "op": "Activation", 
      "name": "lstm_l1_t46_f", 
      "attr": {"act_type": "sigmoid"}, 
      "inputs": [[1296, 1, 0]]
    }, 
    {
      "op": "_mul", 
      "name": "_mul992", 
      "inputs": [[1298, 0, 0], [1276, 0, 0]]
    }, 
    {
      "op": "Activation", 
      "name": "lstm_l1_t46_i", 
      "attr": {"act_type": "sigmoid"}, 
      "inputs": [[1296, 0, 0]]
    }, 
    {
      "op": "Activation", 
      "name": "lstm_l1_t46_c", 
      "attr": {"act_type": "tanh"}, 
      "inputs": [[1296, 2, 0]]
    }, 
    {
      "op": "_mul", 
      "name": "_mul993", 
      "inputs": [[1300, 0, 0], [1301, 0, 0]]
    }, 
    {
      "op": "elemwise_add", 
      "name": "lstm_l1_t46_state", 
      "inputs": [[1299, 0, 0], [1302, 0, 0]]
    }, 
    {
      "op": "Activation", 
      "name": "activation496", 
      "attr": {"act_type": "tanh"}, 
      "inputs": [[1303, 0, 0]]
    }, 
    {
      "op": "_mul", 
      "name": "lstm_l1_t46_out", 
      "inputs": [[1297, 0, 0], [1304, 0, 0]]
    }, 
    {
      "op": "expand_dims", 
      "name": "expand_dims246", 
      "attr": {"axis": "1"}, 
      "inputs": [[1305, 0, 0]]
    }, 
    {
      "op": "FullyConnected", 
      "name": "lstm_l0_t47_i2h", 
      "attr": {"num_hidden": "1024"}, 
      "inputs": [[25, 47, 0], [26, 0, 0], [27, 0, 0]]
    }, 
    {
      "op": "FullyConnected", 
      "name": "lstm_l0_t47_h2h", 
      "attr": {"num_hidden": "1024"}, 
      "inputs": [[1292, 0, 0], [30, 0, 0], [31, 0, 0]]
    }, 
    {
      "op": "elemwise_add", 
      "name": "_plus447", 
      "inputs": [[1307, 0, 0], [1308, 0, 0]]
    }, 
    {
      "op": "SliceChannel", 
      "name": "lstm_l0_t47_slice", 
      "attr": {"num_outputs": "4"}, 
      "inputs": [[1309, 0, 0]]
    }, 
    {
      "op": "Activation", 
      "name": "lstm_l0_t47_o", 
      "attr": {"act_type": "sigmoid"}, 
      "inputs": [[1310, 3, 0]]
    }, 
    {
      "op": "Activation", 
      "name": "lstm_l0_t47_f", 
      "attr": {"act_type": "sigmoid"}, 
      "inputs": [[1310, 1, 0]]
    }, 
    {
      "op": "_mul", 
      "name": "_mul894", 
      "inputs": [[1312, 0, 0], [1290, 0, 0]]
    }, 
    {
      "op": "Activation", 
      "name": "lstm_l0_t47_i", 
      "attr": {"act_type": "sigmoid"}, 
      "inputs": [[1310, 0, 0]]
    }, 
    {
      "op": "Activation", 
      "name": "lstm_l0_t47_c", 
      "attr": {"act_type": "tanh"}, 
      "inputs": [[1310, 2, 0]]
    }, 
    {
      "op": "_mul", 
      "name": "_mul895", 
      "inputs": [[1314, 0, 0], [1315, 0, 0]]
    }, 
    {
      "op": "elemwise_add", 
      "name": "lstm_l0_t47_state", 
      "inputs": [[1313, 0, 0], [1316, 0, 0]]
    }, 
    {
      "op": "Activation", 
      "name": "activation447", 
      "attr": {"act_type": "tanh"}, 
      "inputs": [[1317, 0, 0]]
    }, 
    {
      "op": "_mul", 
      "name": "lstm_l0_t47_out", 
      "inputs": [[1311, 0, 0], [1318, 0, 0]]
    }, 
    {
      "op": "FullyConnected", 
      "name": "lstm_l1_t47_i2h", 
      "attr": {"num_hidden": "1024"}, 
      "inputs": [[1319, 0, 0], [45, 0, 0], [46, 0, 0]]
    }, 
    {
      "op": "FullyConnected", 
      "name": "lstm_l1_t47_h2h", 
      "attr": {"num_hidden": "1024"}, 
      "inputs": [[1305, 0, 0], [49, 0, 0], [50, 0, 0]]
    }, 
    {
      "op": "elemwise_add", 
      "name": "_plus497", 
      "inputs": [[1320, 0, 0], [1321, 0, 0]]
    }, 
    {
      "op": "SliceChannel", 
      "name": "lstm_l1_t47_slice", 
      "attr": {"num_outputs": "4"}, 
      "inputs": [[1322, 0, 0]]
    }, 
    {
      "op": "Activation", 
      "name": "lstm_l1_t47_o", 
      "attr": {"act_type": "sigmoid"}, 
      "inputs": [[1323, 3, 0]]
    }, 
    {
      "op": "Activation", 
      "name": "lstm_l1_t47_f", 
      "attr": {"act_type": "sigmoid"}, 
      "inputs": [[1323, 1, 0]]
    }, 
    {
      "op": "_mul", 
      "name": "_mul994", 
      "inputs": [[1325, 0, 0], [1303, 0, 0]]
    }, 
    {
      "op": "Activation", 
      "name": "lstm_l1_t47_i", 
      "attr": {"act_type": "sigmoid"}, 
      "inputs": [[1323, 0, 0]]
    }, 
    {
      "op": "Activation", 
      "name": "lstm_l1_t47_c", 
      "attr": {"act_type": "tanh"}, 
      "inputs": [[1323, 2, 0]]
    }, 
    {
      "op": "_mul", 
      "name": "_mul995", 
      "inputs": [[1327, 0, 0], [1328, 0, 0]]
    }, 
    {
      "op": "elemwise_add", 
      "name": "lstm_l1_t47_state", 
      "inputs": [[1326, 0, 0], [1329, 0, 0]]
    }, 
    {
      "op": "Activation", 
      "name": "activation497", 
      "attr": {"act_type": "tanh"}, 
      "inputs": [[1330, 0, 0]]
    }, 
    {
      "op": "_mul", 
      "name": "lstm_l1_t47_out", 
      "inputs": [[1324, 0, 0], [1331, 0, 0]]
    }, 
    {
      "op": "expand_dims", 
      "name": "expand_dims247", 
      "attr": {"axis": "1"}, 
      "inputs": [[1332, 0, 0]]
    }, 
    {
      "op": "FullyConnected", 
      "name": "lstm_l0_t48_i2h", 
      "attr": {"num_hidden": "1024"}, 
      "inputs": [[25, 48, 0], [26, 0, 0], [27, 0, 0]]
    }, 
    {
      "op": "FullyConnected", 
      "name": "lstm_l0_t48_h2h", 
      "attr": {"num_hidden": "1024"}, 
      "inputs": [[1319, 0, 0], [30, 0, 0], [31, 0, 0]]
    }, 
    {
      "op": "elemwise_add", 
      "name": "_plus448", 
      "inputs": [[1334, 0, 0], [1335, 0, 0]]
    }, 
    {
      "op": "SliceChannel", 
      "name": "lstm_l0_t48_slice", 
      "attr": {"num_outputs": "4"}, 
      "inputs": [[1336, 0, 0]]
    }, 
    {
      "op": "Activation", 
      "name": "lstm_l0_t48_o", 
      "attr": {"act_type": "sigmoid"}, 
      "inputs": [[1337, 3, 0]]
    }, 
    {
      "op": "Activation", 
      "name": "lstm_l0_t48_f", 
      "attr": {"act_type": "sigmoid"}, 
      "inputs": [[1337, 1, 0]]
    }, 
    {
      "op": "_mul", 
      "name": "_mul896", 
      "inputs": [[1339, 0, 0], [1317, 0, 0]]
    }, 
    {
      "op": "Activation", 
      "name": "lstm_l0_t48_i", 
      "attr": {"act_type": "sigmoid"}, 
      "inputs": [[1337, 0, 0]]
    }, 
    {
      "op": "Activation", 
      "name": "lstm_l0_t48_c", 
      "attr": {"act_type": "tanh"}, 
      "inputs": [[1337, 2, 0]]
    }, 
    {
      "op": "_mul", 
      "name": "_mul897", 
      "inputs": [[1341, 0, 0], [1342, 0, 0]]
    }, 
    {
      "op": "elemwise_add", 
      "name": "lstm_l0_t48_state", 
      "inputs": [[1340, 0, 0], [1343, 0, 0]]
    }, 
    {
      "op": "Activation", 
      "name": "activation448", 
      "attr": {"act_type": "tanh"}, 
      "inputs": [[1344, 0, 0]]
    }, 
    {
      "op": "_mul", 
      "name": "lstm_l0_t48_out", 
      "inputs": [[1338, 0, 0], [1345, 0, 0]]
    }, 
    {
      "op": "FullyConnected", 
      "name": "lstm_l1_t48_i2h", 
      "attr": {"num_hidden": "1024"}, 
      "inputs": [[1346, 0, 0], [45, 0, 0], [46, 0, 0]]
    }, 
    {
      "op": "FullyConnected", 
      "name": "lstm_l1_t48_h2h", 
      "attr": {"num_hidden": "1024"}, 
      "inputs": [[1332, 0, 0], [49, 0, 0], [50, 0, 0]]
    }, 
    {
      "op": "elemwise_add", 
      "name": "_plus498", 
      "inputs": [[1347, 0, 0], [1348, 0, 0]]
    }, 
    {
      "op": "SliceChannel", 
      "name": "lstm_l1_t48_slice", 
      "attr": {"num_outputs": "4"}, 
      "inputs": [[1349, 0, 0]]
    }, 
    {
      "op": "Activation", 
      "name": "lstm_l1_t48_o", 
      "attr": {"act_type": "sigmoid"}, 
      "inputs": [[1350, 3, 0]]
    }, 
    {
      "op": "Activation", 
      "name": "lstm_l1_t48_f", 
      "attr": {"act_type": "sigmoid"}, 
      "inputs": [[1350, 1, 0]]
    }, 
    {
      "op": "_mul", 
      "name": "_mul996", 
      "inputs": [[1352, 0, 0], [1330, 0, 0]]
    }, 
    {
      "op": "Activation", 
      "name": "lstm_l1_t48_i", 
      "attr": {"act_type": "sigmoid"}, 
      "inputs": [[1350, 0, 0]]
    }, 
    {
      "op": "Activation", 
      "name": "lstm_l1_t48_c", 
      "attr": {"act_type": "tanh"}, 
      "inputs": [[1350, 2, 0]]
    }, 
    {
      "op": "_mul", 
      "name": "_mul997", 
      "inputs": [[1354, 0, 0], [1355, 0, 0]]
    }, 
    {
      "op": "elemwise_add", 
      "name": "lstm_l1_t48_state", 
      "inputs": [[1353, 0, 0], [1356, 0, 0]]
    }, 
    {
      "op": "Activation", 
      "name": "activation498", 
      "attr": {"act_type": "tanh"}, 
      "inputs": [[1357, 0, 0]]
    }, 
    {
      "op": "_mul", 
      "name": "lstm_l1_t48_out", 
      "inputs": [[1351, 0, 0], [1358, 0, 0]]
    }, 
    {
      "op": "expand_dims", 
      "name": "expand_dims248", 
      "attr": {"axis": "1"}, 
      "inputs": [[1359, 0, 0]]
    }, 
    {
      "op": "FullyConnected", 
      "name": "lstm_l0_t49_i2h", 
      "attr": {"num_hidden": "1024"}, 
      "inputs": [[25, 49, 0], [26, 0, 0], [27, 0, 0]]
    }, 
    {
      "op": "FullyConnected", 
      "name": "lstm_l0_t49_h2h", 
      "attr": {"num_hidden": "1024"}, 
      "inputs": [[1346, 0, 0], [30, 0, 0], [31, 0, 0]]
    }, 
    {
      "op": "elemwise_add", 
      "name": "_plus449", 
      "inputs": [[1361, 0, 0], [1362, 0, 0]]
    }, 
    {
      "op": "SliceChannel", 
      "name": "lstm_l0_t49_slice", 
      "attr": {"num_outputs": "4"}, 
      "inputs": [[1363, 0, 0]]
    }, 
    {
      "op": "Activation", 
      "name": "lstm_l0_t49_o", 
      "attr": {"act_type": "sigmoid"}, 
      "inputs": [[1364, 3, 0]]
    }, 
    {
      "op": "Activation", 
      "name": "lstm_l0_t49_f", 
      "attr": {"act_type": "sigmoid"}, 
      "inputs": [[1364, 1, 0]]
    }, 
    {
      "op": "_mul", 
      "name": "_mul898", 
      "inputs": [[1366, 0, 0], [1344, 0, 0]]
    }, 
    {
      "op": "Activation", 
      "name": "lstm_l0_t49_i", 
      "attr": {"act_type": "sigmoid"}, 
      "inputs": [[1364, 0, 0]]
    }, 
    {
      "op": "Activation", 
      "name": "lstm_l0_t49_c", 
      "attr": {"act_type": "tanh"}, 
      "inputs": [[1364, 2, 0]]
    }, 
    {
      "op": "_mul", 
      "name": "_mul899", 
      "inputs": [[1368, 0, 0], [1369, 0, 0]]
    }, 
    {
      "op": "elemwise_add", 
      "name": "lstm_l0_t49_state", 
      "inputs": [[1367, 0, 0], [1370, 0, 0]]
    }, 
    {
      "op": "Activation", 
      "name": "activation449", 
      "attr": {"act_type": "tanh"}, 
      "inputs": [[1371, 0, 0]]
    }, 
    {
      "op": "_mul", 
      "name": "lstm_l0_t49_out", 
      "inputs": [[1365, 0, 0], [1372, 0, 0]]
    }, 
    {
      "op": "FullyConnected", 
      "name": "lstm_l1_t49_i2h", 
      "attr": {"num_hidden": "1024"}, 
      "inputs": [[1373, 0, 0], [45, 0, 0], [46, 0, 0]]
    }, 
    {
      "op": "FullyConnected", 
      "name": "lstm_l1_t49_h2h", 
      "attr": {"num_hidden": "1024"}, 
      "inputs": [[1359, 0, 0], [49, 0, 0], [50, 0, 0]]
    }, 
    {
      "op": "elemwise_add", 
      "name": "_plus499", 
      "inputs": [[1374, 0, 0], [1375, 0, 0]]
    }, 
    {
      "op": "SliceChannel", 
      "name": "lstm_l1_t49_slice", 
      "attr": {"num_outputs": "4"}, 
      "inputs": [[1376, 0, 0]]
    }, 
    {
      "op": "Activation", 
      "name": "lstm_l1_t49_o", 
      "attr": {"act_type": "sigmoid"}, 
      "inputs": [[1377, 3, 0]]
    }, 
    {
      "op": "Activation", 
      "name": "lstm_l1_t49_f", 
      "attr": {"act_type": "sigmoid"}, 
      "inputs": [[1377, 1, 0]]
    }, 
    {
      "op": "_mul", 
      "name": "_mul998", 
      "inputs": [[1379, 0, 0], [1357, 0, 0]]
    }, 
    {
      "op": "Activation", 
      "name": "lstm_l1_t49_i", 
      "attr": {"act_type": "sigmoid"}, 
      "inputs": [[1377, 0, 0]]
    }, 
    {
      "op": "Activation", 
      "name": "lstm_l1_t49_c", 
      "attr": {"act_type": "tanh"}, 
      "inputs": [[1377, 2, 0]]
    }, 
    {
      "op": "_mul", 
      "name": "_mul999", 
      "inputs": [[1381, 0, 0], [1382, 0, 0]]
    }, 
    {
      "op": "elemwise_add", 
      "name": "lstm_l1_t49_state", 
      "inputs": [[1380, 0, 0], [1383, 0, 0]]
    }, 
    {
      "op": "Activation", 
      "name": "activation499", 
      "attr": {"act_type": "tanh"}, 
      "inputs": [[1384, 0, 0]]
    }, 
    {
      "op": "_mul", 
      "name": "lstm_l1_t49_out", 
      "inputs": [[1378, 0, 0], [1385, 0, 0]]
    }, 
    {
      "op": "expand_dims", 
      "name": "expand_dims249", 
      "attr": {"axis": "1"}, 
      "inputs": [[1386, 0, 0]]
    }, 
    {
      "op": "Concat", 
      "name": "concat3", 
      "attr": {
        "dim": "1", 
        "num_args": "50"
      }, 
      "inputs": [
        [64, 0, 0], 
        [91, 0, 0], 
        [118, 0, 0], 
        [145, 0, 0], 
        [172, 0, 0], 
        [199, 0, 0], 
        [226, 0, 0], 
        [253, 0, 0], 
        [280, 0, 0], 
        [307, 0, 0], 
        [334, 0, 0], 
        [361, 0, 0], 
        [388, 0, 0], 
        [415, 0, 0], 
        [442, 0, 0], 
        [469, 0, 0], 
        [496, 0, 0], 
        [523, 0, 0], 
        [550, 0, 0], 
        [577, 0, 0], 
        [604, 0, 0], 
        [631, 0, 0], 
        [658, 0, 0], 
        [685, 0, 0], 
        [712, 0, 0], 
        [739, 0, 0], 
        [766, 0, 0], 
        [793, 0, 0], 
        [820, 0, 0], 
        [847, 0, 0], 
        [874, 0, 0], 
        [901, 0, 0], 
        [928, 0, 0], 
        [955, 0, 0], 
        [982, 0, 0], 
        [1009, 0, 0], 
        [1036, 0, 0], 
        [1063, 0, 0], 
        [1090, 0, 0], 
        [1117, 0, 0], 
        [1144, 0, 0], 
        [1171, 0, 0], 
        [1198, 0, 0], 
        [1225, 0, 0], 
        [1252, 0, 0], 
        [1279, 0, 0], 
        [1306, 0, 0], 
        [1333, 0, 0], 
        [1360, 0, 0], 
        [1387, 0, 0]
      ]
    }, 
    {
      "op": "Reshape", 
      "name": "reshape37", 
      "attr": {"shape": "(-1, 256)"}, 
      "inputs": [[1388, 0, 0]]
    }, 
    {
      "op": "null", 
      "name": "f_end_fc1_weight", 
      "attr": {"num_hidden": "2"}, 
      "inputs": []
    }, 
    {
      "op": "null", 
      "name": "f_end_fc1_bias", 
      "attr": {"num_hidden": "2"}, 
      "inputs": []
    }, 
    {
      "op": "FullyConnected", 
      "name": "f_end_fc1", 
      "attr": {"num_hidden": "2"}, 
      "inputs": [[1389, 0, 0], [1390, 0, 0], [1391, 0, 0]]
    }, 
    {
      "op": "null", 
      "name": "next_end", 
      "inputs": []
    }, 
    {
      "op": "Reshape", 
      "name": "reshape38", 
      "attr": {"shape": "(-1,)"}, 
      "inputs": [[1393, 0, 0]]
    }, 
    {
      "op": "SoftmaxOutput", 
      "name": "f_end", 
      "inputs": [[1392, 0, 0], [1394, 0, 0]]
    }, 
    {
      "op": "null", 
      "name": "f_prog_fc1_weight", 
      "attr": {"num_hidden": "8"}, 
      "inputs": []
    }, 
    {
      "op": "null", 
      "name": "f_prog_fc1_bias", 
      "attr": {"num_hidden": "8"}, 
      "inputs": []
    }, 
    {
      "op": "FullyConnected", 
      "name": "f_prog_fc1", 
      "attr": {"num_hidden": "8"}, 
      "inputs": [[1389, 0, 0], [1396, 0, 0], [1397, 0, 0]]
    }, 
    {
      "op": "_arange", 
      "name": "prog_memory", 
      "attr": {
        "dtype": "float32", 
        "repeat": "1", 
        "start": "0", 
        "step": "1.0", 
        "stop": "10"
      }, 
      "inputs": []
    }, 
    {
      "op": "null", 
      "name": "key_memory_weight", 
      "attr": {"num_hidden": "8"}, 
      "inputs": []
    }, 
    {
      "op": "null", 
      "name": "key_memory_bias", 
      "attr": {"num_hidden": "8"}, 
      "inputs": []
    }, 
    {
      "op": "FullyConnected", 
      "name": "key_memory", 
      "attr": {"num_hidden": "8"}, 
      "inputs": [[1399, 0, 0], [1400, 0, 0], [1401, 0, 0]]
    }, 
    {
      "op": "dot", 
      "name": "f_prog_dot", 
      "attr": {"transpose_b": "True"}, 
      "inputs": [[1398, 0, 0], [1402, 0, 0]]
    }, 
    {
      "op": "null", 
      "name": "next_prog", 
      "inputs": []
    }, 
    {
      "op": "Reshape", 
      "name": "reshape39", 
      "attr": {"shape": "(-1,)"}, 
      "inputs": [[1404, 0, 0]]
    }, 
    {
      "op": "SoftmaxOutput", 
      "name": "f_prog", 
      "inputs": [[1403, 0, 0], [1405, 0, 0]]
    }, 
    {
      "op": "null", 
      "name": "f_arg0_fc1_weight", 
      "attr": {"num_hidden": "10"}, 
      "inputs": []
    }, 
    {
      "op": "null", 
      "name": "f_arg0_fc1_bias", 
      "attr": {"num_hidden": "10"}, 
      "inputs": []
    }, 
    {
      "op": "FullyConnected", 
      "name": "f_arg0_fc1", 
      "attr": {"num_hidden": "10"}, 
      "inputs": [[1389, 0, 0], [1407, 0, 0], [1408, 0, 0]]
    }, 
    {
      "op": "null", 
      "name": "next_args", 
      "inputs": []
    }, 
    {
      "op": "Reshape", 
      "name": "next_args_reshaped", 
      "attr": {"shape": "(-1, 3, 10)"}, 
      "inputs": [[1410, 0, 0]]
    }, 
    {
      "op": "argmax", 
      "name": "next_args_numeric", 
      "attr": {"axis": "2"}, 
      "inputs": [[1411, 0, 0]]
    }, 
    {
      "op": "SliceChannel", 
      "name": "slicechannel3", 
      "attr": {
        "axis": "1", 
        "num_outputs": "3"
      }, 
      "inputs": [[1412, 0, 0]]
    }, 
    {
      "op": "Reshape", 
      "name": "reshape40", 
      "attr": {"shape": "(-1,)"}, 
      "inputs": [[1413, 0, 0]]
    }, 
    {
      "op": "SoftmaxOutput", 
      "name": "f_arg0_softmax", 
      "inputs": [[1409, 0, 0], [1414, 0, 0]]
    }, 
    {
      "op": "null", 
      "name": "f_arg1_fc1_weight", 
      "attr": {"num_hidden": "10"}, 
      "inputs": []
    }, 
    {
      "op": "null", 
      "name": "f_arg1_fc1_bias", 
      "attr": {"num_hidden": "10"}, 
      "inputs": []
    }, 
    {
      "op": "FullyConnected", 
      "name": "f_arg1_fc1", 
      "attr": {"num_hidden": "10"}, 
      "inputs": [[1389, 0, 0], [1416, 0, 0], [1417, 0, 0]]
    }, 
    {
      "op": "Reshape", 
      "name": "reshape42", 
      "attr": {"shape": "(-1,)"}, 
      "inputs": [[1413, 2, 0]]
    }, 
    {
      "op": "SoftmaxOutput", 
      "name": "f_arg1_softmax", 
      "inputs": [[1418, 0, 0], [1419, 0, 0]]
    }, 
    {
      "op": "null", 
      "name": "f_arg2_fc1_weight", 
      "attr": {"num_hidden": "10"}, 
      "inputs": []
    }, 
    {
      "op": "null", 
      "name": "f_arg2_fc1_bias", 
      "attr": {"num_hidden": "10"}, 
      "inputs": []
    }, 
    {
      "op": "FullyConnected", 
      "name": "f_arg2_fc1", 
      "attr": {"num_hidden": "10"}, 
      "inputs": [[1389, 0, 0], [1421, 0, 0], [1422, 0, 0]]
    }, 
    {
      "op": "SoftmaxOutput", 
      "name": "f_arg2_softmax", 
      "inputs": [[1423, 0, 0], [1419, 0, 0]]
    }, 
    {
      "op": "Concat", 
      "name": "f_args_concat", 
      "attr": {
        "dim": "1", 
        "num_args": "3"
      }, 
      "inputs": [[1415, 0, 0], [1420, 0, 0], [1424, 0, 0]]
    }, 
    {
      "op": "Reshape", 
      "name": "reshape43", 
      "attr": {"shape": "(100, 50, 3, 10)"}, 
      "inputs": [[1425, 0, 0]]
    }
  ], 
  "arg_nodes": [
    0, 
    2, 
    5, 
    6, 
    9, 
    10, 
    12, 
    13, 
    17, 
    18, 
    21, 
    22, 
    26, 
    27, 
    30, 
    31, 
    45, 
    46, 
    49, 
    50, 
    1390, 
    1391, 
    1393, 
    1396, 
    1397, 
    1400, 
    1401, 
    1404, 
    1407, 
    1408, 
    1410, 
    1416, 
    1417, 
    1421, 
    1422
  ], 
  "node_row_ptr": [
    0, 
    1, 
    2, 
    3, 
    4, 
    5, 
    6, 
    7, 
    8, 
    9, 
    10, 
    11, 
    12, 
    13, 
    14, 
    15, 
    16, 
    17, 
    18, 
    19, 
    20, 
    21, 
    22, 
    23, 
    24, 
    25, 
    75, 
    76, 
    77, 
    78, 
    79, 
    80, 
    81, 
    82, 
    83, 
    87, 
    88, 
    89, 
    90, 
    91, 
    92, 
    93, 
    94, 
    95, 
    96, 
    97, 
    98, 
    99, 
    100, 
    101, 
    102, 
    103, 
    104, 
    105, 
    109, 
    110, 
    111, 
    112, 
    113, 
    114, 
    115, 
    116, 
    117, 
    118, 
    119, 
    120, 
    121, 
    122, 
    123, 
    127, 
    128, 
    129, 
    130, 
    131, 
    132, 
    133, 
    134, 
    135, 
    136, 
    137, 
    138, 
    139, 
    143, 
    144, 
    145, 
    146, 
    147, 
    148, 
    149, 
    150, 
    151, 
    152, 
    153, 
    154, 
    155, 
    156, 
    160, 
    161, 
    162, 
    163, 
    164, 
    165, 
    166, 
    167, 
    168, 
    169, 
    170, 
    171, 
    172, 
    176, 
    177, 
    178, 
    179, 
    180, 
    181, 
    182, 
    183, 
    184, 
    185, 
    186, 
    187, 
    188, 
    189, 
    193, 
    194, 
    195, 
    196, 
    197, 
    198, 
    199, 
    200, 
    201, 
    202, 
    203, 
    204, 
    205, 
    209, 
    210, 
    211, 
    212, 
    213, 
    214, 
    215, 
    216, 
    217, 
    218, 
    219, 
    220, 
    221, 
    222, 
    226, 
    227, 
    228, 
    229, 
    230, 
    231, 
    232, 
    233, 
    234, 
    235, 
    236, 
    237, 
    238, 
    242, 
    243, 
    244, 
    245, 
    246, 
    247, 
    248, 
    249, 
    250, 
    251, 
    252, 
    253, 
    254, 
    255, 
    259, 
    260, 
    261, 
    262, 
    263, 
    264, 
    265, 
    266, 
    267, 
    268, 
    269, 
    270, 
    271, 
    275, 
    276, 
    277, 
    278, 
    279, 
    280, 
    281, 
    282, 
    283, 
    284, 
    285, 
    286, 
    287, 
    288, 
    292, 
    293, 
    294, 
    295, 
    296, 
    297, 
    298, 
    299, 
    300, 
    301, 
    302, 
    303, 
    304, 
    308, 
    309, 
    310, 
    311, 
    312, 
    313, 
    314, 
    315, 
    316, 
    317, 
    318, 
    319, 
    320, 
    321, 
    325, 
    326, 
    327, 
    328, 
    329, 
    330, 
    331, 
    332, 
    333, 
    334, 
    335, 
    336, 
    337, 
    341, 
    342, 
    343, 
    344, 
    345, 
    346, 
    347, 
    348, 
    349, 
    350, 
    351, 
    352, 
    353, 
    354, 
    358, 
    359, 
    360, 
    361, 
    362, 
    363, 
    364, 
    365, 
    366, 
    367, 
    368, 
    369, 
    370, 
    374, 
    375, 
    376, 
    377, 
    378, 
    379, 
    380, 
    381, 
    382, 
    383, 
    384, 
    385, 
    386, 
    387, 
    391, 
    392, 
    393, 
    394, 
    395, 
    396, 
    397, 
    398, 
    399, 
    400, 
    401, 
    402, 
    403, 
    407, 
    408, 
    409, 
    410, 
    411, 
    412, 
    413, 
    414, 
    415, 
    416, 
    417, 
    418, 
    419, 
    420, 
    424, 
    425, 
    426, 
    427, 
    428, 
    429, 
    430, 
    431, 
    432, 
    433, 
    434, 
    435, 
    436, 
    440, 
    441, 
    442, 
    443, 
    444, 
    445, 
    446, 
    447, 
    448, 
    449, 
    450, 
    451, 
    452, 
    453, 
    457, 
    458, 
    459, 
    460, 
    461, 
    462, 
    463, 
    464, 
    465, 
    466, 
    467, 
    468, 
    469, 
    473, 
    474, 
    475, 
    476, 
    477, 
    478, 
    479, 
    480, 
    481, 
    482, 
    483, 
    484, 
    485, 
    486, 
    490, 
    491, 
    492, 
    493, 
    494, 
    495, 
    496, 
    497, 
    498, 
    499, 
    500, 
    501, 
    502, 
    506, 
    507, 
    508, 
    509, 
    510, 
    511, 
    512, 
    513, 
    514, 
    515, 
    516, 
    517, 
    518, 
    519, 
    523, 
    524, 
    525, 
    526, 
    527, 
    528, 
    529, 
    530, 
    531, 
    532, 
    533, 
    534, 
    535, 
    539, 
    540, 
    541, 
    542, 
    543, 
    544, 
    545, 
    546, 
    547, 
    548, 
    549, 
    550, 
    551, 
    552, 
    556, 
    557, 
    558, 
    559, 
    560, 
    561, 
    562, 
    563, 
    564, 
    565, 
    566, 
    567, 
    568, 
    572, 
    573, 
    574, 
    575, 
    576, 
    577, 
    578, 
    579, 
    580, 
    581, 
    582, 
    583, 
    584, 
    585, 
    589, 
    590, 
    591, 
    592, 
    593, 
    594, 
    595, 
    596, 
    597, 
    598, 
    599, 
    600, 
    601, 
    605, 
    606, 
    607, 
    608, 
    609, 
    610, 
    611, 
    612, 
    613, 
    614, 
    615, 
    616, 
    617, 
    618, 
    622, 
    623, 
    624, 
    625, 
    626, 
    627, 
    628, 
    629, 
    630, 
    631, 
    632, 
    633, 
    634, 
    638, 
    639, 
    640, 
    641, 
    642, 
    643, 
    644, 
    645, 
    646, 
    647, 
    648, 
    649, 
    650, 
    651, 
    655, 
    656, 
    657, 
    658, 
    659, 
    660, 
    661, 
    662, 
    663, 
    664, 
    665, 
    666, 
    667, 
    671, 
    672, 
    673, 
    674, 
    675, 
    676, 
    677, 
    678, 
    679, 
    680, 
    681, 
    682, 
    683, 
    684, 
    688, 
    689, 
    690, 
    691, 
    692, 
    693, 
    694, 
    695, 
    696, 
    697, 
    698, 
    699, 
    700, 
    704, 
    705, 
    706, 
    707, 
    708, 
    709, 
    710, 
    711, 
    712, 
    713, 
    714, 
    715, 
    716, 
    717, 
    721, 
    722, 
    723, 
    724, 
    725, 
    726, 
    727, 
    728, 
    729, 
    730, 
    731, 
    732, 
    733, 
    737, 
    738, 
    739, 
    740, 
    741, 
    742, 
    743, 
    744, 
    745, 
    746, 
    747, 
    748, 
    749, 
    750, 
    754, 
    755, 
    756, 
    757, 
    758, 
    759, 
    760, 
    761, 
    762, 
    763, 
    764, 
    765, 
    766, 
    770, 
    771, 
    772, 
    773, 
    774, 
    775, 
    776, 
    777, 
    778, 
    779, 
    780, 
    781, 
    782, 
    783, 
    787, 
    788, 
    789, 
    790, 
    791, 
    792, 
    793, 
    794, 
    795, 
    796, 
    797, 
    798, 
    799, 
    803, 
    804, 
    805, 
    806, 
    807, 
    808, 
    809, 
    810, 
    811, 
    812, 
    813, 
    814, 
    815, 
    816, 
    820, 
    821, 
    822, 
    823, 
    824, 
    825, 
    826, 
    827, 
    828, 
    829, 
    830, 
    831, 
    832, 
    836, 
    837, 
    838, 
    839, 
    840, 
    841, 
    842, 
    843, 
    844, 
    845, 
    846, 
    847, 
    848, 
    849, 
    853, 
    854, 
    855, 
    856, 
    857, 
    858, 
    859, 
    860, 
    861, 
    862, 
    863, 
    864, 
    865, 
    869, 
    870, 
    871, 
    872, 
    873, 
    874, 
    875, 
    876, 
    877, 
    878, 
    879, 
    880, 
    881, 
    882, 
    886, 
    887, 
    888, 
    889, 
    890, 
    891, 
    892, 
    893, 
    894, 
    895, 
    896, 
    897, 
    898, 
    902, 
    903, 
    904, 
    905, 
    906, 
    907, 
    908, 
    909, 
    910, 
    911, 
    912, 
    913, 
    914, 
    915, 
    919, 
    920, 
    921, 
    922, 
    923, 
    924, 
    925, 
    926, 
    927, 
    928, 
    929, 
    930, 
    931, 
    935, 
    936, 
    937, 
    938, 
    939, 
    940, 
    941, 
    942, 
    943, 
    944, 
    945, 
    946, 
    947, 
    948, 
    952, 
    953, 
    954, 
    955, 
    956, 
    957, 
    958, 
    959, 
    960, 
    961, 
    962, 
    963, 
    964, 
    968, 
    969, 
    970, 
    971, 
    972, 
    973, 
    974, 
    975, 
    976, 
    977, 
    978, 
    979, 
    980, 
    981, 
    985, 
    986, 
    987, 
    988, 
    989, 
    990, 
    991, 
    992, 
    993, 
    994, 
    995, 
    996, 
    997, 
    1001, 
    1002, 
    1003, 
    1004, 
    1005, 
    1006, 
    1007, 
    1008, 
    1009, 
    1010, 
    1011, 
    1012, 
    1013, 
    1014, 
    1018, 
    1019, 
    1020, 
    1021, 
    1022, 
    1023, 
    1024, 
    1025, 
    1026, 
    1027, 
    1028, 
    1029, 
    1030, 
    1034, 
    1035, 
    1036, 
    1037, 
    1038, 
    1039, 
    1040, 
    1041, 
    1042, 
    1043, 
    1044, 
    1045, 
    1046, 
    1047, 
    1051, 
    1052, 
    1053, 
    1054, 
    1055, 
    1056, 
    1057, 
    1058, 
    1059, 
    1060, 
    1061, 
    1062, 
    1063, 
    1067, 
    1068, 
    1069, 
    1070, 
    1071, 
    1072, 
    1073, 
    1074, 
    1075, 
    1076, 
    1077, 
    1078, 
    1079, 
    1080, 
    1084, 
    1085, 
    1086, 
    1087, 
    1088, 
    1089, 
    1090, 
    1091, 
    1092, 
    1093, 
    1094, 
    1095, 
    1096, 
    1100, 
    1101, 
    1102, 
    1103, 
    1104, 
    1105, 
    1106, 
    1107, 
    1108, 
    1109, 
    1110, 
    1111, 
    1112, 
    1113, 
    1117, 
    1118, 
    1119, 
    1120, 
    1121, 
    1122, 
    1123, 
    1124, 
    1125, 
    1126, 
    1127, 
    1128, 
    1129, 
    1133, 
    1134, 
    1135, 
    1136, 
    1137, 
    1138, 
    1139, 
    1140, 
    1141, 
    1142, 
    1143, 
    1144, 
    1145, 
    1146, 
    1150, 
    1151, 
    1152, 
    1153, 
    1154, 
    1155, 
    1156, 
    1157, 
    1158, 
    1159, 
    1160, 
    1161, 
    1162, 
    1166, 
    1167, 
    1168, 
    1169, 
    1170, 
    1171, 
    1172, 
    1173, 
    1174, 
    1175, 
    1176, 
    1177, 
    1178, 
    1179, 
    1183, 
    1184, 
    1185, 
    1186, 
    1187, 
    1188, 
    1189, 
    1190, 
    1191, 
    1192, 
    1193, 
    1194, 
    1195, 
    1199, 
    1200, 
    1201, 
    1202, 
    1203, 
    1204, 
    1205, 
    1206, 
    1207, 
    1208, 
    1209, 
    1210, 
    1211, 
    1212, 
    1216, 
    1217, 
    1218, 
    1219, 
    1220, 
    1221, 
    1222, 
    1223, 
    1224, 
    1225, 
    1226, 
    1227, 
    1228, 
    1232, 
    1233, 
    1234, 
    1235, 
    1236, 
    1237, 
    1238, 
    1239, 
    1240, 
    1241, 
    1242, 
    1243, 
    1244, 
    1245, 
    1249, 
    1250, 
    1251, 
    1252, 
    1253, 
    1254, 
    1255, 
    1256, 
    1257, 
    1258, 
    1259, 
    1260, 
    1261, 
    1265, 
    1266, 
    1267, 
    1268, 
    1269, 
    1270, 
    1271, 
    1272, 
    1273, 
    1274, 
    1275, 
    1276, 
    1277, 
    1278, 
    1282, 
    1283, 
    1284, 
    1285, 
    1286, 
    1287, 
    1288, 
    1289, 
    1290, 
    1291, 
    1292, 
    1293, 
    1294, 
    1298, 
    1299, 
    1300, 
    1301, 
    1302, 
    1303, 
    1304, 
    1305, 
    1306, 
    1307, 
    1308, 
    1309, 
    1310, 
    1311, 
    1315, 
    1316, 
    1317, 
    1318, 
    1319, 
    1320, 
    1321, 
    1322, 
    1323, 
    1324, 
    1325, 
    1326, 
    1327, 
    1331, 
    1332, 
    1333, 
    1334, 
    1335, 
    1336, 
    1337, 
    1338, 
    1339, 
    1340, 
    1341, 
    1342, 
    1343, 
    1344, 
    1348, 
    1349, 
    1350, 
    1351, 
    1352, 
    1353, 
    1354, 
    1355, 
    1356, 
    1357, 
    1358, 
    1359, 
    1360, 
    1364, 
    1365, 
    1366, 
    1367, 
    1368, 
    1369, 
    1370, 
    1371, 
    1372, 
    1373, 
    1374, 
    1375, 
    1376, 
    1377, 
    1381, 
    1382, 
    1383, 
    1384, 
    1385, 
    1386, 
    1387, 
    1388, 
    1389, 
    1390, 
    1391, 
    1392, 
    1393, 
    1397, 
    1398, 
    1399, 
    1400, 
    1401, 
    1402, 
    1403, 
    1404, 
    1405, 
    1406, 
    1407, 
    1408, 
    1409, 
    1410, 
    1414, 
    1415, 
    1416, 
    1417, 
    1418, 
    1419, 
    1420, 
    1421, 
    1422, 
    1423, 
    1424, 
    1425, 
    1426, 
    1430, 
    1431, 
    1432, 
    1433, 
    1434, 
    1435, 
    1436, 
    1437, 
    1438, 
    1439, 
    1440, 
    1441, 
    1442, 
    1443, 
    1447, 
    1448, 
    1449, 
    1450, 
    1451, 
    1452, 
    1453, 
    1454, 
    1455, 
    1456, 
    1457, 
    1458, 
    1459, 
    1463, 
    1464, 
    1465, 
    1466, 
    1467, 
    1468, 
    1469, 
    1470, 
    1471, 
    1472, 
    1473, 
    1474, 
    1475, 
    1476, 
    1480, 
    1481, 
    1482, 
    1483, 
    1484, 
    1485, 
    1486, 
    1487, 
    1488, 
    1489, 
    1490, 
    1491, 
    1492, 
    1496, 
    1497, 
    1498, 
    1499, 
    1500, 
    1501, 
    1502, 
    1503, 
    1504, 
    1505, 
    1506, 
    1507, 
    1508, 
    1509, 
    1513, 
    1514, 
    1515, 
    1516, 
    1517, 
    1518, 
    1519, 
    1520, 
    1521, 
    1522, 
    1523, 
    1524, 
    1525, 
    1529, 
    1530, 
    1531, 
    1532, 
    1533, 
    1534, 
    1535, 
    1536, 
    1537, 
    1538, 
    1539, 
    1540, 
    1541, 
    1542, 
    1546, 
    1547, 
    1548, 
    1549, 
    1550, 
    1551, 
    1552, 
    1553, 
    1554, 
    1555, 
    1556, 
    1557, 
    1558, 
    1562, 
    1563, 
    1564, 
    1565, 
    1566, 
    1567, 
    1568, 
    1569, 
    1570, 
    1571, 
    1572, 
    1573, 
    1574, 
    1575, 
    1579, 
    1580, 
    1581, 
    1582, 
    1583, 
    1584, 
    1585, 
    1586, 
    1587, 
    1588, 
    1589, 
    1590, 
    1591, 
    1595, 
    1596, 
    1597, 
    1598, 
    1599, 
    1600, 
    1601, 
    1602, 
    1603, 
    1604, 
    1605, 
    1606, 
    1607, 
    1608, 
    1612, 
    1613, 
    1614, 
    1615, 
    1616, 
    1617, 
    1618, 
    1619, 
    1620, 
    1621, 
    1622, 
    1623, 
    1624, 
    1628, 
    1629, 
    1630, 
    1631, 
    1632, 
    1633, 
    1634, 
    1635, 
    1636, 
    1637, 
    1638, 
    1639, 
    1640, 
    1641, 
    1645, 
    1646, 
    1647, 
    1648, 
    1649, 
    1650, 
    1651, 
    1652, 
    1653, 
    1654, 
    1655, 
    1656, 
    1657, 
    1661, 
    1662, 
    1663, 
    1664, 
    1665, 
    1666, 
    1667, 
    1668, 
    1669, 
    1670, 
    1671, 
    1672, 
    1673, 
    1674, 
    1678, 
    1679, 
    1680, 
    1681, 
    1682, 
    1683, 
    1684, 
    1685, 
    1686, 
    1687, 
    1688, 
    1689, 
    1690, 
    1694, 
    1695, 
    1696, 
    1697, 
    1698, 
    1699, 
    1700, 
    1701, 
    1702, 
    1703, 
    1704, 
    1705, 
    1706, 
    1707, 
    1711, 
    1712, 
    1713, 
    1714, 
    1715, 
    1716, 
    1717, 
    1718, 
    1719, 
    1720, 
    1721, 
    1722, 
    1723, 
    1727, 
    1728, 
    1729, 
    1730, 
    1731, 
    1732, 
    1733, 
    1734, 
    1735, 
    1736, 
    1737, 
    1738, 
    1739, 
    1740, 
    1741, 
    1742, 
    1743, 
    1744, 
    1745, 
    1746, 
    1747, 
    1748, 
    1749, 
    1750, 
    1751, 
    1752, 
    1753, 
    1754, 
    1755, 
    1756, 
    1757, 
    1758, 
    1759, 
    1760, 
    1761, 
    1762, 
    1765, 
    1766, 
    1767, 
    1768, 
    1769, 
    1770, 
    1771, 
    1772, 
    1773, 
    1774, 
    1775, 
    1776, 
    1777, 
    1778
  ], 
  "heads": [[1395, 0, 0], [1406, 0, 0], [1426, 0, 0]], 
  "attrs": {"mxnet_version": ["int", 905]}
}